waypoint_state_411_low_velocity_dynamic.onnx (onnx, 694169 bytes, 20 tensors)

log_std f4 [4]
-0.16361068 -0.12247296 -0.13244207 -0.051157143
00000000: 8f89 27be 1ad3 fabd e59e 07be 278a 51bd

features_extractor.state_extractor.0.weight f4 [128, 16]
-0.11381404 -0.10650891 -0.10554105 -0.0171711 -0.053455297 0.01478343 0.022114813 0.16415282
-0.051649258 0.2887874 -0.0012913431 -0.016769268 -0.035969917 0.07071906 -0.0150428265 0.08443458
0.11096776 -0.024800694 -0.117749564 -0.0036456746 0.06672317 0.033774465 0.018497998 0.25715852
0.12803839 -0.059776623 -0.03202272 -0.2969339 0.05824531 0.10131928 -0.079694346 -0.0932128
-0.31214142 0.0057011545 0.08618843 -0.23155545 0.033578333 0.09128837 0.0185532 -0.108513795
-0.008968015 0.0015586122 -0.12832211 -0.0057452014 -0.025915759 -0.04163227 -0.0030290852 -0.03240054
-0.11058852 -0.033084013 -0.07155294 0.033304125 -0.23107438 -0.09025549 0.31757957 -0.12392136
-0.13665664 -0.08499664 -0.12561728 -0.10931555 -0.26115105 -0.032754235 -0.07772085 0.08531866
0.02217915 -0.0022728492 0.011145325 0.077159904 0.12778871 0.22415887 -0.099556416 0.009375718
-0.12753062 0.038050137 0.33573094 0.34707397 -0.008798994 0.10442111 0.034416422 0.077759705
0.07557431 0.08330939 0.033938937 0.1649169 0.03742148 -0.024617117 0.016651232 -0.1011042
-0.07140688 0.113384746 0.12219128 -0.1035601 0.05992066 0.10583744 -0.019565264 -0.01904243
-0.11273595 -0.07287085 0.064496525 -0.22373918 -0.21038434 0.027618542 -0.16442958 -0.16596425
-0.020000396 -0.16955845 -0.007859768 0.10473101 0.012678714 -0.004283067 -0.01814783 -0.020446995
-0.19818431 -0.22041182 0.044032726 -0.10730561 -0.14074177 -0.17712353 -0.14222418 -0.18916267
0.01898317 0.040247265 0.22755286 -0.053489253 -0.017251002 0.02100693 -0.20403486 0.12379251
-0.029473642 0.28187707 0.007431094 0.22627464 0.037903126 -0.18086115 -0.04073657 0.00034147277
0.06916144 -0.016845604 -0.21722603 0.15860145 0.10728626 -0.044368353 0.014753195 -0.03622915
0.06058826 -0.05798938 -0.04073625 -0.20857 0.012237256 0.1402951 0.32303005 0.1974422
0.12235719 0.25219637 -0.08925877 -0.076219186 -0.053303458 -0.04184435 0.0128908465 -0.013944512
-0.24378821 0.16929409 0.023178684 -0.12515481 0.10030271 0.21139407 0.04741492 -0.2118111
-0.050892252 0.021235574 -0.0637214 0.11727756 0.09046865 -0.05075635 0.034342773 -0.0028953773
-0.06764649 -0.017409539 0.011873968 0.017989384 0.083609104 0.04741959 0.06342015 -0.053200297
-0.07328533 0.09682251 -0.067530066 0.1475057 0.08631941 -0.1300897 0.031547625 0.1270427
0.061320774 0.1592041 -0.015355085 0.069965884 0.24387342 -0.15537322 0.0015944805 -0.081522696
0.024999952 0.004686873 -0.05451707 0.1506259 0.017921874 0.05706996 0.017174246 0.032430697
-0.11259352 -0.17306672 0.0009612334 -0.064286634 0.18669207 -0.003784972 0.015031925 0.179888
-0.20220621 0.016273426 -0.05859336 -0.19408531 0.014015615 0.018017562 -0.034233633 0.0025676235
0.12581302 -0.11751196 -0.1587781 -0.003674673 0.09741362 0.006226285 0.05778031 0.15611063
-0.11511746 0.06777088 0.11739451 -0.37788442 -0.03165877 0.18661854 0.04776508 0.02536476
-0.14931716 0.08608873 -0.20857695 0.1262935 0.087974794 -0.01093878 -0.05146558 -0.013761275
0.06750902 0.15459141 -0.1566266 0.08682361 0.0065133628 0.1369931 0.10010611 -0.041731007
00000000: 5617 e9bd 5821 dabd e825 d8bd 68aa 8cbc
00000010: f1f3 5abd 3336 723c 202a b53c ad17 283e
00000020: 2c8e 53bd f1db 933e 4942 a9ba b45f 89bc
00000030: 3155 13bd 28d5 903d 3076 76bc 09ec ac3d
00000040: 1143 e33d d32a cbbc af26 f1bd 45ec 6ebb
00000050: 28a6 883d 1857 0a3d 1d89 973c 48aa 833e
00000060: 7f1c 033e 55d8 74bd 412a 03bd b807 98be
00000070: a292 6e3d 7c80 cf3d ca36 a3bd 5ae6 bebd
00000080: 00d1 9fbe c0d0 ba3b 8f83 b03d df1c 6dbe
00000090: 6f89 093d 66f5 ba3d e1fc 973c 7b3c debd
000000a0: 95ee 12bc 594a cc3a df66 03be 3e42 bcbb
000000b0: 494d d4bc 9986 2abd 9e83 46bb 6eb6 04bd
000000c0: 3c7c e2bd 1a83 07bd 598a 92bd e869 083d
000000d0: c39e 6cbe dfd7 b8bd ca99 a23e 7bca fdbd
000000e0: b8ef 0bbe b812 aebd d1a1 00be d5e0 dfbd
000000f0: 97b5 85be 4e29 06bd 1c2c 9fbd 8dbb ae3d
00000100: 0cb1 b53c 15f4 14bb e29a 363c 0306 9e3d
00000110: 0bdb 023e e789 653e 3ce4 cbbd 9d9c 193c
00000120: 6397 02be 76da 1b3d ede4 ab3e aeb3 b13e
00000130: a829 10bc bcda d53d 3cf8 0c3d 7b40 9f3d
00000140: b4c6 9a3d 1d9e aa3d 8e03 0b3d fadf 283e
00000150: 4447 193d d6a9 c9bc 2a68 883c b80f cfbd
00000160: c53d 92bd 4336 e83d 6c3f fa3d 5117 d4bd
00000170: 5e6f 753d 4dc1 d83d 5547 a0bc dffe 9bbc
00000180: 1be2 e6bd 503d 95bd c116 843d e21b 65be
00000190: fe6e 57be 4840 e23c 3a60 28be 88f2 29be
000001a0: dfd7 a3bc bba0 2dbe 42c6 00bc 367d d63d
000001b0: 61ba 4f3c f858 8cbb c2aa 94bc 7580 a7bc
000001c0: d4f0 4abe a3b3 61be a95b 343d 0bc3 dbbd
000001d0: 9c1e 10be df5f 35be 37a3 11be dcb3 41be
000001e0: 9882 9b3c 51da 243d 9e03 693e 8c17 5bbd
000001f0: f951 8dbc ba16 ac3c 84ee 50be ed86 fd3d
00000200: b572 f1bc 3152 903e 8980 f33b 8ab4 673e
00000210: 4f40 1b3d aa33 39be 64db 26bd b307 b339
00000220: 83a4 8d3d cbff 89bc 8070 5ebe 6b68 223e
00000230: e6b8 db3d 97bb 35bd 63b7 713c 0465 14bd
00000240: 652b 783d 4686 6dbd 0edb 26bd 6093 55be
00000250: c67e 483c 85a9 0f3e 3264 a53e 4a2e 4a3e
00000260: 6896 fa3d e21f 813e 4dcd b6bd ce18 9cbd
00000270: ba54 5abd fb64 2bbd 2134 533c 8677 64bc
00000280: 9ea3 79be 6e5b 2d3e 39e1 bd3c 9528 00be
00000290: 826b cd3d b077 583e 2636 423d 02e5 58be
000002a0: 6574 50bd 3af6 ad3c 5e80 82bd 382f f03d
000002b0: a147 b93d e4e5 4fbd 02ab 0c3d 5fc0 3dbb
000002c0: 3e8a 8abd 739e 8ebc 088b 423c 795e 933c
000002d0: 403b ab3d 0b3b 423d 6ce2 813d 8ee8 59bd
000002e0: 9e16 96bd e14a c63d 344d 8abd bc0b 173e
000002f0: 3bc8 b03d 3c36 05be 1538 013d 7b17 023e
00000300: 7e2b 7b3d 6606 233e e593 7bbc 464a 8f3d
00000310: f4b9 793e 281a 1fbe e3fd d03a 5ff5 a6bd
00000320: b3cc cc3c 5794 993b 4b4d 5fbd ad3d 1a3e
00000330: e5d0 923c 31c2 693d 01b1 8c3c 0dd6 043d
00000340: 6e97 e6bd 6738 31be 48fb 7b3a b6a8 83bd
00000350: 352c 3f3e 4b0d 78bb 7748 763c 8f34 383e
00000360: 250f 4fbe d94f 853c 97ff 6fbd 4dbe 46be
00000370: c0a1 653c 9199 933c 9138 0cbd 9345 283b
00000380: 21d5 003e 1caa f0bd ba96 22be c8d2 70bb
00000390: cb80 c73d dd05 cc3b 0cab 6c3d 77db 1f3e
000003a0: b4c2 ebbd 76cb 8a3d 886c f03d 117a c1be
000003b0: a0ac 01bd ee18 3f3e 51a5 433d c2c9 cf3c
000003c0: 99e6 18be 4a4f b03d 3295 55be 1553 013e
000003d0: 212c b43d 9238 33bc 92cd 52bd f976 61bc
000003e0: 2b42 8a3d 364d 1e3e b962 20be 94d0 b13d
000003f0: 0c6e d53b eb47 0c3e 6f04 cd3d 22ee 2abd

features_extractor.state_extractor.0.bias f4 [128]
0.0038678981 0.024140773 0.05234913 0.008830806 -0.043387245 0.029467406 0.025453528 0.053638894
0.022172948 0.012522788 0.04535559 0.03036711 -0.00938616 0.05484809 0.01307258 0.004468264
-0.019454291 0.015508605 0.0361302 0.010043364 0.050947636 -0.0015190586 0.03147716 -0.01808007
0.0069549484 0.031274345 -0.0009727315 0.02399131 0.0045494842 0.022233931 0.089945816 0.041357964
0.031309962 0.010910194 0.006419292 0.02382635 -0.00068902713 -0.014372209 -0.0061757956 0.014608021
0.015561233 -0.029467978 0.027207278 0.005122822 0.046650086 -0.0076807872 0.04000204 0.005514615
0.12336439 0.0033460632 0.0071304645 0.004889705 0.04324668 -0.013085832 -0.0030770123 0.005490347
0.037693508 -0.011103168 0.06898617 0.07366664 0.0060599865 0.00017452502 0.0026841958 0.008393833
0.0051353946 -0.012252285 0.0068338197 0.08185509 -0.013403525 0.048012197 0.061502513 0.032013472
-0.00074738 -0.005597319 0.0013938469 0.033127815 0.06157073 0.013247381 0.0049130493 0.08143389
0.036460232 0.02656438 0.01985224 0.013125426 -0.0117637925 0.008605211 0.011042239 0.03714015
0.042767946 0.038656928 0.018854847 0.026414681 0.044147287 -0.0043867943 0.017592058 -0.01885904
-0.0049307877 -0.02129745 -0.004813195 0.020924954 -0.00044989536 0.047382925 0.008913617 -0.009617989
0.009542907 -0.0052374303 0.046023533 0.0066873217 0.020643424 0.023426538 0.06436618 0.03266908
0.0032128918 0.007203558 -0.00888353 -0.008198937 0.004348857 0.009921998 0.010546063 -0.0068957782
-0.0034608743 0.007054716 0.01579307 0.013250583 0.008924417 0.014301362 0.051078524 0.043270182
00000000: 907c 7d3b dfc2 c53c 0b6c 563d 16af 103c
00000010: d3b6 31bd a165 f13c eb83 d03c 75b4 5b3d
00000020: 0ba4 b53c 612c 4d3c c8c6 393d 72c4 f83c
00000030: 69c8 19bc 64a8 603d 602e 563c 846a 923b
00000040: 9b5e 9fbc ce17 7e3c 43fd 133d ec8c 243c
00000050: 78ae 503d 261b c7ba 32ee 003d a81c 94bc
00000060: 56e6 e33b 8719 003d e8fe 7eba 6c89 c43c
00000070: d713 953b ef23 b63c 8335 b83d f866 293d
00000080: e03e 003d acc0 323c ed58 d23b 7a2f c33c
00000090: d49f 34ba 6a79 6bbc 545e cabb 7b56 6f3c
000000a0: 8bf4 7e3c d466 f1bc cce1 de3c 58dd a73b
000000b0: 2914 3f3d 1daf fbbb 2ed9 233d f2b3 b43b
000000c0: 78a6 fc3d a049 5b3b aca6 e93b d239 a03b
000000d0: 6e23 313d f565 56bc b3a7 49bb 5ee8 b33b
000000e0: 8264 1a3d 10ea 35bc 9f48 8d3d 89de 963d
000000f0: da92 c63b b400 3739 55e9 2f3b 4a86 093c
00000100: d046 a83b cfbd 48bc 3cee df3b a4a3 a73d
00000110: 759a 5bbc 70a8 443d 0fea 7b3d 8f20 033d
00000120: d3eb 43ba b769 b7bb beb1 b63a 08b1 073d
00000130: 9731 7c3d 8b0b 593c a5fd a03b d0c6 a63d
00000140: 5357 153d 8b9d d93c 2aa1 a23c 070c 573c
00000150: ecbc 40bc dffc 0c3c 82ea 343c 4520 183d
00000160: 712d 2f3d ba56 1e3d 7b75 9a3c 9a63 d83c
00000170: c9d3 343d 19bf 8fbb 381d 903c 467e 9abc
00000180: 7292 a1bb fd77 aebc 02b8 9dbb cf6a ab3c
00000190: efdf ebb9 9914 423d 6b0a 123c c594 1dbc
000001a0: da59 1c3c c09e abbb 2c83 3c3d 5221 db3b
000001b0: 661c a93c 03e9 bf3c 6ad2 833d 03d0 053d
000001c0: 618f 523b d30b ec3b 3a8c 11bc d654 06bc
000001d0: db80 8e3b e08f 223c 65c9 2c3c fbf5 e1bb
000001e0: d6cf 62bb 3f2b e73b 7860 813c f918 593c
000001f0: b837 123c 4350 6a3c b737 513d 133c 313d

features_extractor.state_extractor.2.weight f4 [128, 128]
-0.028568761 0.16102071 -0.2167211 -0.21565035 -0.05264218 -0.09414317 -0.05392679 0.024190776
0.15833163 0.06539923 -0.0066758287 -0.1474999 0.05556389 0.09422566 -0.15457888 -0.1846655
0.021663195 -0.19290961 -0.011662105 -0.057495803 -0.074724525 -0.00925473 0.032547075 -0.07855923
0.13399754 0.18574181 -0.05815667 -0.047005594 -0.029282447 0.09095049 0.28211686 0.043316025
0.015132393 0.10056506 0.052432466 0.039865367 -0.13115017 -0.1438951 0.19213514 0.105861254
-0.06551829 0.129526 0.011621294 -0.07254005 -0.08682524 -0.034375265 -0.038904697 -0.0044410108
0.08630176 0.13861643 0.0862295 -0.038742274 -0.017975887 0.0077527375 0.019246524 -0.22535759
-0.09171757 -0.021660592 -0.072679475 0.037331417 -0.06748796 0.0031522964 0.24685787 0.053120885
-0.03674017 0.19300565 -0.073190324 -0.20306326 0.038213443 0.13540149 -0.015303568 0.05535802
0.25395358 -0.060290582 0.16422679 0.20526382 -0.06416849 -0.08883467 0.016710358 -0.14575467
-0.046685994 0.014705788 0.047815237 -0.05772087 0.2662359 0.14221215 -0.13058549 0.08729632
0.17910805 -0.045361027 0.034889165 0.33391634 -0.12733439 -0.1353078 0.119288936 -0.09573541
0.04430872 0.21884815 -0.25939986 -0.017688189 0.13090038 -0.05871352 0.0053501097 -0.3078533
0.06265178 -0.03938049 -0.177114 -0.30834675 0.013013574 -0.040538263 -0.00066975574 -0.0960603
-0.26045623 0.0046781003 0.14538018 -0.10821133 -0.0022552512 0.034359016 -0.14247501 0.22483802
0.015351478 -0.040793773 0.21346042 0.14177147 -0.04391656 0.049987763 -0.16698308 -0.08771576
-0.08508853 -0.06389494 -0.13330115 0.06729324 -0.028541567 0.07109214 -0.045058418 0.122799985
-0.13743465 -0.25676173 0.05774328 0.104804315 0.0011372567 0.09753534 -0.057566915 0.06742436
0.0854026 -0.15534803 0.16014114 0.12149982 -0.19321874 0.12350091 0.046782486 -0.026285645
-0.047660556 -0.057284776 -0.026562225 0.08139893 0.055058517 -0.018151835 0.13344295 0.227722
0.11624893 0.04831921 0.32101634 0.022001857 -0.08141947 0.09182212 -0.03608581 -0.15641211
0.26404905 0.26762173 0.05008458 -0.14381835 -0.15107748 -0.04005691 0.014897433 -0.07702226
0.022926623 -0.013918788 0.057174522 0.027930694 0.062090594 -0.009657854 0.084160976 -0.048783146
-0.11990518 0.025148284 -0.14706543 0.16711903 -0.09283563 -0.022779534 -0.12564194 -0.23093252
-0.24940021 0.111357965 -0.104794644 -0.11466115 -0.33003044 0.09746148 0.22273546 -0.044950034
0.019962022 0.018384617 -0.021702955 -0.08808482 0.017698487 0.14819144 0.10439756 -0.1040983
-0.035650462 0.07842619 0.0042582266 -0.15573996 0.23467788 0.1264625 0.15364894 0.023685163
0.03317692 0.14483191 0.014801658 0.066636935 -0.014914717 -0.15439363 0.12223321 -0.029211896
-0.033424333 0.062048517 0.24598335 0.12786552 -0.14492491 -0.07610237 -0.19869533 0.093790144
0.03297258 0.14026769 -0.055098016 0.0110164145 0.07750269 0.0037132083 0.073880784 -0.0017852684
-0.008615931 0.019346733 0.06602115 -0.20812899 -0.20550923 0.24706157 -0.0071495636 -0.111640975
0.0004845476 0.12810327 -0.069282 0.14962591 -0.081736974 0.019867731 -0.104174465 0.24353759
00000000: 0909 eabc 9de2 243e 23ec 5dbe 72d3 5cbe
00000010: 549f 57bd 22ce c0bd 56e2 5cbd bc2b c63c
00000020: b021 223e 08f0 853d e9c0 dabb 370a 17be
00000030: f696 633d 62f9 c03d ed49 1ebe f418 3dbe
00000040: 0377 b13c 198a 45be 6a12 3fbc b880 6bbd
00000050: 2c09 99bd 27a1 17bc 1550 053d a9e3 a0bd
00000060: a736 093e 1a33 3e3e b035 6ebd f088 40bd
00000070: bee1 efbc 4044 ba3d 9f71 903e 256c 313d
00000080: dbed 773c 0ef5 cd3d 6dc3 563d de49 233d
00000090: 3b4c 06be 3d59 13be 13bf 443e c9cd d83d
000000a0: 742e 86bd 77a2 043e 3d67 3e3c e18f 94bd
000000b0: 6ed1 b1bd 14cd 0cbd 885a 1fbd e685 91bb
000000c0: fabe b03d 77f1 0d3e 1899 b03d 38b0 1ebd
000000d0: 2b42 93bc ad0a fe3b e3aa 9d3c 24c4 66be
000000e0: 6cd6 bbbd 8e71 b1bc fad8 94bd d4e8 183d
000000f0: 2137 8abd c296 4e3b 4fc8 7c3e 4995 593d
00000100: dc7c 16bd 46a3 453e cfe4 95bd d1ef 4fbe
00000110: b385 1c3d b0a6 0a3e d1bb 7abc 17bf 623d
00000120: 3406 823e 42f3 76bd 112b 283e ae30 523e
00000130: c56a 83bd f4ee b5bd 29e4 883c b640 15be
00000140: d039 3fbd 8cf0 703c e9d9 433d b86c 6cbd
00000150: 1250 883e 10a0 113e 34b8 05be 6ac8 b23d
00000160: 1a68 373e 7ccc 39bd f1e7 0e3d 15f7 aa3e
00000170: f263 02be 218e 0abe c24d f43d ed10 c4bd
00000180: 0f7d 353d bb19 603e 0fd0 84be d2e6 90bc
00000190: c00a 063e 977d 70bd f94f af3b f39e 9dbe
000001a0: 944f 803d 704d 21bd 5f5d 35be a0df 9dbe
000001b0: e336 553c 730b 26bd 8c92 2fba 43bb c4bd
000001c0: 855a 85be c04a 993b 8bde 143e e79d ddbd
000001d0: d6cc 13bb 0abc 0c3d f8e4 11be f03b 663e
000001e0: c484 7b3c 5f17 27bd 5e95 5a3e 8a2c 113e
000001f0: dae1 33bd f8bf 4c3d 9dfd 2abe 52a4 b3bd
00000200: e542 aebd 5adb 82bd 1980 08be 0ad1 893d
00000210: 01d0 e9bc c298 913d 2d8f 38bd 8f7e fb3d
00000220: abbb 0cbe 4676 83be 3884 6c3d a5a3 d63d
00000230: 0110 953a 9cc0 c73d 49cb 6bbd c815 8a3d
00000240: 8fe7 ae3d 8e13 1fbe 0afc 233e e6d4 f83d
00000250: 22db 45be 0cee fc3d fe9e 3f3d fe54 d7bc
00000260: b737 43bd 71a3 6abd 0699 d9bc 7bb4 a63d
00000270: 0a85 613d 28b3 94bc 45a5 083e f52f 693e
00000280: eb13 ee3d 5dea 453d 415c a43e 3d3d b43c
00000290: 40bf a6bd 3c0d bc3d b7ce 13bd 7f2a 20be
000002a0: 7031 873e b705 893e 7d25 4d3d 1e45 13be
000002b0: 0eb4 1abe b712 24bd 5d14 743c d9bd 9dbd
000002c0: 9dd0 bb3c a10b 64bc d52f 6a3d e9ce e43c
000002d0: b552 7e3d fa3b 1ebc 975c ac3d d6d0 47bd
000002e0: d990 f5bd c603 ce3c 5298 16be 4021 2b3e
000002f0: 9b20 bebd 259c babc 48a8 00be 9379 6cbe
00000300: c562 7fbe a50f e43d 939e d6bd 77d3 eabd
00000310: c0f9 a8be e299 c73d c414 643e 871d 38bd
00000320: 6587 a33c 569b 963c 65ca b1bc d065 b4bd
00000330: 6bfc 903c 7fbf 173e 63ce d53d 7d31 d5bd
00000340: 3806 12bd e99d a03d 9888 8b3b 4c7a 1fbe
00000350: 664f 703e 637f 013e 2656 1d3e 6307 c23c
00000360: 86e4 073d d14e 143e a782 723c f278 883d
00000370: db5c 74bc 5d19 1ebe 6855 fa3d c94d efbc
00000380: f4e7 08bd 9626 7e3d 0fe3 7b3e 2eef 023e
00000390: 3267 14be 8fdb 9bbd ca76 4bbe 0c15 c03d
000003a0: 420e 073d 55a2 0f3e 75ae 61bd 317e 343c
000003b0: bbb9 9e3d 4c59 733b cf4e 973d abff e9ba
000003c0: d529 0dbc 0a7d 9e3c 1936 873d c41f 55be
000003d0: 0371 52be b5fd 7c3e e346 eabb 06a4 e4bd
000003e0: e10a fe39 812d 033e b9e3 8dbd 8937 193e
000003f0: b765 a7bd a7c1 a23c 6c59 d5bd eb61 793e

features_extractor.state_extractor.2.bias f4 [128]
0.018942915 0.020236088 0.0073842555 0.002575399 0.020936985 0.022929741 0.002808262 -0.0043027275
0.0032265713 -0.0026916163 -0.008154919 0.02263101 0.01972012 0.00417965 0.022290325 0.010694682
-0.0009893274 -0.00081867265 -0.0014281895 0.003676934 0.03185124 0.035137203 -4.90913e-40 -0.001378632
0.0056556873 -0.009105136 0.015026163 0.00091277965 0.0045143208 0.0141926855 0.009705045 0.007103188
-0.0040439186 0.021371292 0.014904437 0.0021913743 0.031198207 0.010272019 -0.0033329388 -0.002224113
0.023598665 0.0018399326 -0.0058083087 0.021136671 -0.0035253814 0.014714095 -0.015294447 0.0030352143
0.0017907568 0.036476225 0.0027399987 0.016132241 0.004073661 0.0022212998 0.010824421 0.0013751078
0.021231508 0.01181154 0.021059336 0.009432817 0.006430797 0.026259456 0.008305197 -0.004446219
0.0 0.013874398 0.01603699 -0.011250143 0.0017139364 0.0050764843 0.0011146173 0.0027597633
6.573756e-05 -0.008054504 -0.0008857564 0.0039247563 0.0058861277 0.0032535244 0.00013109294 -0.0139692705
0.017628131 0.01162889 0.003653236 0.006884721 0.021773571 0.012930318 0.004661499 -0.003153269
0.0027957968 -0.010653503 0.009157955 0.032897335 0.0020794568 0.007893965 0.020945663 0.0059556128
0.0069729625 0.008154507 -0.0057310746 0.00071278395 0.008418714 0.013703435 -0.004043149 -0.006875743
0.0029560688 0.0029136273 0.00992743 -0.0062116967 0.0034537055 0.011507463 0.023864627 0.013073828
0.004600362 0.002550973 0.010391167 0.024101894 0.013851125 -0.010829292 0.015355872 0.006086196
-0.00066931837 -0.0049112104 0.004745244 0.028147481 0.036847636 0.00017537289 -0.012074025 0.03255676
00000000: 2c2e 9b3c 27c6 a53c a0f7 f13b 06c8 283b
00000010: 0a84 ab3c 27d7 bb3c d10a 383b e5fd 8cbb
00000020: e274 533b d465 30bb 369c 05bc ab64 b93c
00000030: 178c a13c 72f5 883b 339a b63c bf38 2f3c
00000040: 52ac 81ba 319c 56ba 1632 bbba b7f8 703b
00000050: 7276 023d 07ec 0f3d 7758 0580 37b3 b4ba
00000060: 5853 b93b b52d 15bc 4c30 763c 9b47 6f3a
00000070: deec 933b 7088 683c e901 1f3c dcc1 e83b
00000080: d982 84bb d912 af3c bd31 743c 299d 0f3b
00000090: 6293 ff3c f84b 283c 6f6d 5abb 6dc2 11bb
000000a0: fd51 c13c e529 f13a a053 bebb d026 ad3c
000000b0: 160a 67bb 6313 713c 8f95 7abc 72ea 463b
000000c0: d4b7 ea3a 1868 153d 8d91 333b c327 843c
000000d0: 587c 853b 3a93 113b ea58 313c f63c b43a
000000e0: b3ed ad3c 3185 413c a184 ac3c 1a8c 1a3c
000000f0: 6fb9 d23b 121e d73c 8512 083c 97b1 91bb
00000100: 0000 0000 7151 633c 0160 833c 8552 38bc
00000110: 2aa6 e03a a358 a63b 5a18 923a 25dd 343b
00000120: 95dc 8938 0af7 03bc 1b32 68ba 3e9b 803b
00000130: 6be0 c03b 1539 553b fe75 0939 5edf 64bc
00000140: df68 903c 1a87 3e3c 216b 6f3b 3a99 e13b
00000150: 7d5e b23c afd9 533c 7dbf 983b 13a7 4ebb
00000160: b039 373b 088c 2ebc 3f0b 163c 5bbf 063d
00000170: 7f47 083b b055 013c 3d96 ab3c 4d27 c33b
00000180: 737d e43b 7b9a 053c bdcb bbbb 1fda 3a3a
00000190: a5ee 093c 5f84 603c 647c 84bb ea4d e1bb
000001a0: 9bba 413b 8ef2 3e3b a9a6 223c 7d8b cbbb
000001b0: 9057 623b cc89 3c3c c07f c33c 9c33 563c
000001c0: a2be 963b 3a2e 273b b73f 2a3c 5671 c53c
000001d0: d4ef 623c 586d 31bc 3297 7b3c b66e c73b
000001e0: 3275 2fba 38ee a0bb fe7d 9b3b 8c95 e63c
000001f0: 8ced 163d 4de4 3739 22d2 45bc 3d5a 053d

features_extractor.vd_extractor.0.weight f4 [128, 1]
-1.9394575e-24 -1.6001004e-21 -6.149319e-35 0.1357228 -9.127759e-09 0.005758224 -4.2177745e-10 -1.0222921e-22
-1.833899e-37 -8.463603e-05 -4.0393633e-08 -1.43079515e-05 0.17701975 0.20832598 0.23364773 0.0046515185
-3.8604212e-21 0.16783299 0.08939847 0.036269818 0.122332655 0.14847378 0.08138322 0.20686334
-2.398665e-09 -3.1718443e-09 -5.789487e-12 0.21268582 0.1687831 0.022800336 0.14127128 0.04519995
0.20057559 -4.0570412e-28 -2.9911257e-10 -1.07137454e-08 -0.00048200795 -8.745977e-20 -0.00091372844 0.13803779
0.21209434 -6.0080747e-06 0.0671852 -1.5496473e-09 0.19650601 -2.9518827e-17 0.058745623 -3.5281555e-08
-1.6064698e-08 0.069458045 0.2909494 0.059894156 -8.4031495e-20 -9.093692e-09 -5.480655e-23 -9.150057e-38
-4.609671e-05 0.3470712 -0.0019355959 0.22770324 0.17080033 0.001086389 0.22596371 0.12871172
0.044691727 -1.9008551e-25 0.09208011 -0.0002862074 0.006957647 0.17782848 -0.0008997965 0.11702614
-9.692583e-07 -7.794903e-15 0.08476943 0.06105141 -6.306433e-27 0.23999305 -6.453186e-13 0.18094991
-5.950987e-07 -3.2333853e-09 0.005488254 0.19130519 0.037619147 0.009862532 -1.947061e-10 0.060131345
-3.5592448e-23 0.14449485 -2.099923e-06 -0.00029446706 -2.5999458e-05 0.17305359 0.13291548 -4.0106547e-06
-0.0006353147 -2.8401592e-10 -0.00052761706 0.098770216 0.11436913 0.11662515 0.024023559 0.20149301
-0.00045047654 0.040899694 0.050194494 -2.9586211e-36 0.05462774 0.15421386 -3.370845e-06 -0.00022684308
-5.7383644e-13 0.17205268 0.063795045 -8.311812e-23 -0.0001432777 -1.822582e-15 -5.3622794e-06 0.09731467
-0.00086895656 -3.0559873e-17 0.048543256 -0.0008280234 -9.0656635e-31 -0.0004639578 -3.79376e-23 -4.2321985e-10
00000000: ea0e 1698 e3cc f19c 197a a386 ebfa 0a3e
00000010: 4fd0 1cb2 7caf bc3b e6df e7af d12c f79a
00000020: 0e9e 7982 9f7e b1b8 457d 2db3 2f0c 70b7
00000030: aa44 353e 6853 553e 5a41 6f3e c46b 983b
00000040: b4d7 919d 69dc 2b3e 8c16 b73d a98f 143d
00000050: 8b89 fa3d 8309 183e 3fac a63d fcd3 533e
00000060: c3d5 24b1 adf7 59b1 10b3 cbac 50ca 593e
00000070: 7ad5 2c3e c5c7 ba3c 6ba9 103e 9523 393d
00000080: b063 4d3e a192 0092 5a70 a4af 8d0f 38b2
00000090: 03b6 fcb9 3082 ce9f 4787 6fba c759 0d3e
000000a0: 422f 593e f898 c9b6 6598 893d 5efb d4b0
000000b0: df38 493e ae21 08a4 409f 703d 7b88 17b3
000000c0: a5fe 89b2 0540 8e3d 52f7 943e 9353 753d
000000d0: ec69 c69f 7b3a 1cb2 9d83 849a 9716 f981
000000e0: f757 41b8 51b3 b13e d2b3 fdba 0a2b 693e
000000f0: 48e6 2e3e 2a65 8e3a 0863 673e 01cd 033e
00000100: ac0e 373d 8150 6b96 7f94 bc3d 1b0e 96b9
00000110: f9fc e33b ab18 363e 52e0 6bba 67ab ef3d
00000120: 7617 82b5 a56b 0ca8 989b ad3d 0b11 7a3d
00000130: d4d2 f993 bdc0 753e 1ba4 35ab ef4a 393e
00000140: dfbe 1fb5 5132 5eb1 d0d6 b33b 82e5 433e
00000150: 8916 1a3d 7596 213c e514 56af 494c 763d
00000160: 511d 2c9a 75f6 133e 67ec 0cb6 b362 9ab9
00000170: 6919 dab7 f634 313e ff1a 083e 4393 86b6
00000180: 3f8b 26ba b023 9caf c84f 0aba 0a48 ca3d
00000190: 5d3a ea3d 2bd9 ee3d 0ecd c43c 2f54 4e3e
000001a0: f02d ecb9 7086 273d be98 4d3d 10b1 7b84
000001b0: 56c1 5f3d 3dea 1d3e ad36 62b6 badc 6db9
000001c0: 4685 21ab 942e 303e faa6 823d a0f7 c89a
000001d0: d13c 16b9 b454 03a7 a1ed b3b6 ea4c c73d
000001e0: b0ca 63ba bbee 0ca4 4bd5 463d b60f 59ba
000001f0: 4b19 938d 5d3f f3b9 7974 379a e6aa e8af

features_extractor.vd_extractor.0.bias f4 [128]
0.0 0.0 0.0 0.02732159 0.0 -0.006310234 0.0 0.0
0.0 -8.463069e-05 0.0 0.0 0.013183292 0.016146563 0.022780897 0.004651575
0.0 0.017032366 0.022609899 0.00933891 0.02157006 0.022107704 0.01088203 0.022894235
0.0 0.0 0.0 0.02638795 0.02572083 0.011011179 0.016166002 0.022036687
0.021960715 0.0 0.0 0.0 -0.0004820005 0.0 -0.00091372925 0.020892994
0.023336068 0.0 0.005670675 0.0 0.017865662 0.0 -0.001029755 0.0
0.0 0.023285607 0.020247305 0.015576395 0.0 0.0 0.0 0.0
-4.6096226e-05 0.014518069 -0.0019355959 0.023612311 0.023239687 -0.0012330574 0.023391893 0.030938972
0.012370641 0.0 0.02136537 -0.00028619205 -0.007430353 0.022030182 -0.0008998234 0.007538545
0.0 0.0 0.015186164 -0.008708465 0.0 0.011291957 0.0 0.018591141
0.0 0.0 -0.007040048 0.01840232 0.029388336 -0.006593282 0.0 0.016070709
0.0 0.013162831 0.0 -0.0002944656 -2.599767e-05 0.022991557 0.017241627 0.0
-0.00063531665 0.0 -0.00052769494 0.005709857 0.013933223 0.015216433 0.024023565 0.026160892
-0.0004504758 0.015466654 0.01356296 0.0 0.0264557 0.02139419 0.0 -0.00022684255
0.0 0.01496216 0.021432502 0.0 -0.00014323388 0.0 0.0 0.011425194
0.0 0.0 0.016436247 -0.00082802324 0.0 -0.00046398022 0.0 0.0
00000000: 0000 0000 0000 0000 0000 0000 87d1 df3c
00000010: 0000 0000 14c6 cebb 0000 0000 0000 0000
00000020: 0000 0000 c17b b1b8 0000 0000 0000 0000
00000030: bcfe 573c cc45 843c 019f ba3c 3d6c 983b
00000040: 0000 0000 7687 8b3c 6538 b93c 3a02 193c
00000050: b2b3 b03c 371b b53c 8b4a 323c b18c bb3c
00000060: 0000 0000 0000 0000 0000 0000 8b2b d83c
00000070: 7db4 d23c 3b68 343c 906e 843c 4886 b43c
00000080: f5e6 b33c 0000 0000 0000 0000 0000 0000
00000090: 03b5 fcb9 0000 0000 5587 6fba c927 ab3c
000000a0: 482b bf3c 0000 0000 12d1 b93b 0000 0000
000000b0: 025b 923c 0000 0000 d8f8 86ba 0000 0000
000000c0: 0000 0000 75c1 be3c addd a53c 2334 7f3c
000000d0: 0000 0000 0000 0000 0000 0000 0000 0000
000000e0: 7257 41b8 32dd 6d3c d2b3 fdba 9b6e c13c
000000f0: 2861 be3c 8a9e a1ba 5ba0 bf3c ba73 fd3c
00000100: 3bae 4a3c 0000 0000 6e06 af3c 0c0c 96b9
00000110: 527a f3bb a478 b43c 20e2 6bba e605 f73b
00000120: 0000 0000 0000 0000 63cf 783c f3ad 0ebc
00000130: 0000 0000 e701 393c 0000 0000 734c 983c
00000140: 0000 0000 0000 0000 34b0 e6bb 76c0 963c
00000150: cfbf f03c 750c d8bb 0000 0000 b8a6 833c
00000160: 0000 0000 eaa8 573c 0000 0000 8162 9ab9
00000170: 9215 dab7 ca58 bc3c 503e 8d3c 0000 0000
00000180: 618b 26ba 0000 0000 0255 0aba c119 bb3b
00000190: 2c48 643c 594e 793c 11cd c43c 5e4f d63c
000001a0: d72d ecb9 d967 7d3c 2d37 5e3c 0000 0000
000001b0: a0b9 d83c de42 af3c 0000 0000 95dc 6db9
000001c0: 0000 0000 d923 753c 3793 af3c 0000 0000
000001d0: 0d31 16b9 0000 0000 0000 0000 bd30 3b3c
000001e0: 0000 0000 0000 0000 4fa5 863c b30f 59ba
000001f0: 0000 0000 5f42 f3b9 0000 0000 0000 0000

features_extractor.vd_extractor.2.weight f4 [128, 128]
5.3164776e-24 1.1707421e-14 6.10197e-40 -2.538449e-07 -4.9513e-40 -4.93903e-40 -1.9559775e-07 1.9515108e-32
1.7325452e-24 3.3186313e-15 4.92427e-40 1.3471924e-05 -4.6553926e-19 -9.6892945e-12 -1.165809e-18 -4.90461e-40
2.85479e-07 8.0077385e-05 -0.000253601 7.957079e-27 1.2670377e-13 -4.91456e-40 4.5396564e-12 -1.0024072e-14
3.2603708e-24 1.6023253e-06 -4.96159e-40 1.396999e-12 7.315969e-13 4.92395e-40 4.9307e-40 -4.367629e-06
6.0272e-08 4.9338e-40 1.200246e-39 1.2599397e-11 -5.5194422e-21 3.9589127e-36 9.4282165e-17 3.1009105e-15
-1.9485178e-09 -1.2884609e-12 -7.958148e-14 2.4319136e-10 -0.00030091256 -4.93172e-40 -1.0869545e-05 4.621772e-07
1.4186656e-10 -3.798547e-27 4.93309e-40 1.1000389e-19 -3.8638496e-05 -0.000158525 4.676868e-16 1.604656e-11
-2.8854254e-32 5.677841e-15 4.92526e-40 4.2773437e-19 -4.91084e-40 -3.1183584e-18 -1.2481757e-15 3.2725016e-13
1.3194549e-20 4.98096e-40 2.4955832e-37 2.414264e-17 1.7363045e-11 -4.69939e-13 5.5612595e-09 4.91933e-40
-4.919e-40 2.7915656e-05 4.93911e-40 -0.0016707632 6.80876e-40 -8.6591616e-14 2.3643399e-07 -2.518187e-12
1.7834903e-07 -1.97855e-36 2.1364566e-16 8.846838e-18 -1.42575e-31 -1.7069724e-18 5.2232607e-11 -6.456481e-05
-2.9230914e-19 4.92488e-40 1.7886397e-15 -1.15183134e-07 1.7260909e-14 -3.283727e-06 -1.1776503e-09 4.9295e-40
2.5712862e-25 -1.6502278e-07 4.94545e-40 1.7252247e-12 1.6300111e-06 1.1278583e-07 7.2159585e-13 -4.941e-40
1.6232961e-29 1.3882371e-24 4.98952e-40 -6.981074e-11 -7.5462494e-06 6.1298825e-34 -2.2762413e-05 -4.94598e-40
3.1474927e-28 5.79442e-16 4.93703e-40 2.8529179e-05 -6.6050343e-06 5.6541774e-34 8.5633495e-10 4.94077e-40
3.1629926e-26 4.32299e-40 4.365083e-14 -4.9142e-40 4.92734e-40 1.0373443e-27 4.93652e-40 1.232198e-33
4.564968e-16 -1.9700165e-08 -1.7154118e-13 0.052497923 2.8797397e-11 -0.051212136 2.699169e-06 4.92095e-40
0.02263157 2.027223e-35 -4.92748e-40 4.91969e-40 0.17832023 -0.28315058 0.18853895 -0.0006036849
1.6315804e-15 0.05655947 0.003636775 0.00644099 0.06607367 0.019025533 0.31246305 0.082972385
-4.9231e-40 1.27531375e-05 1.2735885e-06 0.027935917 -0.01957753 -0.021136798 -0.17383987 -0.24920571
-0.0889746 4.92458e-40 -4.97423e-40 4.92625e-40 -3.3714758e-09 8.141914e-09 -4.90875e-40 -0.3122742
-0.18931156 -1.1113204e-11 0.08810211 -4.3779446e-12 0.12203925 1.911635e-05 0.104411215 4.8037503e-31
-1.8375204e-23 0.16788357 0.09856797 -0.07609739 -7.3663563e-13 4.92195e-40 2.486712e-12 -9.574491e-17
-4.91504e-40 -0.045577016 5.10596e-37 -0.045628488 0.023957608 0.07361039 -0.07924599 -0.08078185
0.011111627 4.93019e-40 -0.22417353 -5.947636e-08 0.06797985 0.14020972 -1.2172459e-06 -0.023298409
-4.93076e-40 -9.407736e-13 0.06757495 -0.047209483 -4.91479e-40 -0.1243206 -0.0003058799 0.15593512
-6.341223e-16 1.0896001e-05 -0.007903629 0.1625895 -0.22240624 0.032996707 -4.9945e-40 -0.13382597
-1.3159272e-18 0.031318653 -1.4024745e-22 6.208524e-10 1.5330877e-31 -0.05715839 -0.11955351 -4.91538e-40
1.2264348e-10 4.90561e-40 6.64326e-06 -0.1810196 0.051814098 -0.039991148 0.0065766796 0.29183605
9.4102286e-15 0.19152002 -0.12973501 -4.93197e-40 -0.1254221 0.23002255 -4.9297e-40 -4.206283e-13
-9.22433e-15 0.034695975 -0.05190758 4.92692e-40 -4.91938e-40 -2.086337e-21 -4.92589e-40 0.0075436044
-1.0426613e-38 -1.5543116e-36 -0.022119137 -1.7145628e-17 -3.4821503e-09 4.919e-40 6.187144e-06 3.84703e-40
00000000: d8ab cd18 f3e6 5228 fba4 0600 2d48 88b4
00000010: 3964 0580 cd60 0580 8005 52b4 0ea8 ca0a
00000020: 980c 0618 f121 6f27 b05c 0500 7905 6237
00000030: 2767 09a1 b474 2aad 050b aca1 3557 0580
00000040: ef43 9934 38ef a738 c0f5 84b9 2f9b 1d14
00000050: e0a7 0e2a fb59 0580 97b9 9f2c df93 34a8
00000060: 4c42 7c18 7a0f d735 1767 0580 329c c42b
00000070: 1ded 4d2b 995c 0500 7b5e 0500 a68d 92b6
00000080: e26e 8133 585f 0500 cc11 0d00 a4a6 5d2d
00000090: c584 d09d be64 a804 5e66 d924 b471 5f27
000000a0: b0e6 05b1 b255 b5ab 9a33 b3a9 24b2 852f
000000b0: cdc3 9db9 c35e 0580 575c 36b7 2721 f834
000000c0: e3fb 1b2f d879 9693 255f 0500 a3de 0120
000000d0: c50f 22b8 bb39 26b9 32cd 0626 a425 8d2d
000000e0: e2d1 158b d790 cc27 f65c 0500 647d fc20
000000f0: f158 0580 2018 66a2 8ee1 b3a6 b839 b82a
00000100: ed3c 791e 7d6c 0500 31d7 a902 32ad de23
00000110: 1aba 982d ac46 04ab 5b15 bf31 4f5b 0500
00000120: 385b 0580 6a2c ea37 d360 0500 83fd daba
00000130: 016a 0700 abfc c2a9 7bde 7d34 a033 31ac
00000140: 3580 3f34 0151 2884 1251 7625 0332 2323
00000150: ac12 398c 98e7 fba1 b0b8 652e f866 87b8
00000160: 828c aca0 db5c 0500 94e2 0027 995a f7b3
00000170: f278 9b28 005e 5cb6 e3da a1b0 255e 0500
00000180: a827 9f16 1e31 31b4 9762 0500 c5cd f22b
00000190: c1c6 da35 aa34 f233 761c 4b2b 5a61 0580
000001a0: 2d9f a40f bdd1 d617 e06e 0500 f483 99ae
000001b0: ca35 fdb6 46b3 4b08 e9f1 beb7 bd62 0580
000001c0: fd7e c711 4603 2726 3e60 0500 f251 ef37
000001d0: d0a0 ddb6 6ce4 3b08 3763 6b30 4961 0500
000001e0: b29f 1c15 13b5 0400 fb95 4429 e159 0580
000001f0: 8b5d 0500 af5f a412 1a60 0500 e8bb cc08
00000200: 8593 0326 1f39 a9b2 6123 41aa 1008 573d
00000210: f94d fd2d d1c3 51bd 5f23 3536 c35b 0500
00000220: d865 b93c 4292 d705 955d 0580 695b 0500
00000230: 9499 363e 1df9 90be 5b10 413e 9c40 1eba
00000240: b122 eb26 e7aa 673d f656 6e3b f10e d33b
00000250: a251 873d 6fdb 9b3c 28fb 9f3e 6ded a93d
00000260: 5c5c 0580 4ff6 5537 2bf0 aa35 ddd9 e43c
00000270: 0e61 a0bc 1427 adbc 1403 32be c82f 7fbe
00000280: 5138 b6bd c65c 0500 9d6a 0580 3d5d 0500
00000290: a1af 67b1 84e0 0b32 5c58 0580 67e2 9fbe
000002a0: e4da 41be 6c81 43ad e16e b43d 0509 9aac
000002b0: b7ef f93d 0d5c a037 8cd5 d53d ffe3 1b0d
000002c0: cdb6 b199 ace9 2b3e 01de c93d f3d8 9bbd
000002d0: 3158 4fab 0a5c 0500 9ffc 2e2c d2c5 dca4
000002e0: 1d5a 0580 f7ae 3abd 2fbf 2d03 f0e4 3abd
000002f0: bf42 c43c 0bc1 963d b94b a2bd f470 a5bd
00000300: 8b0d 363c 565e 0500 bf8d 65be f372 7fb3
00000310: 0539 8b3d 2393 0f3e 4060 a3b5 4edc bebc
00000320: 7f5e 0580 f166 84ab bc64 8a3d bb5e 41bd
00000330: 0b5a 0580 cc9b febd 815e a0b9 75ad 1f3e
00000340: f8c5 36a6 f8cd 3637 397e 01bc dd7d 263e
00000350: 76be 63be 8e27 073d 4370 0580 ad09 09be
00000360: 5332 c2a1 fd47 003d 7c8c 299b 9ba8 2a30
00000370: 9401 470c ea1e 6abd 78d8 f4bd 355a 0580
00000380: 12d9 062f 7c57 0500 2be9 de36 345d 39be
00000390: 053b 543d c2cd 23bd 3081 d73b 896b 953e
000003a0: 0585 2928 d31d 443e 41d9 04be d55e 0580
000003b0: a76e 00be 088b 6b3e 335e 0580 edca ecaa
000003c0: b72b 26a8 5e1d 0e3d 0b9d 54bd 6d5d 0500
000003d0: 535b 0580 a0a3 1d9d 235d 0580 5730 f73b
000003e0: 2889 7180 e939 0484 3133 b5bc f823 9ea3
000003f0: a34a 6fb1 385b 0500 2a9b cf36 6530 0400

features_extractor.vd_extractor.2.bias f4 [128]
0.0 0.0059080347 -0.0015507205 -0.0006353249 0.011106849 0.0009016087 -0.0016843058 0.019032396
0.0016079457 -0.0007436086 -0.0017311728 -0.0020208263 -2.101108e-05 -0.0030444593 0.0 -0.0008006429
0.014945302 0.0 0.022462508 0.022106038 0.018750964 0.0 0.0033669786 0.0
0.0031306404 0.01965216 0.0 0.0033973013 -0.00043010875 0.012768483 0.0 0.0
0.011759858 0.015684322 -0.002560236 -0.00045463166 0.0047245044 0.0 0.0 0.0
0.0 0.0059167827 0.0 -0.0025235172 0.027827466 0.021426093 0.0 -0.0034525131
-0.003360018 0.010355959 0.001989125 0.00026265593 -0.0012124659 0.0 0.025386285 -0.0004851546
0.025742788 -0.0012620108 -0.006201253 0.014463612 -0.0005057644 0.003789964 -0.0007221208 0.011323182
-0.0063113812 -0.00095582614 0.011303191 0.0 0.0 -0.0006703009 -0.0009615749 0.025724633
0.019218221 0.0 0.019493144 -0.0021733912 0.0 -0.002009029 -0.0011365778 0.029425282
-0.00056864385 0.022681272 0.0 0.013606798 -0.0041588186 -0.00040467104 0.0 0.022941079
0.0 0.002021865 -0.0029957495 -0.0018880443 0.021596096 -0.00082598097 0.012237415 0.014280969
0.0 0.020808198 0.030405613 0.02348457 0.016085247 0.019747231 0.02509209 0.020935409
0.011872909 0.010506962 0.00584021 0.0 0.0 0.013085923 0.021265933 0.016944533
0.0 -0.01045807 -0.0012429085 0.013571885 0.0 -0.0006975214 0.02659915 0.016036272
0.021832274 -0.0024056963 0.007540378 0.009841461 0.018438589 -0.00022320355 -0.004268613 0.014913682
00000000: 0000 0000 3098 c13b 8c41 cbba ef8b 26ba
00000010: 80f9 353c f059 6c3a edc3 dcba d4e9 9b3c
00000020: b4c1 d23a baee 42ba 85e8 e2ba d76f 04bb
00000030: f340 b0b7 8d85 47bb 0000 0000 3ce2 51ba
00000040: 24dd 743c 0000 0000 4b03 b83c b917 b53c
00000050: 9f9b 993c 0000 0000 87a8 5c3b 0000 0000
00000060: 6e2b 4d3b 91fd a03c 0000 0000 42a5 5e3b
00000070: 3880 e1b9 e632 513c 0000 0000 0000 0000
00000080: 6bac 403c 687c 803c a2c9 27bb a15b eeb9
00000090: 04d0 9a3b 0000 0000 0000 0000 0000 0000
000000a0: 0000 0000 92e1 c13b 0000 0000 9861 25bb
000000b0: 6df6 e33c c685 af3c 0000 0000 8f43 62bb
000000c0: bf33 5cbb 0aac 293c fb5b 023b 15b5 8939
000000d0: 9beb 9eba 0000 0000 e6f6 cf3c 595c feb9
000000e0: 8ae2 d23c 0e6a a5ba e133 cbbb c9f8 6c3c
000000f0: 4695 04ba 0b61 783b b54c 3dba de84 393c
00000100: b4cf cebb 6890 7aba 0531 393c 0000 0000
00000110: 0000 0000 22b7 2fba 3312 7cba 77bc d23c
00000120: 886f 9d3c 0000 0000 16b0 9f3c 746f 0ebb
00000130: 0000 0000 eaa9 03bb 39f9 94ba 4a0d f13c
00000140: 0b11 15ba 13ce b93c 0000 0000 0cef 5e3c
00000150: b346 88bb 072a d4b9 0000 0000 eeee bb3c
00000160: 0000 0000 4481 043b 5654 44bb 4178 f7ba
00000170: 4cea b03c a586 58ba 707f 483c bafa 693c
00000180: 0000 0000 f475 aa3c 3115 f93c b762 c03c
00000190: 35c5 833c f2c4 a13c ed8d cd3c bc80 ab3c
000001a0: 9786 423c 6525 2c3c 3b5f bf3b 0000 0000
000001b0: 0000 0000 5766 563c e535 ae3c 43cf 8a3c
000001c0: 0000 0000 5358 2bbc 17e9 a2ba 9d5c 5e3c
000001d0: 0000 0000 ded9 36ba 76e6 d93c 805e 833c
000001e0: 99d9 b23c e3a8 1dbb 4615 f73b 143e 213c
000001f0: 860c 973c bf0b 6ab9 b9df 8bbb 8458 743c

mlp_extractor.policy_net.0.weight f4 [192, 256]
4.93079e-40 -4.91937e-40 -5.139392e-07 2.6112612e-23 -4.9085e-40 -4.91269e-40 -1.5599044e-29 -4.9383e-40
-4.92468e-40 4.91625e-40 -6.9870807e-09 -4.9403e-40 -1.6284441e-33 4.91103e-40 -4.90774e-40 -1.7884962e-18
-7.659956e-08 4.91511e-40 -4.94035e-40 4.91417e-40 -6.319287e-10 4.9373e-40 -2.3795372e-29 -4.92048e-40
-1.421673e-07 4.93137e-40 -6.918896e-10 -8.899941e-09 1.0532599e-19 4.5995874e-14 5.6826143e-17 4.93282e-40
9.1891425e-12 -4.91372e-40 -4.3850234e-21 -4.906e-40 -1.37910855e-14 -1.6217473e-22 1.5876793e-05 4.9217e-40
-1.2109279e-19 2.2437289e-16 -2.0643152e-18 1.093031e-15 -5.0007e-40 -4.90718e-40 -2.3499082e-08 -4.92911e-40
-3.973374e-16 -4.96012e-40 3.2158212e-13 -4.90595e-40 -4.95835e-40 8.261625e-12 -9.0050775e-21 -4.91339e-40
4.91884e-40 -9.484272e-28 -4.3828264e-27 -3.097851e-05 4.92236e-40 -4.93679e-40 2.3055863e-19 4.91134e-40
-2.8164851e-12 4.409003e-22 -8.7144327e-16 -1.6292505e-13 -1.7637512e-16 -4.92478e-40 -2.2168e-39 1.3209964e-15
-0.002477281 -7.150544e-36 2.0057193e-21 -4.90525e-40 -8.8507804e-13 1.1949994e-13 4.92884e-40 4.91512e-40
-0.0004636898 4.9355e-40 -1.8823094e-16 4.93994e-40 -4.90653e-40 -4.9368e-40 -4.9118e-40 2.2219457e-36
-2.0651222e-10 -2.3674457e-36 -1.019478e-14 -1.0195403e-14 -9.47646e-15 -6.555747e-31 -2.671036e-10 -4.94105e-40
6.3501823e-15 4.92915e-40 4.92844e-40 1.1693791e-23 -4.93125e-40 4.91849e-40 -3.467559e-15 -4.90739e-40
-2.997883e-30 -1.0528222e-29 -4.97971e-40 7.281386e-15 -3.1991934e-35 4.91068e-40 -3.3600622e-29 -3.1800722e-21
-4.91552e-40 -3.4793228e-23 -4.91266e-40 -4.94074e-40 -4.90606e-40 2.4663212e-19 4.94227e-40 1.313672e-17
4.95365e-40 4.92755e-40 4.92492e-40 1.5384742e-17 4.92809e-40 -5.8554286e-12 -6.366172e-29 2.225666e-19
-2.7710094e-17 4.90965e-40 -4.91634e-40 3.8503644e-15 -5.3285265e-32 3.558166e-07 -4.93466e-40 4.91581e-40
-1.6794941e-29 -1.1175922e-15 -9.162155e-25 -4.90904e-40 -1.6290963e-10 5.3661947e-06 -1.1078659e-19 -4.92542e-40
1.9432095e-30 -4.92943e-40 1.8008314e-17 -4.9301e-40 -2.5987333e-12 2.1300364e-36 -1.4112263e-12 4.91015e-40
-4.92049e-40 -1.4876776e-24 -4.90498e-40 -2.747859e-29 4.93219e-40 7.760055e-09 -4.0902074e-13 4.9144e-40
-1.0973041e-29 -4.1256017e-26 -3.6748572e-37 -4.9429e-40 -3.540193e-38 -4.90759e-40 7.079176e-30 -3.900707e-36
4.1763122e-14 -1.26173e-14 -2.857597e-16 5.00467e-40 -4.90487e-40 3.407211e-18 -4.93526e-40 4.9235e-40
-4.9126e-40 4.92306e-40 4.92143e-40 1.1533356e-25 3.0834647e-22 7.914358e-25 -4.91604e-40 4.92521e-40
2.2058093e-11 -4.930676e-13 1.3621421e-30 -6.767671e-23 4.91546e-40 -1.5417157e-28 3.2499908e-23 -4.290208e-29
-4.90959e-40 -6.2724426e-25 4.95251e-40 7.023319e-21 -4.95365e-40 7.222524e-12 2.6051858e-25 4.91514e-40
-9.648596e-06 4.91875e-40 1.2968791e-13 -4.90833e-40 -3.383895e-10 9.5057665e-26 5.609794e-23 -1.6715742e-22
4.051234e-13 5.965167e-07 5.2050553e-24 6.7163144e-23 4.9068e-40 -4.92605e-40 3.883808e-17 5.2998422e-27
-1.3005052e-24 3.165172e-12 4.93854e-40 4.90953e-40 1.430721e-28 4.91304e-40 4.92615e-40 -4.92272e-40
-3.0491635e-30 4.90558e-40 4.91578e-40 -4.84748e-17 -4.91896e-40 2.0721754e-32 4.90777e-40 4.93528e-40
-4.92548e-40 4.90735e-40 -3.4015907e-36 2.54099e-39 -4.90879e-40 -8.3802443e-16 -8.8867927e-07 -4.90471e-40
-9.540892e-38 4.9145e-40 7.063028e-09 -4.91475e-40 -3.7900444e-19 4.94492e-40 -2.3698896e-23 3.4743756e-08
4.90478e-40 4.1587717e-20 -5.5735604e-16 2.5382216e-20 4.94214e-40 -3.5217346e-14 -1.8884093e-05 4.92304e-40
00000000: 815e 0500 525b 0580 a2f5 09b5 b28b fc19
00000010: 4a58 0580 7559 0580 6f31 9e8f 9960 0580
00000020: cd5c 0580 735a 0500 0313 f0b1 2861 0580
00000030: 2d49 0789 ff58 0500 1458 0580 bdf7 03a2
00000040: 0e7f a4b3 225a 0500 2b61 0580 df59 0500
00000050: 07b4 2db0 5260 0500 5150 f18f a15b 0580
00000060: a6a6 18b4 aa5e 0500 672f 3eb0 5be6 18b2
00000070: a8b1 f81f a225 4f29 3c08 8324 125f 0500
00000080: 38a8 212d bf59 0580 58a9 a59d 9857 0580
00000090: 2870 78a8 a60e 449b 272f 8537 f85b 0500
000000a0: 0df6 0ea0 9857 8125 d051 18a2 ba85 9d26
000000b0: fe71 0580 ec57 0580 07db c9b2 095e 0580
000000c0: a70c e5a5 ae66 0580 de08 b52a 9457 0580
000000d0: 3066 0580 0d57 112d e219 2a9e a759 0580
000000e0: 2c5b 0500 c748 9692 249f ad93 ecee 01b8
000000f0: 275c 0500 2d60 0580 0919 8820 1559 0500
00000100: 4931 46ac 0241 051c 2a2d 7ba6 f36f 37aa
00000110: bf58 4ba5 d45c 0580 8923 1880 2a60 be26
00000120: e159 22bb 4413 1885 418c 171d 6257 0580
00000130: 9820 79ab 838b 062a f65d 0500 235a 0500
00000140: 641b f3b9 d15f 0500 f803 59a5 0e61 0500
00000150: be57 0580 2e60 0580 3659 0580 b105 3d04
00000160: 0610 63af 6766 4984 20a7 37a8 ffa9 37a8
00000170: 75b6 2aa8 04bf 548d 7dd7 92af 5d61 0580
00000180: 18ca e427 0c5e 0500 d95d 0500 d930 6219
00000190: a25e 0580 135b 0500 2cdd 79a7 fb57 0580
000001a0: 9837 738e a789 558f 246c 0580 772b 0328
000001b0: 2a19 2a86 e658 0500 1a60 2a90 8b47 709d
000001c0: 3f5a 0580 ee3f 289a 7359 0580 4761 0580
000001d0: 9c57 0580 fe95 9120 b461 0500 6854 7223
000001e0: e064 0500 9a5d 0500 de5c 0500 32e6 8d23
000001f0: c05d 0500 0305 ceac d266 a190 5061 8320
00000200: 9c94 ffa3 9c58 0500 7a5a 0580 58b9 8a27
00000210: 2256 8a8b 1007 bf34 955f 0580 545a 0500
00000220: 2952 aa8f e00f a1a6 09c7 8d97 7158 0580
00000230: fc1e 33af 430f b436 31cb 02a0 025d 0580
00000240: e2a6 1d0e 205e 0580 ee18 a623 505e 0580
00000250: 9ede 36ac 1634 3504 c99c c6ab c058 0500
00000260: a25b 0580 fb34 e697 4f57 0580 4055 0b90
00000270: e55e 0500 1551 0532 1a42 e6aa ef59 0500
00000280: 498f 5e8f 374a 4c95 0b19 fa82 e161 0580
00000290: 17bf 4081 0958 0580 2f95 0f0f f0ea a584
000002a0: 9a15 3c29 074b 63a8 b0ba a4a5 1973 0500
000002b0: 4757 0580 6568 7b22 c05f 0580 795c 0500
000002c0: 6f59 0580 595c 0500 e55b 0500 aac6 0e16
000002d0: 4e62 ba1b 01f0 7417 645a 0580 f35c 0500
000002e0: 6906 c22d 44c9 0aab 2b05 dd0d dba1 a39a
000002f0: 3b5a 0500 896f 4391 f028 1d1a 158a 5990
00000300: 9858 0580 691f 4297 8f64 0500 b0aa 041e
00000310: e064 0580 b61e fe2c d140 a116 245a 0500
00000320: 67e0 21b7 265b 0500 ff03 122a 3e58 0580
00000330: 1708 baaf f459 eb15 f1a2 871a b714 4a9b
00000340: 6f10 e42a 5120 2035 5f5c c918 f963 a21a
00000350: d157 0500 2f5d 0580 e91b 3324 c9f2 d113
00000360: 523e c997 abba 5e2c aa60 0500 9458 0500
00000370: 8d5d 3511 8e59 0500 365d 0500 415c 0580
00000380: a660 778e 7a57 0500 525a 0500 f18c 5fa4
00000390: 355b 0580 df2f d70a 1658 0500 c15f 0500
000003a0: 065d 0580 f857 0500 0bb0 9084 3fab 1b00
000003b0: 5f58 0580 4a8b 71a6 938d 6eb5 3c57 0580
000003c0: 28dd 0182 f659 0500 0daf f231 085a 0580
000003d0: 88b9 dfa0 7162 0500 a033 e599 2a39 1533
000003e0: 4157 0500 7764 441f 9ea5 20a6 6fba ef1e
000003f0: ab61 0500 d69a 1ea9 4869 9eb7 585c 0500

mlp_extractor.policy_net.0.bias f4 [192]
0.0 0.022375626 0.004501191 0.006982583 0.01733486 0.0047426014 0.017565522 -0.005796919
0.0031163585 0.0061632516 0.0034686313 0.000230129 0.017366685 -6.6769353e-28 0.018709205 0.009020962
0.013915942 0.0056456877 0.0090373205 0.027883425 -0.001250727 0.00026358393 0.009569235 0.009811028
-4.709651e-12 0.0063709784 0.008679071 0.016538784 -0.007449727 0.008058745 0.0073373388 0.012093919
0.014054067 -4.91994e-40 0.013111481 -0.0011201374 -0.0015628021 0.008668446 0.0130558945 0.0067418157
0.0068383627 0.015126648 -0.0022623716 0.0016264752 0.01125255 0.013790933 0.00051855814 0.015429573
0.0059288605 -1.4266206e-08 -0.008340072 -6.533073e-16 0.020719374 0.012748098 0.010809805 -7.525604e-05
-0.0015224742 0.0148719605 -0.008724318 0.0031515823 2.2388993e-05 0.010538036 0.0074149193 0.013065507
0.012443887 0.015984707 -0.008431009 0.0020279612 0.005599465 0.00643695 0.001148921 0.013612145
0.0026429947 -0.00452177 0.013000319 0.0 0.010424489 0.016418185 0.015832847 0.0093102725
-5.707929e-07 0.013242984 0.0 0.010162729 0.0 0.011525026 0.011499062 0.020510232
0.0016824363 -0.0051225503 0.0058428403 0.0027150463 0.016977407 0.0037115084 0.0 0.018037051
-9.538733e-07 0.0 -0.00025896713 0.009388047 0.013709943 0.0031739182 0.004869586 0.004693924
0.0028895834 0.0036974023 0.010873202 0.005809118 -4.90739e-40 0.015103095 0.007463197 -3.2633052e-23
0.014566423 -0.0039616805 -0.00029921473 0.012321397 0.0055176 4.90624e-40 0.006270334 0.0026119554
0.0005962846 0.011303435 0.0018009648 0.0023482519 0.0054177986 1.9437997e-05 4.91538e-40 0.021623211
-0.0012582105 0.003713823 0.008501992 0.008173024 0.009333863 0.007302015 0.0025194408 0.003937921
0.0071740435 0.0038093661 0.007659317 0.012380889 0.0 -0.0063535944 0.0057920134 -0.0077493647
0.0022016068 0.015937654 0.016466383 -0.0016099646 0.0065401723 -0.004631823 0.010276224 0.020297073
-0.0009551275 0.013602908 -0.008781797 0.005874732 0.0054815677 0.0016109778 0.0034300988 -0.0006226732
0.010557406 0.0045593367 5.3797756e-08 0.0108214645 0.0 -0.0037724802 0.008686047 -0.005562336
0.0051506734 0.008806397 0.0073184804 0.013230464 0.00067251327 -0.002729806 0.00843305 -0.007436436
0.006888339 0.009577863 -0.00030203478 -0.0025393465 0.016190423 0.009804317 1.942466e-06 0.009654155
0.0016631527 -0.0038458828 0.012639901 0.0054649664 0.0044779736 0.009893345 -0.0055081723 0.00894857
00000000: 0000 0000 174d b73c ba7e 933b 27ce e43b
00000010: d601 8e3c d367 9b3b 92e5 8f3c 15f4 bdbb
00000020: d23b 4c3b 1af5 c93b fa51 633b c84e 7139
00000030: 9444 8e3c bc99 5392 0c44 993c a8cc 133c
00000040: b1ff 633c 76ff b83b 4511 143c c86b e43c
00000050: 6fef a3ba a331 8a39 48c8 1c3c 6fbe 203c
00000060: c4b4 a5ac a4c3 d03b aa32 0e3c 587c 873c
00000070: d71c f4bb d408 043c 0f6e f03b 9325 463c
00000080: 0843 663c 7b5b 0580 8ad1 563c 93d1 92ba
00000090: f0d6 ccba 1906 0e3c 64e8 553c 73ea dc3b
000000a0: 5814 e03b c3d5 773c 4c44 14bb 742f d53a
000000b0: 9e5c 383c 5ef3 613c d9ef 073a 52cc 7c3c
000000c0: e346 c23b 7017 75b2 cca4 08bc 924d 3ca6
000000d0: adbb a93c 66dd 503c 9c1b 313c c7d2 9db8
000000e0: c28d c7ba 86a9 733c 71f0 0ebc c78a 4e3b
000000f0: ffcf bb37 baa7 2c3c daf8 f23b b510 563c
00000100: 72e1 4b3c 5cf2 823c 3722 0abc 8be7 043b
00000110: b87b b73b 0ded d23b 6497 963a 7905 5f3c
00000120: 1836 2d3b 5b2b 94bb 4aff 543c 0000 0000
00000130: 7acb 2a3c 6e7f 863c e3b3 813c 1d8a 183c
00000140: 9738 19b5 1af9 583c 0000 0000 9381 263c
00000150: 0000 0000 76d3 3c3c 9066 3c3c 1305 a83c
00000160: 3285 dc3a 11db a7bb 4c75 bf3b ebee 313b
00000170: 3414 8b3c c73c 733b 0000 0000 70c2 933c
00000180: d606 80b5 0000 0000 fbc5 87b9 53d0 193c
00000190: ab9f 603c 8301 503b 0c91 9f3b 7dcf 993b
000001a0: 2a5f 3d3b 1e50 723b 8425 323c 6a5a be3b
000001b0: fb57 0580 f972 773c d68d f43b c3cd 1d9a
000001c0: 02a8 6e3c fcd0 81bb ecdf 9cb9 afdf 493c
000001d0: fccc b43b a957 0500 6077 cd3b 572d 2b3b
000001e0: fb4f 1c3a 0b32 393c 5a0e ec3a 21e5 193b
000001f0: ca87 b13b c80e a337 355a 0500 2923 b13c
00000200: 8aea a4ba 9c63 733b f04b 0b3c 26e8 053c
00000210: 0fed 183c be45 ef3b 341d 253b ad09 813b
00000220: 3d14 eb3b 8fa6 793b 02fb fa3b 36d9 4a3c
00000230: 0000 0000 d031 d0bb eeca bd3b 62ee fdbb
00000240: d548 103b af8f 823c 82e4 863c 7305 d3ba
00000250: f14e d63b 8cc6 97bb 9c5d 283c 0c46 a63c
00000260: 8661 7aba bbde 5e3c 87e1 0fbc d380 c03b
00000270: b99e b33b 7227 d33a 82cb 603b e43a 23ba
00000280: f8f8 2c3c 7d66 953b 420f 6733 834c 313c
00000290: 0000 0000 b73b 77bb ec4f 0e3c 4244 b6bb
000002a0: fbc6 a83b b548 103c ddcf ef3b 97c4 583c
000002b0: 9a4b 303a 8be6 32bb c62a 0a3c 59ad f3bb
000002c0: 93b7 e13b 78ec 1c3c 6c5a 9eb9 2a6b 26bb
000002d0: c7a1 843c 49a2 203c 505b 0236 762c 1e3c
000002e0: 25fe d93a 350b 7cbb 9617 4f3c 7613 b33b
000002f0: f7bb 923b b217 223c e67d b4bb 069d 123c
