waypoint_state_411_low_velocity_dynamic_2.onnx (onnx, 694169 bytes, 20 tensors)

log_std f4 [4]
-0.29321203 -0.22330964 -0.18852936 -0.04962671
00000000: e31f 96be 48ab 64be d70d 41be 6145 4bbd

features_extractor.state_extractor.0.weight f4 [128, 16]
-0.16179763 -0.069248915 -0.14194152 -0.013387324 -0.027703341 0.011539605 0.0581672 0.13165593
0.0057191793 0.1770482 0.012494189 -0.017634481 0.049952354 0.041199304 -0.011080686 -0.02957697
0.07332502 -0.02800426 -0.10448181 -0.02658876 0.06923205 0.053470097 0.012169813 0.26620534
0.16544157 -0.056903563 -0.00338828 -0.2761083 0.059452794 0.09340214 -0.03612522 -0.07281045
-0.32966244 -0.0010235333 -0.07574018 -0.30378577 0.037886325 -0.0464012 0.031674538 -0.0756086
-0.006258937 0.00483045 -0.030209647 -0.016955346 -0.05463027 -0.036460444 0.01836422 0.014923663
-0.10175038 -0.041996498 -0.07715267 0.041568063 -0.24521367 -0.093731105 0.3189685 -0.15171592
-0.14833409 -0.055508614 -0.14855647 -0.08925936 -0.24306686 -0.017051127 -0.117419034 0.12817937
-0.002026653 -0.029946152 -0.07001324 0.05934929 0.09472465 0.16488692 -0.1163663 0.0013247695
-0.13411246 0.021503331 0.31613177 0.35780662 0.0088382475 0.05902306 -0.018858457 0.034995314
0.013698686 0.089305095 0.007548162 0.13262467 0.011597326 -0.024531374 0.020593056 -0.17329262
0.0020678102 0.13914168 0.12175044 -0.03508685 0.012528108 0.118138134 -0.06371172 0.009678033
-0.1336658 -0.06850742 0.0195102 -0.2642999 -0.19539565 0.0021786247 -0.18523303 -0.26178735
0.0027102223 -0.20639463 -0.019695282 0.06479655 -0.01121586 0.031550016 0.022853402 0.028709877
-0.22553441 -0.32199705 0.009724283 -0.13236842 -0.23097916 -0.2167424 -0.12800635 -0.18718305
0.03246923 0.057407048 0.2322589 -0.080219224 -0.07735864 -0.01804656 -0.1455744 0.14094383
-0.028391404 0.12331003 0.019727914 0.19807498 -0.08393789 -0.15856767 -0.0675542 -0.04547418
0.028049389 -0.04901652 -0.17173679 0.11161165 0.0969286 -0.02037908 -0.0006663606 -0.03137772
0.06876034 -0.08721899 -0.08521981 -0.19897476 -0.05204284 0.08726402 0.3256805 0.098518826
0.095355235 0.25512567 -0.09989719 -0.06201946 -0.13098092 -0.02766505 -0.0007028918 0.004714583
-0.26773015 0.1323601 -0.08894954 -0.17962319 0.09678831 0.09125329 0.0821082 -0.20806585
-0.0982707 0.101458296 -0.038032517 0.15502253 0.024957133 0.03365688 -0.033384714 -0.05358207
-0.068101965 -0.014274891 0.006848352 0.03374906 0.05673771 0.003714775 0.07086612 -0.09933243
-0.16751604 0.03906516 -0.13418317 0.14900325 0.11627327 -0.0994772 0.014650128 0.06877543
0.039844055 0.19007549 -0.071438484 0.060977474 0.22681987 -0.1790883 0.008436869 -0.14836319
0.03883654 0.012075072 -0.0139135355 0.17518151 0.036063567 -0.006714674 0.011171355 0.020994414
-0.10328608 -0.2238453 0.03318019 -0.066024885 0.124081455 0.02741823 0.016584104 0.16087072
-0.15642433 0.00415213 -0.012754716 -0.25467396 0.0061731255 -0.036587268 0.0007462399 -0.0060145254
0.018834203 -0.09837098 -0.23163578 -0.04882333 0.11021776 -0.022461152 0.052781716 0.14045598
-0.101999305 0.03551681 0.11387823 -0.43006486 -0.0060589123 0.045826364 0.06669409 -0.06299643
-0.22731899 0.08399639 -0.2010305 0.12138278 0.09282427 -0.006980083 0.015124428 -0.05197548
0.107820824 0.111566335 -0.11431233 0.06737434 0.06969816 0.049283504 -0.0071232533 -0.076020434
00000000: 47ae 25be 60d2 8dbd 1e59 11be 8256 5bbc
00000010: 1ef2 e2bc 9d10 3d3c bb40 6e3d d0d0 063e
00000020: f467 bb3b 204c 353e 6db4 4c3c 3076 90bc
00000030: d79a 4c3d 9ac0 283d c48b 35bc 674b f2bc
00000040: 6e2b 963d 3169 e5bc 8ffa d5bd acd0 d9bc
00000050: 88c9 8d3d 7603 5b3d e563 473c 114c 883e
00000060: 8469 293e b613 69bd e80d 5ebb 115e 8dbe
00000070: c684 733d 9f49 bf3d 0af8 13bd a51d 95bd
00000080: 84c9 a8be 1428 86ba ab1d 9bbd cf89 9bbe
00000090: b12e 1b3d 2f0f 3ebd 29bd 013d afd8 9abd
000000a0: c517 cdbb c048 9e3b 397a f7bc f0e5 8abc
000000b0: fdc3 5fbd 8c57 15bd 9070 963c 6182 743c
000000c0: 8162 d0bd 8504 2cbd 3802 9ebd 4643 2a3d
000000d0: 4b19 7bbe 18f6 bfbd d74f a33e 6b5b 1bbe
000000e0: e4e4 17be 005d 63bd 301f 18be 9dcd b6bd
000000f0: 85e6 78be ceae 8bbc 6479 f0bd 7441 033e
00000100: 98d1 04bb a251 f5bc 1a63 8fbd 3e18 733d
00000110: fffe c13d 1ed8 283e 7451 eebd e3a3 ad3a
00000120: c754 09be c127 b03c 06dc a13e 6e32 b73e
00000130: 4cce 103c 2ac2 713d 0d7d 9abc 3f57 0f3d
00000140: 7470 603c 97e5 b63d 9256 f73b c3ce 073e
00000150: b602 3e3c 05f6 c8bc c5b2 a83c 9f73 31be
00000160: 1984 073b 287b 0e3e 4b58 f93d 3bb7 0fbd
00000170: b242 4d3c 68f2 f13d 4a7b 82bd 9d90 1e3c
00000180: b0df 08be 9e4d 8cbd dbd3 9f3c 5152 87be
00000190: cc15 48be 42c7 0e3b baad 3dbe fe08 86be
000001a0: fc9d 313b 1d59 53be 0058 a1bc 0eb4 843d
000001b0: bac2 37bc 973a 013d 0f37 bb3c fa30 eb3c
000001c0: 7ef2 66be ccdc a4be 9952 1f3c 968b 07be
000001d0: cd85 6cbe b8f1 5dbe 1914 03be eaac 3fbe
000001e0: 75fe 043d a723 6b3d 47d5 6d3e fa49 a4bd
000001f0: 356e 9ebd 61d6 93bc 7511 15be 9453 103e
00000200: 1795 e8bc f889 fc3d 6f9c a13c 2bd4 4a3e
00000210: a1e7 abbd 905f 22be db59 8abd 2243 3abd
00000220: d5c7 e53c 8cc5 48bd c5db 2fbe a694 e43d
00000230: 8082 c63d 07f2 a6bc b4ae 2eba ed85 00bd
00000240: 39d2 8c3d df9f b2bd b987 aebd 0ac0 4bbe
00000250: df2a 55bd 7bb7 b23d 98bf a63e 3dc4 c93d
00000260: 9b49 c33d d59f 823e e696 ccbd 1e08 7ebd
00000270: dd1f 06be d1a1 e2bc 4542 38ba ca7c 9a3b
00000280: ed13 89be 6889 073e 2d2b b6bd 24ef 37be
00000290: f338 c63d 01e3 ba3d 5828 a83d 370f 55be
000002a0: 2642 c9bd 5ec9 cf3d fcc7 1bbd 3abe 1e3e
000002b0: e772 cc3c ccdb 093d 69be 08bd df78 5bbd
000002c0: 0b79 8bbd 3be1 69bc 2468 e03b 743c 0a3d
000002d0: cd65 683d 9573 733b 4222 913d cd6e cbbd
000002e0: 5389 2bbe ca02 203d 5067 09be 4f94 183e
000002f0: ae20 ee3d b4ba cbbd 1707 703c 22da 8c3d
00000300: 8533 233d 26a3 423e 574e 92bd 84c3 793d
00000310: 7843 683e ec62 37be cb3a 0a3c 85ec 17be
00000320: 1013 1f3d 86d6 453c 99f5 63bc c862 333e
00000330: 64b7 133d c506 dcbb 0f08 373c 7afc ab3c
00000340: a787 d3bd b437 65be f3e7 073d 0e38 87bd
00000350: 6b1e fe3d 329c e03c 63db 873c 4bbb 243e
00000360: b32d 20be 970e 883b 28f9 50bc a064 82be
00000370: ee47 ca3b 88dc 15bd 509f 433a 7f15 c5bb
00000380: 304a 9a3c b976 c9bd ee31 6dbe f9fa 47bd
00000390: d9b9 e13d 7300 b8bc a431 583d b1d3 0f3e
000003a0: 03e5 d0bd 137a 113d fd38 e93d 7631 dcbe
000003b0: d789 c6bb 6db4 3b3d e996 883d 4604 81bd
000003c0: 4fc6 68be 4d06 ac3d f0da 4dbe 8997 f83d
000003d0: a71a be3d 2eb9 e4bb 73cc 773c 3ee4 54bd
000003e0: 2ad1 dc3d e47c e43d 951c eabd 8ffb 893d
000003f0: e9bd 8e3d 80dd 493d 2e6a e9bb 9ab0 9bbd

features_extractor.state_extractor.0.bias f4 [128]
0.03948072 0.014655829 0.05626212 0.013233867 -0.056860674 0.031301077 0.002574533 0.063133806
-0.0050458936 0.016156489 0.071302556 0.03495852 -0.0068614697 0.055869892 0.012537303 0.071737
-0.023885533 0.020597618 0.024304064 -0.0019791473 0.029265698 0.005924179 0.039505806 -0.025990501
0.02958987 0.012953928 0.002963352 0.011121402 0.008208825 0.020680562 0.10232596 0.03340718
0.01515098 0.0059226123 0.008262692 0.02786555 0.0064273775 -0.029015092 -0.023288758 0.01579485
0.01322263 -0.032210637 0.035141725 -0.0006311247 0.021248098 0.034893546 0.0973837 0.0041648834
-3.525993e-18 0.0014242027 0.011275658 0.014221432 0.0376534 0.001980105 -0.006374592 -0.008157589
0.028901143 0.009295481 0.078685775 0.07184171 -0.02554501 0.024348615 0.019548679 -0.0022897362
0.00632511 -0.0009675068 0.020407943 0.081401706 -0.03956116 0.04447702 0.017470224 0.05931013
0.012003445 0.0070420555 -0.0034842708 0.033417292 0.054690413 0.0039391173 0.002008661 0.0045259045
0.0330824 -0.0027807255 0.015126186 0.02719808 -0.0066950247 0.026114957 0.022388754 0.022294331
0.024380224 0.03730085 0.022533149 0.01060278 -0.0055086417 0.012467808 0.0045875474 0.012917935
0.0020896422 -0.021424854 -1.8610677e-05 0.020296514 -0.011626524 0.059121948 -0.0058782576 -0.0062248907
0.011610325 -0.0065082037 0.049563933 0.00857154 0.033197 0.009408206 0.053529624 0.032793593
0.005065102 -0.003607666 -0.0037246242 -0.030544877 0.01147765 0.00043408494 -0.00444136 -0.0010097304
-0.009004404 0.018139921 0.016297398 0.018315375 0.0023184533 0.020507906 0.11833724 0.054893006
00000000: 89b6 213d 011f 703c 1c73 663d dcd2 583c
00000010: bde6 68bd 8f35 003d 7fb9 283b 4c4c 813d
00000020: 0658 a5bb 9d5a 843c 1307 923d aa30 0f3d
00000030: 2ed6 e0bb d4d7 643d 4369 4d3c d9ea 923d
00000040: 98ab c3bc 56bc a83c 5119 c73c 95b4 01bb
00000050: 9ebe ef3c 9e1f c23b d7d0 213d 08ea d4bc
00000060: 7466 f23c b63c 543c cc34 423b 8a36 363c
00000070: 4f7e 063c 486a a93c 4690 d13d f8d5 083d
00000080: d13b 783c 7912 c23b 3e60 073c 4b46 e43c
00000090: c09c d23b 0fb1 edbc 11c8 bebc 3464 813c
000000a0: bba3 583c 4def 03bd c5f0 0f3d 1072 25ba
000000b0: 7e10 ae3c 89ec 0e3d 1b71 c73d 9379 883b
000000c0: 1016 82a2 50ac ba3a 8abd 383c 0201 693c
000000d0: 743a 1a3d a6c4 013b f4e1 d0bb 68a7 05bc
000000e0: 17c2 ec3c 134c 183c 0226 a13d bf21 933d
000000f0: c543 d1bc bf76 c73c 8d24 a03c 660f 16bb
00000100: de42 cf3b 48a0 7dba 8f2e a73c f0b5 a63d
00000110: e20a 22bd 892d 363d b71d 8f3c 2eef 723d
00000120: 19aa 443c 0bc1 e63b 5d58 64bb 92e0 083d
00000130: 0e03 603d b613 813b bda3 033b 0a4e 943b
00000140: 6981 073d d53c 36bb d3d3 773c 82ce de3c
00000150: f061 dbbb 09ef d53c 9f68 b73c 9aa2 b63c
00000160: 09b9 c73c c7c8 183d 7097 b83c 48b7 2d3c
00000170: d681 b4bb c745 4c3c 2353 963b bfa5 533c
00000180: 61f2 083b 2d83 afbc 201e 9cb7 e044 a63c
00000190: 2d7d 3ebc db29 723d 669e c0bb 2bfa cbbb
000001a0: 3c39 3e3c c542 d5bb 8d03 4b3d a56f 0c3c
000001b0: 94f9 073d e024 1a3c e141 5b3d 9352 063d
000001c0: 28f9 a53b 976e 6cbb d318 74bb 4039 fabc
000001d0: c10c 3c3c e595 e339 d488 91bb ee58 84ba
000001e0: 3587 13bc 2c9a 943c 1f82 853c 200a 963c
000001f0: 31f1 173b 3200 a83c cb5a f23d 7dd7 603d

features_extractor.state_extractor.2.weight f4 [128, 128]
-0.008259476 0.0662556 -0.015948152 -0.17622355 -0.0041083293 -0.01363364 -0.005852155 0.005131712
0.045654815 0.03169983 -0.025509559 -0.010868555 0.0011781385 -6.7764668e-06 -0.06565201 -0.015180875
0.008979042 -0.13282904 -0.00019037003 -0.009920157 -0.056013018 -0.022041757 -0.020500092 0.013566865
0.09133467 0.04150512 -0.0002674459 -0.0023164132 -0.022229278 0.002172568 0.104700305 0.021225167
-0.0038567667 0.05012286 0.013146697 -0.017081425 -0.052698437 -0.038068265 0.08525975 0.07534653
-0.010266597 0.0102856 -0.0043395376 -0.025727283 -0.0011364121 -8.498245e-06 0.00044316577 0.0060990658
-7.2521375e-33 0.020214124 0.009222372 -0.015921384 4.351318e-06 -0.006022152 -0.0037669775 -0.08764598
0.0016477309 -0.017822785 -0.0022892 0.008490083 -2.4551631e-05 0.0004970605 0.054684166 0.015794752
-0.020314323 0.099286005 -0.031920068 -0.01711631 0.0038878135 -0.009324256 -1.0181124e-06 0.008479988
0.0936817 -0.033075955 0.06708491 0.04524113 -0.005368976 -0.014023339 0.0046906616 8.728418e-05
-0.004430623 1.7017663e-07 0.005867182 -0.022361526 0.039815687 0.090838835 -0.08172966 0.028290996
0.071171716 -0.0576909 -0.003927522 0.16137825 -0.00991005 -0.0981965 0.043199167 -0.026690241
0.0046143383 0.09284864 -0.1774534 -0.008632838 0.052281395 -0.0023553178 0.008536075 -0.10135238
-0.010963614 -0.036284693 -0.006629101 -0.15040818 -0.011340851 -0.0050522815 0.0030407344 -0.012189378
-0.14089513 4.34047e-07 0.08334617 -0.019603066 0.0013307454 0.009996504 -0.005586102 0.097938195
0.006119567 -0.005691119 0.13747382 0.037180025 0.02075685 0.000434041 -0.01953699 -0.028414605
-0.07639928 -0.09908685 -0.16530895 0.08874783 -0.01578122 0.07668881 -0.053909067 0.11580765
-0.075916804 -0.25183243 -0.11776842 0.1742763 0.0053897477 0.061130803 -0.056026347 0.08091267
0.11192071 -0.1580208 0.29503408 0.068278715 -0.28838652 0.14669414 0.055653058 -0.04856785
-0.031707708 0.00015726847 -0.0035861924 0.05344608 0.07337632 0.008009469 0.19345963 0.21828413
0.11280801 0.06327712 0.32290217 0.052391335 -0.06387987 0.121737726 -0.06224382 -0.14961879
0.24393363 0.23832518 0.06674292 -0.12819716 -0.12651163 -0.036517046 0.10642101 -0.0757289
-2.010859e-20 -0.030857448 0.13480368 0.030029481 -0.028481724 -0.023120018 0.1103477 0.010770981
-0.061932407 0.03501089 -0.19256748 0.2797129 -0.010920884 -0.021838855 -0.0999221 -0.21531677
-0.24002036 0.13940631 -0.10297805 -0.14974862 -0.2950615 -0.046865467 -0.004047428 -0.08135407
0.036535528 0.026619265 -0.010614479 -0.07232249 0.005886622 0.032215383 0.11943459 0.010776747
-0.026047338 -0.014999975 -0.021828061 -0.15826651 0.25381958 0.10776851 0.15530081 0.016612336
0.07584331 0.14322121 0.029087722 0.1108502 -0.023684196 -0.1357354 0.17146942 0.055800468
-0.021655494 0.08339588 0.25677386 0.12932396 -0.13098937 0.01293685 -0.17760159 0.08776364
0.042825352 0.12956537 -0.08980684 -0.0011319988 0.058022186 0.07618893 0.02772766 0.00902966
0.008285421 -0.024186917 0.08082701 -0.12763129 -0.19682768 0.2880286 -0.024128975 -0.12174123
0.008184482 0.13701917 -0.059024997 0.14335875 -0.12668473 0.007367762 -0.18306136 0.26206008
00000000: c152 07bc 04b1 873d b3a5 82bc f273 34be
00000010: 2a9f 86bb a15f 5fbc 6fc3 bfbb ec27 a83b
00000020: 8b00 3b3d aed7 013d 6cf9 d0bc 0612 32bc
00000030: c56b 9a3a 6861 e3b6 9074 86bd 34b9 78bc
00000040: d51c 133c 5604 08be 119e 47b9 2788 22bc
00000050: e86d 65bd ea90 b4bc cfef a7bc 8e47 5e3c
00000060: ac0d bb3d 4601 2a3d fb37 8cb9 f7ce 17bb
00000070: 2d1a b6bc a561 0e3b 1d6d d63d 67e0 ad3c
00000080: cfc1 7cbb a14d 4d3d 3e65 573c 58ee 8bbc
00000090: 51da 57bd 78ed 1bbd aa9c ae3d 484f 9a3d
000000a0: 3b35 28bc ef84 283c ae32 8ebb 06c2 d2bc
000000b0: aaf3 94ba af93 0eb7 b458 e839 acda c73b
000000c0: fa9e 168a 1798 a53c 6f19 173c 906d 82bc
000000d0: 8901 9236 7955 c5bb 65df 76bb bc7f b3bd
000000e0: adf8 d73a 1701 92bc 6706 16bb fd19 0b3c
000000f0: 3af4 cdb7 2a4d 023a 81fc 5f3d ff63 813c
00000100: 396a a6bc 7656 cb3d 9ebe 02bd 8137 8cbc
00000110: b0ca 7e3b c4c4 18bc 13a6 88b5 a6ef 0a3c
00000120: 31dc bf3d a77a 07bd d063 893d c34e 393d
00000130: 3cee afbb 26c2 65bc 1fb4 993b 560c b738
00000140: c22e 91bb ccb9 3634 7d41 c03b 852f b7bc
00000150: c615 233d b609 ba3d e161 a7bd 85c2 e73c
00000160: 7ac2 913d 4b4d 6cbd 71b2 80bb 5740 253e
00000170: c35d 22bc 3f1b c9bd 9cf1 303d 7ea5 dabc
00000180: e033 973b 6e27 be3d 58b6 35be bf70 0dbc
00000190: 0425 563d ad5b 1abb e5da 0b3c d691 cfbd
000001a0: bba0 33bc 429f 14bd ee38 d9bb 9a04 1abe
000001b0: face 39bc 9c8d a5bb 0f47 473b f5b5 47bc
000001c0: d046 10be f706 e934 66b1 aa3d 9c96 a0bc
000001d0: 686c ae3a 60c8 233c 9f0b b7bb d293 c83d
000001e0: a686 c83b 917c babb f0c5 0c3e 154a 183d
000001f0: 450a aa3c ff8f e339 0a0c a0bc bfc5 e8bc
00000200: 3a77 9cbd 0cee cabd c046 29be 6cc1 b53d
00000210: 9e47 81bc 060f 9d3d c1cf 5cbd 902c ed3d
00000220: 457a 9bbd 2ef0 80be 9230 f1bd 7d75 323e
00000230: 7b9c b03b 4b64 7a3d e27b 65bd 8bb5 a53d
00000240: af36 e53d 34d0 21be b50e 973e b6d5 8b3d
00000250: 66a7 93be fd36 163e 76f4 633d 15ef 46bd
00000260: f1df 01bd 6fe8 2439 5306 6bbb 47ea 5a3d
00000270: 5346 963d 263a 033c 481a 463e e085 5f3e
00000280: e307 e73d 6f97 813d 6f53 a53e 4c98 563d
00000290: 73d3 82bd a151 f93d 60f3 7ebd ab35 19be
000002a0: bdc9 793e 840b 743e 83b0 883d 1e46 03be
000002b0: 448c 01be e692 15bd 42f3 d93d c117 9bbd
000002c0: 96eb bd9e c2c8 fcbc fa09 0a3e 6300 f63c
000002d0: 8152 e9bc 3166 bdbc fafd e13d c578 303c
000002e0: d6ac 7dbd 9467 0f3d 6930 45be 8736 8f3e
000002f0: 82ed 32bc 66e7 b2bc f5a3 ccbd 007c 5cbe
00000300: e6c7 75be 87c0 0e3e 28e6 d2bd b457 19be
00000310: 4d12 97be 01f6 3fbd 49a0 84bb f69c a6bd
00000320: 47a6 153d a510 da3c 5ae8 2dbc d01d 94bd
00000330: 90e4 c03b 47f4 033d 1f9a f43d f490 303c
00000340: 3a61 d5bc 75c2 75bc c3d0 b2bc 9e10 22be
00000350: a4f4 813e bdb5 dc3d 2d07 1f3e 9816 883c
00000360: bd53 9b3d 95a8 123e 6049 ee3c 6e05 e33d
00000370: 5c05 c2bc 38fe 0abe ae95 2f3e 088f 643d
00000380: dd66 b1bc 76cb aa3d dd77 833e 806d 043e
00000390: 1422 06be 15f5 533c 31dd 35be 6cbd b33d
000003a0: a369 2f3d c9ac 043e a6ec b7bd 945f 94ba
000003b0: aca8 6d3d f108 9c3d 1e25 e33c 24f1 133c
000003c0: 93bf 073c a423 c6bc a288 a53d c7b1 02be
000003d0: 328d 49be 7c78 933e 21aa c5bc 7753 f9bd
000003e0: 3518 063c c14e 0c3e 32c4 71bd a3cc 123e
000003f0: a4b9 01be 446d f13b 7074 3bbe bd2c 863e

features_extractor.state_extractor.2.bias f4 [128]
-0.0002513195 0.0330358 0.007133762 0.0041097347 0.023987506 0.01639328 0.0032960786 0.024528543
0.004800253 0.014744357 -0.0014891598 0.024610082 0.025170451 -0.0033956848 0.02066438 0.011130934
0.0019306283 0.0075966576 -0.00026296065 0.0017539768 0.042824656 0.04491119 -4.93131e-40 0.018396197
0.014576231 -0.014086246 0.011604525 0.0056577898 0.0118448 0.008774916 0.009208213 0.022708932
-0.011993141 -0.0073360726 0.017154856 0.007991272 0.022893433 0.006174102 -0.0007532701 0.00015359475
0.030362532 0.00552792 -0.0011471751 0.013992142 -0.00924439 0.012882733 -0.01396015 0.0010571178
0.015255457 4.91767e-40 0.024544593 0.018801153 -0.018852407 0.0053568087 0.01004761 -0.003665725
0.0094797965 0.0151541205 0.015989667 0.0348661 0.011198103 0.016866772 0.009979943 0.0052471915
0.0 0.015046006 0.018993448 -0.026554372 0.0030715335 0.0012874894 0.00088967377 0.0032700365
0.008464735 0.0061879824 0.0007783084 0.015073122 0.013551837 0.0037045614 0.0006467832 -0.019087603
0.02106763 0.008849462 0.004415788 0.009102125 0.018038707 -0.01751725 0.0039770016 0.0009580825
0.0010659739 0.024283316 0.007320139 0.024837784 0.0025505119 0.012291166 0.017480478 0.004076769
-0.0024723052 0.01589638 0.0015316085 -0.0011469305 0.010018729 0.020070799 -0.005180697 -0.0022129864
-0.0010657767 -0.01188826 0.008596486 -0.004950462 -0.0014625944 0.0057496736 0.021160902 0.008171046
0.0005509018 0.00044989775 0.010792368 -1.1705029e-32 0.010412244 0.00075133453 0.017623153 0.0060452404
0.009595951 -0.009919065 0.00025290102 0.015294112 0.03349171 -0.002295318 -0.0075390814 0.025827365
00000000: 88c3 83b9 8c50 073d 55c2 e93b f4aa 863b
00000010: 7281 c43c 334b 863c 0603 583b 15f0 c83c
00000020: 714b 9d3b 5192 713c e92f c3ba 159b c93c
00000030: 4332 ce3c 238a 5ebb 5948 a93c 855e 363c
00000040: 230d fd3a 62ed f83b fbdd 89b9 b2e5 e53a
00000050: e868 2f3d ccf4 373d a65e 0580 9fb3 963c
00000060: 25d1 6e3c ffc9 66bc e820 3e3c fb64 b93b
00000070: b110 423c aac4 0f3c 0bde 163c 1508 ba3c
00000080: e17e 44bc 7063 f0bb 5788 8c3c d3ed 023c
00000090: 028b bb3c 1f50 ca3b 1a77 45ba 470e 2139
000000a0: d8ba f83c 8e23 b53b cf5c 96ba 4c3f 653c
000000b0: c875 17bc 1912 533c 1db9 64bc fd8e 8a3a
000000c0: 06f2 793c d95a 0500 be11 c93c e004 9a3c
000000d0: 5d70 9abc 2b88 af3b bb9e 243c a93c 70bb
000000e0: 2651 1b3c fd48 783c c3fc 823c c1cf 0e3d
000000f0: 4078 373c 2f2c 8a3c ea82 233c a2f0 ab3b
00000100: 0000 0000 8683 763c 2698 9b3c 8e88 d9bc
00000110: c84b 493b fac0 a83a ff38 693a 1c4e 563b
00000120: acaf 0a3c 8fc4 ca3b 6407 4c3a 42f5 763c
00000130: 8608 5e3c 3ac8 723b e38c 293a 9b5d 9cbc
00000140: 0696 ac3c 55fd 103c 51b2 903b 1421 153c
00000150: e9c5 933c 5680 8fbc 8251 823b d427 7b3a
00000160: 26b8 8b3a ceed c63c c7dd ef3b 9c78 cb3c
00000170: 7d26 273b e360 493c 3833 8f3c 6b96 853b
00000180: 6606 22bb 2039 823c 41c0 c83a 9a54 96ba
00000190: 9825 243c 846b a43c d6c2 a9bb c007 11bb
000001a0: 88b1 8bba fac6 42bc 47d8 0c3c 7c37 a2bb
000001b0: 86b4 bfba c267 bc3b a159 ad3c dadf 053c
000001c0: 656a 103a 41e0 eb39 79d2 303c 9c1a 738a
000001d0: 1e98 2a3c 35f5 443a 6e5e 903c 2717 c63b
000001e0: 5638 1d3c 9383 22bc cd97 8439 2894 7a3c
000001f0: 9a2e 093d 0c6d 16bb 660a f7bb e993 d33c

features_extractor.vd_extractor.0.weight f4 [128, 1]
-1.11881275e-36 -1.3773996e-07 -4.6257922e-38 0.1355935 -3.88502e-40 0.038738247 -3.0832998e-29 -1.013217e-36
-5.4158824e-09 -2.0234142e-20 -1.9507435e-38 4.90477e-40 0.17093144 0.22674228 0.2328668 -1.6586453e-18
-7.525553e-12 0.16750668 0.09278695 0.04180666 0.116421215 0.14260985 0.08949905 0.21072061
-2.0086267e-31 -6.6458614e-38 -3.514805e-39 0.21015751 0.16985413 0.02449883 0.13777375 0.043754697
0.18659106 -2.1069004e-30 4.91368e-40 -1.9454406e-34 -9.068253e-05 -3.4627774e-32 -7.0166804e-32 0.12908532
0.21217097 -2.0805556e-36 0.06873936 -1.1604566e-28 0.1964742 5.076926e-35 0.047285385 -6.519052e-36
-2.424995e-39 0.06850934 0.2880444 0.064799845 -9.9418786e-11 -3.7592707e-34 -4.823344e-29 -5.50436e-40
-1.7779686e-07 0.34295952 0.030188413 0.2347404 0.16636612 0.004860631 0.22968641 0.1196268
0.04480697 -4.6291946e-34 0.08101907 -2.0579903e-25 0.003629335 0.16351894 -5.699563e-06 0.10873593
-3.6842366e-20 -1.3785624e-19 0.06353628 0.07047612 -4.3417828e-33 0.23875308 4.90958e-40 0.18829995
7.997199e-23 4.92579e-40 0.0023252943 0.18621804 0.027671855 0.011937489 -5.7053957e-38 0.052155945
-5.3146938e-08 0.15076791 4.90794e-40 0.06224503 0.030771894 0.17393994 0.13501035 -7.3845e-40
-1.2726824e-27 4.91832e-40 0.009759209 0.10373167 0.109721504 0.10919268 -1.1078068e-19 0.19930062
-5.2543115e-08 0.037279803 0.059660923 -7.589692e-38 0.057900783 0.15521608 -1.85434e-28 0.012457145
4.93201e-40 0.17975305 0.062101457 -2.6560407e-36 -5.713546e-29 -1.2623977e-38 -5.099416e-19 0.101927914
-1.6025616e-38 -1.07977e-39 0.037804823 -5.985168e-07 -7.762855e-11 -2.7673605e-34 -3.7909568e-38 4.9091e-40
00000000: 2b5b be83 ace5 13b4 22da 7b81 06d9 0a3e
00000010: fc3a 0480 ffab 1e3d 8557 1c90 d363 ac83
00000020: 9b16 bab1 271b bf9e cb6a d480 4057 0500
00000030: a708 2f3e 212f 683e a274 6e3e d9c5 f4a1
00000040: 1464 04ad df86 2b3e 1607 be3d 763d 2b3d
00000050: 3f6e ee3d 5108 123e 474b b73d 25c7 573e
00000060: 095e 828c e5ea b481 d945 2680 8833 573e
00000070: 3eee 2d3e c5b1 c83c 9014 0d3e 2038 333d
00000080: ba11 3f3e 9cee 2a8e bc59 0500 f54b 8187
00000090: d02c beb8 35cc 338b d729 b68b f12e 043e
000000a0: 5943 593e 7dfe 3084 39c7 8c3d f81a 1391
000000b0: 8830 493e c5f7 8606 52ae 413d 18a5 0a85
000000c0: e667 1a80 a04e 8c3d 8e7a 933e c8b5 843d
000000d0: cd9f daae add8 f987 9692 7490 64fe 0580
000000e0: 6ee8 3eb4 6498 af3e b14d f73c ca5f 703e
000000f0: e15b 2a3e ee45 9f3b ea32 6b3e e5fe f43d
00000100: 8387 373d d5d4 1988 54ed a53d 51c4 7e96
00000110: 23da 6d3b 8271 273e e03e bfb6 f1b0 de3d
00000120: b0fb 2d9f 7ec0 22a0 4f1f 823d c955 903d
00000130: c159 b489 b07b 743e 9758 0500 b4d1 403e
00000140: 445c c11a 1c5d 0500 f763 183b f1af 3e3e
00000150: 16b0 e23c 7595 433c ce50 9b81 79a1 553d
00000160: ad43 64b3 e762 1a3e 2258 0500 a5f4 7e3d
00000170: 5715 fc3c 501d 323e 2740 0a3e 800a 0880
00000180: 22aa c992 075b 0500 17e5 1f3c 4571 d43d
00000190: abb5 e03d 69a0 df3d 68c9 02a0 7615 4c3e
000001a0: c4ab 61b3 b5b2 183d 035f 743d 6f9c ce81
000001b0: 5f29 6d3d f7f0 1e3e c610 6b91 0e19 4c3c
000001c0: d85e 0500 2f11 383e 195e 7e3d 72f3 6184
000001d0: 09db 9090 8376 8980 1982 16a1 95bf d03d
000001e0: e680 ae80 f6c1 0b80 3bd9 1a3d c3a9 20b5
000001f0: fdb4 aaae 33ec b787 3a66 4e81 7558 0500

features_extractor.vd_extractor.0.bias f4 [128]
-6.4593007e-37 -1.3770975e-07 -4.094896e-38 0.027466508 -1.86886e-40 0.026504636 -7.8128113e-31 -9.9910885e-37
-5.4152296e-09 -2.0230124e-20 -6.26119e-39 -4.91936e-40 0.0074973945 0.034948483 0.022229841 -1.6555953e-18
-7.482916e-12 0.017648749 0.026136642 0.01500973 0.015911037 0.016453223 0.019202253 0.026950192
-2.1487247e-31 -3.170766e-39 -3.518384e-39 0.024288734 0.02710627 0.012728751 0.01278401 0.0206288
0.008277851 -2.1015055e-30 -4.9187e-40 -3.3150893e-38 -9.068129e-05 -3.3822417e-32 -6.9650003e-32 0.01214158
0.023988051 -1.1434821e-36 0.0073312437 -1.00764474e-28 0.018183913 5.242679e-35 -0.0121751055 -6.090083e-36
-2.442383e-39 0.022680786 0.018133802 0.020651963 -9.911984e-11 -3.539478e-34 -4.7283924e-29 -5.42455e-40
-1.7779686e-07 0.010775401 0.030188417 0.03099685 0.019009655 0.0025243524 0.027525349 0.022021623
0.012754621 -4.605526e-34 0.010701202 -2.056913e-25 -0.0038183408 0.00878444 -5.699972e-06 -0.00037512826
-2.5287844e-20 -1.3297218e-19 -0.005833378 0.0018296834 -4.3207436e-33 0.010455691 -4.93315e-40 0.026283372
8.8006806e-23 -4.94733e-40 -0.0031623072 0.013886498 0.019463621 -0.0043986607 -4.368924e-39 0.008204372
-5.2927295e-08 0.019669686 -4.90942e-40 0.062245037 0.030771898 0.02427794 0.01967195 -4.91734e-40
-1.2674337e-27 -4.92352e-40 0.009759158 0.010864904 0.009854986 0.008425133 -1.1077515e-19 0.024382696
-5.17668e-08 0.011880887 0.023094881 -7.411525e-38 0.029792713 0.02254802 -9.954616e-29 0.012457145
-4.93704e-40 0.022887345 0.019816836 -2.0959414e-36 -5.664828e-29 -9.360311e-39 -1.9508584e-19 0.016451435
3.20826e-40 -8.86653e-40 0.0059357756 -5.9851556e-07 -7.759145e-11 -2.766773e-34 -3.78787e-38 -4.93512e-40
00000000: 72cc 5b83 5edd 13b4 85f2 5e81 7101 e13c
00000010: f608 0280 4020 d93c 4c8a 7d8d 54fd a983
00000020: dd10 bab1 7011 bf9e a62d 4480 515b 0580
00000030: b4ac f53b 2426 0f3d 5b1b b63c 9f52 f4a1
00000040: 0fa4 03ad 1c94 903c 831c d63c 5feb 753c
00000050: dd57 823c e9c8 863c 0b4e 9d3c a6c6 dc3c
00000060: d075 8b8c ce86 2280 d34f 2680 2bf9 c63c
00000070: f80d de3c 408c 503c 0674 513c bbfd a83c
00000080: d39f 073c 907e 2a8e 225b 0580 9a7d 3481
00000090: 262c beb8 b49d 2f8b 5ed2 b48b 7aed 463c
000000a0: 9782 c43c ab8d c283 ee3a f03b e277 ff90
000000b0: 6ef6 943c d35f 8b06 187a 47bc 9185 0185
000000c0: 5f98 1a80 0ecd b93c 578d 943c 4e2e a93c
000000d0: 82f7 d9ae 193d eb87 0bc2 6f90 25e8 0580
000000e0: 6ee8 3eb4 4f8b 303c b34d f73c 1bed fd3c
000000f0: 23ba 9b3c 9b6f 253b d77c e13c b166 b43c
00000100: c2f8 503c 7b0b 1988 1854 2f3c 2da2 7e96
00000110: 213d 7abb 9dec 0f3c 6342 bfb6 ddac c4b9
00000120: 41d6 ee9e 60fc 1ca0 ec25 bfbb fdd1 ef3a
00000130: 077a b389 594e 2b3c 295f 0580 3a50 d73c
00000140: 93c9 d41a 1d63 0580 b63e 4fbb 3284 633c
00000150: 2c72 9f3c a422 90bb c892 2f80 a16b 063c
00000160: 2d52 63b3 5222 a13c 8c58 0580 a7f4 7e3d
00000170: 5915 fc3c 88e2 c63c 1227 a13c c15a 0580
00000180: 38d5 c892 7a5c 0580 e0e4 1f3c b602 323c
00000190: cf76 213c 9209 0a3c bcc7 02a0 38be c73c
000001a0: 3356 5eb3 0da8 423c 7a31 bd3c cac2 c981
000001b0: d90f f43c a0b6 b83c 2761 fc90 0e19 4c3c
000001c0: 3f60 0580 3e7e bb3c eb56 a23c 904d 3284
000001d0: d69e 8f90 bdec 6580 1451 66a0 29c5 863c
000001e0: 557e 0300 a1a7 0980 e580 c23b ada9 20b5
000001f0: 1aa0 aaae 34e2 b787 343b 4e81 b65f 0580

features_extractor.vd_extractor.2.weight f4 [128, 128]
-4.9097e-40 -4.92458e-40 4.91539e-40 4.91143e-40 -4.99075e-40 5.60273e-40 4.928e-40 -4.92964e-40
-4.92107e-40 -4.92336e-40 -4.93428e-40 -4.921e-40 4.92122e-40 4.92936e-40 4.90505e-40 4.97158e-40
-4.91405e-40 -4.91276e-40 4.91598e-40 -4.90656e-40 -4.91975e-40 -4.90667e-40 -4.9252e-40 4.90589e-40
-4.9303e-40 -4.90673e-40 4.97675e-40 -4.91526e-40 -4.9196e-40 4.91714e-40 4.93285e-40 4.92669e-40
-4.9159e-40 4.91686e-40 -4.91922e-40 -4.93099e-40 4.91225e-40 -4.91686e-40 -4.90878e-40 -4.91777e-40
4.92364e-40 4.91508e-40 4.91836e-40 -4.92175e-40 4.91838e-40 4.931e-40 4.92171e-40 -4.92186e-40
-4.91585e-40 4.90579e-40 -4.90899e-40 -4.91755e-40 4.90474e-40 4.90836e-40 -4.92485e-40 -4.91868e-40
4.92541e-40 -4.92708e-40 4.93146e-40 -4.90764e-40 -4.92293e-40 4.9317e-40 4.9105e-40 -4.93306e-40
-4.93184e-40 -4.92415e-40 -4.92985e-40 -4.91117e-40 -4.91295e-40 4.93033e-40 -4.91606e-40 4.91371e-40
4.91001e-40 -4.91123e-40 4.9476e-40 4.91022e-40 -4.94001e-40 4.90932e-40 -4.92513e-40 4.93079e-40
-4.93117e-40 4.94075e-40 -4.92282e-40 -4.93167e-40 4.92649e-40 4.90937e-40 -4.92807e-40 4.90597e-40
4.9222e-40 -4.93895e-40 -4.92505e-40 4.91417e-40 -4.92207e-40 4.90788e-40 4.92886e-40 -4.93477e-40
-4.90482e-40 4.91193e-40 4.9107e-40 -4.92115e-40 -4.92701e-40 -4.91023e-40 -4.92538e-40 -4.9551e-40
-4.90966e-40 -4.90614e-40 -4.92425e-40 4.90894e-40 4.91864e-40 -4.93996e-40 4.91737e-40 -4.99129e-40
-4.90927e-40 -4.90509e-40 -4.95157e-40 -4.90977e-40 4.90792e-40 -4.93023e-40 -4.92882e-40 -4.91128e-40
-4.91053e-40 4.93088e-40 -4.92083e-40 -4.91318e-40 4.91699e-40 -4.91199e-40 -4.95346e-40 -4.9194e-40
-4.92499e-40 -4.91948e-40 -4.90576e-40 0.055798102 -4.0682e-41 -0.05098466 4.92593e-40 7.826107e-38
6.711285e-26 -4.91926e-40 5.02272e-40 4.90558e-40 0.17742357 -0.270119 0.1893786 -4.93668e-40
-4.92576e-40 0.06024651 0.008714783 0.010444851 0.068254456 0.023943214 0.29940963 0.08644118
-8.221659e-33 -4.90652e-40 -3.91177e-40 0.03277804 -0.013321437 -0.008755763 -0.16078503 -0.21297441
-0.0804046 -3.6318814e-32 4.92639e-40 -1.3838484e-38 -1.0284161e-32 4.91759e-40 -4.91435e-40 -0.29250467
-0.17843868 1.5290764e-37 0.08539131 -7.8026273e-31 0.12398094 -7.171339e-36 0.091168195 4.90934e-40
1.072754e-39 0.16000544 0.10224199 -0.0646497 4.9118e-40 3.572563e-35 3.4172986e-30 -4.90494e-40
-4.9094e-40 -0.038930174 0.0039068284 -0.038712945 0.028542435 0.04431575 -0.07144346 -0.07172217
0.01491159 4.9174e-40 -0.20362388 4.90882e-40 0.00020152134 0.14057684 4.92896e-40 -0.016701415
-6.8927e-41 3.5613952e-22 0.06584103 -0.038349207 7.1635264e-34 -0.11541866 4.91403e-40 0.15691985
-1.2973913e-23 4.92205e-40 -5.014309e-17 0.16294777 -0.18380636 0.0201274 5.00219e-40 -0.11229234
-4.90729e-40 0.03588132 4.90728e-40 0.045911882 0.018571319 -0.049336173 -0.10837913 -4.94272e-40
4.9115e-40 -4.92859e-40 0.037156206 -0.16538128 0.054565 -0.032493163 -4.93195e-40 0.28875184
-4.91169e-40 0.16994658 -0.11264505 4.67403e-40 -0.110229805 0.22705568 -4.92943e-40 0.002623958
4.92067e-40 0.039279092 -0.041892704 1.8257681e-37 -4.93546e-40 2.34973e-40 -3.8430508e-20 0.012994599
4.90711e-40 -1.91287e-40 -0.01419281 -4.92238e-40 -4.91725e-40 1.5046022e-35 -9.27484e-40 4.91175e-40
00000000: a058 0580 c65c 0580 365a 0500 1b59 0500
00000010: 386f 0580 d019 0600 ba5d 0500 2f5e 0580
00000020: cb5b 0580 6f5c 0580 7a5f 0580 c65b 0580
00000030: d65b 0500 1b5e 0500 5457 0500 e069 0500
00000040: d659 0580 7a59 0580 605a 0500 c057 0580
00000050: 6d5b 0580 c857 0580 f25c 0580 9057 0500
00000060: 5e5e 0580 cc57 0580 516b 0500 2d5a 0580
00000070: 625b 0580 b35a 0500 145f 0500 5c5d 0500
00000080: 5a5a 0580 9f5a 0500 475b 0580 8f5e 0580
00000090: 5659 0500 9f5a 0580 5e58 0580 e05a 0580
000000a0: 835c 0500 205a 0500 0a5b 0500 fc5b 0580
000000b0: 0b5b 0500 905e 0500 f95b 0500 045c 0580
000000c0: 575a 0580 8957 0500 6d58 0580 d05a 0580
000000d0: 3e57 0500 4058 0500 d95c 0580 215b 0580
000000e0: 015d 0500 785d 0580 b15e 0500 0d58 0580
000000f0: 505c 0580 c25e 0500 d958 0500 235f 0580
00000100: cc5e 0580 a75c 0580 3e5e 0580 0959 0580
00000110: 8859 0580 605e 0500 665a 0580 be59 0500
00000120: b658 0500 0d59 0580 3163 0500 c558 0500
00000130: 1361 0580 8558 0500 ed5c 0580 815e 0500
00000140: 9c5e 0580 4861 0500 485c 0580 c05e 0580
00000150: 4e5d 0500 8858 0500 bf5d 0580 9657 0500
00000160: 1c5c 0500 c760 0580 e75c 0580 df59 0500
00000170: 135c 0580 1e58 0500 f75d 0500 9d5f 0580
00000180: 4457 0580 3f59 0500 e758 0500 d15b 0580
00000190: 735d 0580 c658 0580 ff5c 0580 4865 0580
000001a0: 9d58 0580 a257 0580 ae5c 0580 6a58 0500
000001b0: 1e5b 0500 0f61 0580 c35a 0500 5e6f 0580
000001c0: 8158 0580 5757 0580 4c64 0580 a558 0580
000001d0: 2158 0500 595e 0580 f45d 0580 1159 0580
000001e0: db58 0580 875e 0500 ba5b 0580 9859 0580
000001f0: a85a 0500 4359 0580 d364 0580 545b 0580
00000200: e35c 0580 5a5b 0580 8757 0580 8d8c 643d
00000210: 6871 0080 4ad5 50bd 265d 0500 010c d501
00000220: d329 a615 4a5b 0580 2178 0500 7a57 0500
00000230: 86ae 353e 0a4d 8abe 77ec 413e 2560 0580
00000240: 1a5d 0580 0bc5 763d 73c8 0e3c e120 2b3c
00000250: fec8 8b3d 8f24 c43c 384c 993e 1308 b13d
00000260: d6c1 2a8a bd57 0580 7142 0480 4442 063d
00000270: 2842 5abc 5574 0fbc d5a4 24be f715 5abe
00000280: 2bab a4bd fc93 3c8b 475d 0500 10b0 9680
00000290: fb97 558a d35a 0500 ec59 0580 2cc3 95be
000002a0: a1b8 36be 8920 5002 a4e1 ae3d b135 7d8d
000002b0: b8e9 fd3d 7c84 1885 64b6 ba3d 8658 0500
000002c0: 67ae 0b00 77d8 233e 4064 d13d 1067 84bd
000002d0: 3659 0500 35f3 3d06 429f 8a0e 4c57 0580
000002e0: 8a58 0580 3f75 1fbd da04 803b 7791 1ebd
000002f0: d3d1 e93c 6f84 353d f350 92bd 13e3 92bd
00000300: be4f 743c c55a 0500 c782 50be 6158 0500
00000310: 794f 5339 60f3 0f3e fe5d 0500 68d1 88bc
00000320: 24c0 0080 ec45 d71b a9d7 863d 0f14 1dbd
00000330: 8b0c 6e08 9e60 ecbd d559 0500 99af 203e
00000340: b5f3 7a99 115c 0500 833e 67a4 c8db 263e
00000350: bc37 3cbe 38e2 a43c 6872 0500 87f9 e5bd
00000360: f457 0580 4af8 123d f357 0500 190e 3c3d
00000370: e122 983c ba14 4abd e1f5 ddbd d461 0580
00000380: 2059 0500 e45d 0580 1b31 183d b659 29be
00000390: 8d7f 5f3d 8d17 05bd d45e 0580 48d7 933e
000003a0: 2e59 0580 7a06 2e3e 73b2 e6bd ee16 0500
000003b0: 2ac0 e1bd 4981 683e 205e 0580 b6f6 2b3b
000003c0: af5b 0500 1de3 203d af97 2bbd bc82 7802
000003d0: ce5f 0580 028f 0200 a27b 359f 4ce7 543c
000003e0: e757 0500 3b15 0280 f688 68bc 295c 0580
000003f0: bb5a 0580 2bff 9f05 7319 0a80 3259 0500

features_extractor.vd_extractor.2.bias f4 [128]
0.0 0.011849254 -1.2412364e-05 -8.5689407e-38 -0.0014037584 0.0071020806 -7.643628e-09 0.017810652
-0.001304209 -9.485066e-07 0.021593371 0.0012203766 -2.1947313e-20 -6.273952e-06 -1.044098e-37 -1.8144807e-06
0.013026284 0.0 0.018586572 -0.0021553517 0.0107368035 -9.293265e-37 0.018517703 0.0
0.0017925553 0.025460618 0.0 0.0063874302 -1.107e-41 0.014955249 0.0 -6.1730673e-27
0.013956308 0.016980566 0.042328253 -3.9089277e-06 0.009278664 0.0 -2.7694666e-36 0.0
0.0 0.002777164 0.0 -0.0034160214 0.03531969 0.016238047 -4.9165e-40 -0.0044890046
-0.0024138542 0.014401062 -0.0069743153 0.0031452258 -3.076896e-06 0.0 -2.714811e-13 -2.7429432e-35
0.015066325 0.000844017 -0.005320815 0.010494694 -4.3055586e-30 0.0114315795 -7.584961e-17 0.01425582
-0.004012084 -1.867123e-21 0.00024306004 0.0 0.0 -2.6332582e-37 -8.8309987e-10 0.029021485
0.032283206 -5.177632e-24 0.004154883 -0.0022784772 0.0 -2.0238747e-05 -0.0017390344 0.034647144
-9.27936e-16 0.02374994 -6.651395e-11 0.016830986 -0.00038089918 -0.0076458254 0.0 0.012828331
0.0 0.004742543 -2.3751357e-11 -3.16629e-12 0.023228385 -6.0356244e-09 -0.0067095184 0.022549108
0.0 0.015874563 0.020578932 0.0023814065 0.017654749 0.02512722 0.0063253324 0.012333769
0.01413195 0.0041736728 0.0068053855 -7.500619e-12 0.0 0.022263141 -8.90411e-14 0.008577461
-4.1305867e-35 -0.0050042593 -2.56914e-25 0.02631011 -4.232851e-09 -5.650406e-10 -0.000107459986 0.02600608
0.009065802 -6.142903e-21 0.01153398 0.016956257 0.020743338 0.008366049 -0.0039222287 0.011214406
00000000: 0000 0000 6023 423c b33e 50b7 cd44 e981
00000010: 51fe b7ba 92b8 e83b 0851 03b2 a5e7 913c
00000020: fef1 aaba e19c 7eb5 95e4 b03c 0bf5 9f3a
00000030: 5949 cf9e d684 d2b6 811d 0e82 1589 f3b5
00000040: 326c 553c 0000 0000 de42 983c cd40 0dbb
00000050: 6be9 2f3c e11d 9e83 70b2 973c 0000 0000
00000060: 2df4 ea3a c992 d03c 0000 0000 a64d d13b
00000070: dc1e 0080 dc06 753c 0000 0000 578a f493
00000080: 00a9 643c d41a 8b3c 6460 2d3d 6f29 83b6
00000090: 8a05 183c 0000 0000 a499 6b84 0000 0000
000000a0: 0000 0000 1501 363b 0000 0000 54df 5fbb
000000b0: 61ab 103d a705 853c 855a 0580 8018 93bb
000000c0: c131 1ebb 6ff2 6b3c cc88 e4bb 2220 4e3b
000000d0: ac7c 4eb6 0000 0000 8dd4 98aa 02d7 1186
000000e0: bfd8 763c 0641 5d3a 3b5a aebb f0f1 2b3c
000000f0: 7aa7 ae8e 854b 3b3c b5e5 aea4 3e91 693c
00000100: cd77 83bb 6913 0d9d efdd 7e39 0000 0000
00000110: 0000 0000 d435 b382 a1be 72b0 77be ed3c
00000120: 653b 043d c94c c898 af25 883b 8152 15bb
00000130: 0000 0000 61c6 a9b7 50f0 e3ba 2aea 0d3d
00000140: ccba 85a6 3c8f c23c 0644 92ae 23e1 893c
00000150: 6cb3 c7b9 d589 fabb 0000 0000 ec2d 523c
00000160: 0000 0000 5667 9b3b 4deb d0ad cfce 5eac
00000170: 7449 be3c ea61 cfb1 85db dbbb e8b8 b83c
00000180: 0000 0000 5f0b 823c 2695 a83c 5f11 1c3b
00000190: b1a0 903c 9ad7 cd3c bc44 cf3b 9413 4a3c
000001a0: b289 673c 4ec3 883b b6ff de3b c9f3 03ad
000001b0: 0000 0000 3161 b63c b380 c8a9 7b88 0c3c
000001c0: a29e 5b86 c5fa a3bb a605 9f96 4d88 d73c
000001d0: 8d70 91b1 3351 1bb0 245c e1b8 b40a d53c
000001e0: bb88 143c 8312 e89d 05f9 3c3c d9e7 8a3c
000001f0: efed a93c c111 093c 0a86 80bb a1bc 373c

mlp_extractor.policy_net.0.weight f4 [192, 256]
-4.93481e-40 4.92981e-40 4.92629e-40 -4.91431e-40 -4.91996e-40 -4.94225e-40 -4.91046e-40 -4.93369e-40
4.90768e-40 -4.90841e-40 4.91071e-40 -4.92622e-40 -4.92858e-40 -4.93055e-40 4.93509e-40 -4.92021e-40
-4.9072e-40 4.98026e-40 -6.09642e-40 4.92392e-40 -4.9306e-40 -4.94325e-40 4.92174e-40 4.9439e-40
4.90474e-40 -4.92129e-40 -4.92426e-40 -4.92264e-40 -4.91507e-40 4.91525e-40 4.91846e-40 -4.93023e-40
-4.90823e-40 4.92125e-40 4.90525e-40 -4.93528e-40 -4.91849e-40 -4.92855e-40 -4.91592e-40 -4.90705e-40
-4.90571e-40 4.9054e-40 4.92925e-40 -4.90993e-40 -4.93626e-40 -4.91424e-40 4.93132e-40 -4.92638e-40
-4.91011e-40 4.91322e-40 -4.91896e-40 -4.92556e-40 -4.9255e-40 7.0516e-41 4.91769e-40 -4.92007e-40
-4.92879e-40 -4.90887e-40 4.92887e-40 -4.92045e-40 -4.92268e-40 4.91512e-40 -4.90805e-40 -4.9344e-40
4.92e-40 -4.90653e-40 -4.92974e-40 4.90875e-40 4.91567e-40 4.93104e-40 -4.92311e-40 4.90969e-40
3.55323e-40 4.91288e-40 -4.93166e-40 4.93069e-40 -4.90823e-40 -4.91905e-40 4.93158e-40 -4.90984e-40
4.90965e-40 4.9e-44 -4.92617e-40 -4.90456e-40 -4.93235e-40 -5.01313e-40 4.92357e-40 4.92928e-40
-4.91218e-40 -4.93448e-40 -4.91675e-40 -4.92009e-40 -4.92119e-40 -4.91082e-40 -4.9119e-40 5.02538e-40
-4.91713e-40 -4.914e-40 4.92439e-40 4.91948e-40 -4.95087e-40 -4.93219e-40 -4.9096e-40 -4.9181e-40
4.92894e-40 -4.91873e-40 -4.96277e-40 4.91619e-40 4.90526e-40 -4.91605e-40 -4.92744e-40 -4.93092e-40
-4.91106e-40 -4.92011e-40 -4.90595e-40 -4.9299e-40 4.9154e-40 4.90604e-40 4.928e-40 -4.93253e-40
-4.93086e-40 -4.93299e-40 3.237e-42 -4.93141e-40 -4.90665e-40 -4.90536e-40 -4.92105e-40 -4.92463e-40
4.93509e-40 -4.91234e-40 -4.9252e-40 -4.93131e-40 -4.91678e-40 4.9114e-40 4.94503e-40 -4.93662e-40
4.93827e-40 4.92982e-40 -4.91189e-40 -4.94237e-40 4.92953e-40 -4.9251e-40 4.9359e-40 -4.91093e-40
-2.3637e-41 4.9352e-40 -4.9177e-40 -4.9068e-40 -4.92398e-40 -4.93463e-40 -4.92499e-40 4.94436e-40
-4.90575e-40 -4.92325e-40 -4.93946e-40 -4.92587e-40 -4.93735e-40 -4.91173e-40 4.91305e-40 4.912e-40
-4.93368e-40 -4.92664e-40 -4.91798e-40 -6.11116e-40 -4.91347e-40 4.94347e-40 -4.93393e-40 4.90907e-40
-4.91668e-40 -4.93104e-40 4.90745e-40 4.94298e-40 -4.91082e-40 -4.92559e-40 -4.9183e-40 4.93109e-40
4.93033e-40 -4.91312e-40 4.90948e-40 -4.92748e-40 -4.92357e-40 -4.9222e-40 -4.93072e-40 5.00635e-40
-4.92325e-40 -4.92408e-40 -4.91564e-40 -4.91633e-40 -4.91874e-40 -4.90924e-40 -4.91927e-40 -4.93397e-40
4.94873e-40 4.9241e-40 -4.91999e-40 -4.90683e-40 -4.94419e-40 -4.93064e-40 -4.9079e-40 -4.91833e-40
-4.9259e-40 4.93125e-40 -4.92834e-40 -4.9106e-40 4.90766e-40 -4.93163e-40 -4.90822e-40 -4.92045e-40
-4.9086e-40 -4.91489e-40 -4.90987e-40 -4.93191e-40 -4.92849e-40 -4.90875e-40 -4.93149e-40 -2.4163e-41
4.90777e-40 4.92545e-40 4.94378e-40 4.95248e-40 -4.92795e-40 4.96616e-40 4.92583e-40 -4.90875e-40
4.9325e-40 -4.92489e-40 -4.93086e-40 -4.9211e-40 -4.91065e-40 -4.92524e-40 -4.90798e-40 -4.93386e-40
-4.91046e-40 -4.9085e-40 -4.92678e-40 -4.9094e-40 -4.9414e-40 -4.93228e-40 4.91815e-40 4.93544e-40
4.9357e-40 4.94043e-40 -4.91399e-40 -4.92647e-40 4.92842e-40 4.94702e-40 4.9297e-40 -4.92859e-40
-4.92824e-40 -4.91361e-40 -4.92992e-40 -4.92227e-40 -4.91833e-40 -4.91748e-40 4.90764e-40 -4.92318e-40
00000000: a05f 0580 3b5e 0500 405d 0500 e959 0580
00000010: 7c5b 0580 b361 0580 d658 0580 505f 0580
00000020: 1058 0500 4458 0580 e858 0500 3b5d 0580
00000030: e35d 0580 705e 0580 b45f 0500 8e5b 0580
00000040: ed57 0580 4b6c 0500 6fa3 0680 975c 0500
00000050: 735e 0580 fa61 0580 fb5b 0500 2862 0500
00000060: 3e57 0500 db5b 0580 af5c 0580 3b5c 0580
00000070: 1f5a 0580 2c5a 0500 115b 0500 595e 0580
00000080: 3758 0580 d85b 0500 6257 0500 c15f 0580
00000090: 135b 0580 e15d 0580 5c5a 0580 e357 0580
000000a0: 8357 0580 6d57 0500 135e 0500 b058 0580
000000b0: 0760 0580 e459 0580 a75e 0500 465d 0580
000000c0: bd58 0580 9b59 0500 355b 0580 0c5d 0580
000000d0: 075d 0580 92c4 0000 da5a 0500 845b 0580
000000e0: f25d 0580 6558 0580 f85d 0500 9f5b 0580
000000f0: 3e5c 0580 235a 0500 2a58 0580 835f 0580
00000100: 7f5b 0500 be57 0580 365e 0580 5c58 0500
00000110: 4a5a 0500 935e 0500 5d5c 0580 9f58 0500
00000120: 7fde 0300 8359 0500 bf5e 0580 7a5e 0500
00000130: 3758 0580 3b5b 0580 b95e 0500 aa58 0580
00000140: 9c58 0500 2300 0000 375d 0580 3157 0580
00000150: f05e 0580 7575 0580 7e5c 0500 155e 0500
00000160: 5159 0580 885f 0580 975a 0580 855b 0580
00000170: d45b 0580 f058 0580 3d59 0580 df78 0500
00000180: b25a 0580 d359 0580 b85c 0500 5a5b 0500
00000190: 1a64 0580 e55e 0580 9958 0580 f75a 0580
000001a0: fd5d 0500 245b 0580 6b67 0580 6f5a 0500
000001b0: 6357 0500 655a 0580 925d 0580 8a5e 0580
000001c0: 0159 0580 875b 0580 9457 0580 415e 0580
000001d0: 375a 0500 9b57 0500 ba5d 0500 fd5e 0580
000001e0: 865e 0580 1e5f 0580 0609 0000 ad5e 0580
000001f0: c657 0580 6a57 0580 ca5b 0580 c95c 0580
00000200: b45f 0500 5c59 0580 f25c 0580 a65e 0580
00000210: 995a 0580 1959 0500 7962 0500 2160 0580
00000220: 9760 0500 3c5e 0500 3c59 0580 bb61 0580
00000230: 275e 0500 eb5c 0580 ee5f 0500 f858 0580
00000240: e441 0080 bc5f 0500 db5a 0580 d157 0580
00000250: 9b5c 0580 935f 0580 e35c 0580 4962 0500
00000260: 8657 0580 675c 0580 ec60 0580 225d 0580
00000270: 5560 0580 3159 0580 8f59 0500 4459 0500
00000280: 4f5f 0580 595d 0580 ef5a 0580 8ba7 0680
00000290: ad59 0580 0a62 0500 615f 0580 7358 0500
000002a0: 925a 0580 935e 0580 ff57 0500 e761 0500
000002b0: f058 0580 0e5d 0580 065b 0580 965e 0500
000002c0: 605e 0500 9459 0580 9058 0500 955d 0580
000002d0: 7e5c 0580 1c5c 0580 7c5e 0580 9173 0500
000002e0: 675c 0580 a25c 0580 485a 0580 795a 0580
000002f0: 255b 0580 7f58 0580 4b5b 0580 645f 0580
00000300: 8163 0500 a45c 0500 7e5b 0580 d357 0580
00000310: 3d62 0580 765e 0580 1f58 0580 085b 0580
00000320: 245d 0580 a25e 0500 d25d 0580 e058 0580
00000330: 0e58 0500 bd5e 0580 3658 0580 9f5b 0580
00000340: 5158 0580 125a 0580 ac58 0580 d15e 0580
00000350: dd5d 0580 5c58 0580 b35e 0580 5b43 0080
00000360: 1658 0500 045d 0500 2062 0500 8d64 0500
00000370: b65d 0580 5d68 0500 1f5d 0500 5c58 0580
00000380: fb5e 0500 dc5c 0580 865e 0580 cd5b 0580
00000390: e458 0580 f55c 0580 2558 0580 5c5f 0580
000003a0: d658 0580 4a58 0580 635d 0580 8a58 0580
000003b0: 7661 0580 eb5e 0580 fb5a 0500 cd5f 0500
000003c0: df5f 0500 3161 0500 d259 0580 4d5d 0580
000003d0: d85d 0500 0763 0500 335e 0500 e45d 0580
000003e0: cb5d 0580 b759 0580 435e 0580 215c 0580
000003f0: 085b 0580 cb5a 0580 0d58 0500 625c 0580

mlp_extractor.policy_net.0.bias f4 [192]
-4.9205e-40 0.02133487 0.0049455455 -4.0970483e-32 0.0123588145 -3.8334245e-22 0.0024904525 0.017749492
0.007529514 0.019338075 -4.56715e-29 -0.00041962968 0.0032891573 0.004324636 0.017475005 -6.1328465e-29
0.020452952 0.018740404 0.0045125266 0.02027592 0.0060202633 4.92423e-40 -7.044252e-15 -5.6040043e-22
-9.7831235e-14 -0.0027228822 0.009521954 0.014736436 0.013915573 -0.00038590955 0.0016780269 0.018203668
0.02131197 0.0 0.0011528379 -2.0501604e-31 0.0021996403 0.012162301 0.003634213 0.0025535265
0.018048976 0.009266149 -0.0012070895 0.030341635 -2.63829e-05 0.003776342 -7.187959e-17 0.015426228
-4.308185e-34 0.013736432 -0.012630044 -1.730647e-34 0.017737715 -5.088498e-11 0.011241585 4.91706e-40
-0.0038638387 -0.0021877612 -0.0008416153 0.0055323243 -3.380857e-13 0.0061197863 -2.9425522e-25 0.00310586
0.01348098 0.016335472 0.010365697 0.0034604806 0.01462418 0.017693587 0.009033945 0.01571109
0.01070507 -0.013598417 0.00621316 4.93123e-40 0.01141575 0.01987685 0.0063807624 -6.1239316e-38
-4.90561e-40 0.006460079 4.91074e-40 0.007410151 -2.8723735e-11 -9.7838744e-17 -0.006112879 -4.91211e-40
-0.008881899 -0.0061469534 0.006557438 0.0073605287 -5.5596296e-22 0.004390509 -5.91122e-40 0.0057600634
-6.4588203e-35 2.71433e-40 0.0031785963 0.010210268 0.0025306623 0.010867267 0.014815826 -2.179253e-15
0.004493501 -4.5147198e-12 0.003610146 0.00783445 -1.0347678e-35 0.020905113 0.020541362 0.00252946
-3.475003e-09 -1.3120388e-07 -1.4766715e-22 0.014326748 -0.004127705 -4.93309e-40 0.004972001 0.0031640448
0.0005591129 0.0027762463 -0.0035940316 -0.00395544 0.0031606746 0.005607594 0.00894234 -0.003728072
0.00688074 0.014446884 0.0054766117 -7.591607e-18 0.012232802 -5.092819e-27 -2.3099425e-21 -2.917297e-34
-2.3003476e-17 0.0069621387 0.022163825 0.01635592 -6.8564745e-24 -0.008441453 0.0006578943 0.0037717612
-6.712109e-30 0.0030710804 0.004739662 2.203147e-05 0.022865929 0.011319313 0.020724788 0.0143402275
0.0030942957 0.006160528 -0.011333327 0.00919778 -2.1369174e-11 -0.0022180397 -1.8995987e-32 4.9189e-40
0.0073980927 -0.004148086 -5.7467e-40 -4.2846224e-30 4.91364e-40 -2.3336454e-35 0.0063797585 0.00016356882
-1.5242349e-15 0.0081384415 0.03437706 0.007994554 -0.0063652806 -0.0038702672 0.008435583 0.004449351
0.0057737753 0.0063214824 0.008012026 -1.8110656e-22 0.011566445 0.01224729 -1.6791805e-28 0.022136552
-0.003599282 0.0048011467 0.015189602 0.019744402 0.002522053 0.017660454 0.0020162147 0.007904851
00000000: a35b 0580 77c6 ae3c 3e0e a23b 1dbb 548b
00000010: a07c 4a3c 5fb7 e79b dc36 233b 6267 913c
00000020: 24ba f63b e26a 9e3c ff94 6790 be01 dcb9
00000030: e78e 573b adb5 8d3b be27 8f3c 737c 9b90
00000040: f38c a73c 7a85 993c d1dd 933b b019 a63c
00000050: a145 c53b ad5c 0500 c2cb fda7 e25e 299c
00000060: de4b dca9 6272 32bb f801 1c3c 1871 713c
00000070: 25fe 633c e753 cab9 3df1 db3a dc1f 953c
00000080: 7196 ae3c 0000 0000 d21a 973a 2210 858c
00000090: d727 103b 6344 473c fa2b 6e3b 1159 273b
000000a0: 72db 933c 0cd1 173c 3437 9eba 058f f83c
000000b0: d950 ddb7 817c 773b 39be a5a4 4abe 7c3c
000000c0: fc29 0f88 c60e 613c 3eee 4ebc de0a 6687
000000d0: af4e 913c 65cb 5fae a02e 383c ad5a 0500
000000e0: 7538 7dbb 8b60 0fbb d99f 5cba 8048 b53b
000000f0: 4953 beaa 7d88 c83b 9a22 b696 af8b 4b3b
00000100: 54df 5c3c f8d1 853c e2d4 293c 3bc9 623b
00000110: 429a 6f3c 24f2 903c 1d03 143c 8bb4 803c
00000120: 5164 2f3c e5cb 5ebc c497 cb3b a05e 0500
00000130: 2009 3b3c c7d4 a23c b715 d13b 93b5 a681
00000140: 7c57 0580 12af d33b ea58 0500 dad0 f23b
00000150: 1aa8 fcad cd99 e1a4 8c4e c8bb 4c59 0580
00000160: 6285 11bc 626c c9bb c7df d63b 9730 f13b
00000170: 8d07 289c 42de 8f3b cf6f 0680 eabe bc3b
00000180: 74b4 ab86 a5f4 0200 ff4f 503b f848 273c
00000190: 78d9 253b 9f0c 323c 14be 723c 1f08 1da7
000001a0: 383e 933b fbd8 9eac 3398 6c3b 115c 003c
000001b0: 1e12 5c85 3341 ab3c 5c46 a83c 4cc5 253b
000001c0: e6cc 6eb1 0ce1 0cb4 c584 329b bdba 6a3c
000001d0: b341 87bb 255f 0580 2bec a23b dd5b 4f3b
000001e0: 6e91 123a aff1 353b d889 6bbb a39c 81bb
000001f0: 5223 4f3b e8bf b73b e482 123c ab52 74bb
00000200: d577 e13b a0b2 6c3c 2675 b33b 5a0a 0ca3
00000210: 176c 483c 52bf c993 c988 2e9d 3de3 c187
00000220: 6c2b d4a3 a722 e43b e990 b53c dafc 853c
00000230: 9e9f 0499 054e 0abc 8a76 2c3a a72f 773b
00000240: 4323 088f 2e44 493b 2b4f 9b3b 39d0 b837
00000250: 5451 bb3c a474 393c 08c7 a93c 46f3 6a3c
00000260: abc9 4a3b 41de c93b 6baf 39bc 49b2 163c
00000270: 1af7 bbad 885c 11bb ff43 c58a 305b 0500
00000280: b36b f23b abec 87bb f241 0680 10ce ad8e
00000290: b959 0500 df27 f885 4b0d d13b ac83 2b39
000002a0: 58aa dba6 1957 053c f6ce 0c3d 97fb 023c
000002b0: d893 d0bb 4fa4 7dbb 6635 0a3c ddcb 913b
000002c0: f031 bd3b 7024 cf3b df44 033c c4f1 5a9b
000002d0: 3081 3d3c dca8 483c 86dc 5491 b757 b53c
000002e0: eee1 6bbb f052 9d3b cfdd 783c 03bf a13c
000002f0: 0749 253b a8ac 903c 7822 043b 5983 013c
