waypoint_state_49.onnx (onnx, 181192 bytes, 12 tensors)

log_std f4 [4]
-0.29112795 -0.22366925 -0.24483822 -0.1677917
00000000: b90e 95be 8d09 65be dfb6 7abe 96d1 2bbe

mlp_extractor.policy_net.0.weight f4 [192, 16]
-0.07133325 -0.09619678 -0.09520752 -0.06706385 -0.07994595 -0.18159677 0.20994043 0.19330533
0.25552458 -0.1658472 0.097802654 -0.35318515 -0.04459816 -0.09910314 -0.08678807 -0.012022136
0.07490522 0.23677835 0.098918974 0.19559047 -0.014285687 0.14764106 0.03991739 -0.32951033
-0.2170687 0.026761128 -0.0809453 0.34138462 0.060111947 -0.10198389 -0.0041852808 -0.0356375
-0.10115884 -0.3555812 -0.11836527 0.06418384 -0.18981974 -0.028556908 0.03306408 0.17482153
0.03434075 -0.08082435 0.1231649 -0.35676602 0.21071503 -0.029990045 -0.07471328 -0.044383112
0.24904737 -0.03126348 0.16308218 0.033291824 -0.0847859 0.07051261 -0.023346366 -0.3471294
-0.18159781 0.09058754 -0.24890622 0.29255593 0.3104133 0.023460662 -0.009264159 -0.032936115
-7.253851e-08 7.788673e-07 2.1303061e-10 1.4760087e-05 -4.139095e-07 0.00066098425 -0.0006800163 3.5733634e-19
1.1349733e-20 -2.0989618e-16 -4.5540557e-18 2.1322792e-08 1.2053848e-18 -5.4450357e-11 -1.9425284e-15 -3.9731232e-10
0.11509014 -0.14373212 0.10024818 0.0190294 -0.20925826 0.13904303 0.023525076 -0.35605547
-0.14206667 0.13241564 -0.12579589 0.20292403 0.26952723 -0.16930185 0.042004894 -0.021878622
0.080067545 0.114458285 0.04607703 0.039753478 -0.09452548 -0.14149833 0.0539967 -0.20291568
-0.30924332 0.13735713 -0.024825407 0.10557442 0.28302452 -0.011181758 -0.032523878 0.11379122
-0.02616548 0.19047348 -0.026751325 0.19623804 0.022906886 -0.10694102 0.014634207 -0.16573003
0.027342027 -0.012818465 -0.010168885 0.0572833 -0.3795193 -0.05404288 0.03623377 0.0020926183
-0.07301775 0.054488916 0.17619307 -0.046050757 -0.03930406 0.183345 0.0044229557 -0.42600292
0.15988727 0.0045565777 0.24118043 0.3773333 0.27646625 0.041729588 -0.008548858 -0.0018748686
0.24352294 -0.14539093 0.09776609 0.20315082 -0.24695066 0.15656346 -0.069745295 -0.26372513
-0.14451355 0.19936107 0.062066615 0.14016539 0.111783095 -0.03552089 0.019047115 -0.04417519
0.049387965 -0.097719975 0.1957223 -0.15487157 -0.13248564 0.16359888 0.043033723 -0.2521226
0.033892255 0.053461168 0.1425552 0.4310078 0.20576183 0.060615692 -0.00690709 -0.019274952
0.20457456 0.38477927 -0.12116957 0.17136154 0.1767272 -0.05195103 0.09162616 -0.13047092
0.32776713 0.030143417 -0.038291454 0.16213447 -0.3333567 -0.09859908 -0.050177537 0.08894949
-0.0067490092 -0.070808105 -0.00053576054 -0.0013261742 -0.07475033 -9.995306e-05 -0.067396455 2.2606602e-05
6.226744e-05 -0.0008164232 0.00033186236 -0.01027111 8.899008e-05 0.009930715 0.0011883626 0.000769006
-0.13815175 -0.11016899 -0.082551494 -0.06395642 0.026638659 0.056105196 0.0590356 0.27028087
0.11550386 -0.019658212 -0.047583297 -0.41083103 0.16473204 0.051669706 0.059471536 0.06906496
-0.07136982 -0.31015065 0.09447721 -0.014291362 -0.30743 -0.07734547 0.023406073 0.21630529
-0.17224017 0.06846198 0.022317167 -0.28991106 0.060260795 -0.0470861 -0.0077837114 0.013619289
-0.0022901727 0.03241462 0.10836388 -0.059953157 0.23917362 0.03733734 0.066005275 -0.028464476
-0.14151347 -0.039981786 -0.18265603 -0.048172858 0.30645752 0.019679444 0.003342882 0.038752757
00000000: 2b17 92bd d102 c5bd 29fc c2bd c658 89bd
00000010: b4ba a3bd 81f4 39be a0fa 563e d5f1 453e
00000020: 1ed4 823e d9d3 29be c24c c83d afd4 b4be
00000030: 8fac 36bd 96f6 cabd f2bd b1bd 7ef8 44bc
00000040: e867 993d 0676 723e 0896 ca3d de48 483e
00000050: 840e 6abc 382f 173e 6b80 233d 94b5 a8be
00000060: 4247 5ebe 273a db3c a6c6 a5bd f7c9 ae3e
00000070: f237 763d eedc d0bd ae24 89bb a1f8 11bd
00000080: 5e2c cfbd bd0e b6be 7e69 f2bd d172 833d
00000090: 1b60 42be 2df0 e9bc 336e 073d 6a04 333e
000000a0: e3a8 0c3d 3d87 a5bd e13d fc3d 09aa b6be
000000b0: aec5 573e afad f5bc 4703 99bd 11cb 35bd
000000c0: 4606 7f3e 230e 00bd 04ff 263e 025d 083d
000000d0: 3ba4 adbd ea68 903d e140 bfbc f2ba b1be
000000e0: c7f4 39be f685 b93d 46e1 7ebe e4c9 953e
000000f0: 7eee 9e3e 9330 c03c b3c8 17bc 05e8 06bd
00000100: 78c6 9bb3 5a13 5135 c93a 6a2f 17a2 7737
00000110: 4a37 deb4 e745 2d3a 1f43 32ba 24ef d220
00000120: f163 561e 6bfe 71a5 d703 a8a2 5129 b732
00000130: 26e2 b121 a779 6fae 53f9 0ba7 bd6c daaf
00000140: 61b4 eb3d 832e 13be eb4e cd3d 8be3 9b3c
00000150: cc47 56be 4c61 0e3e a9b7 c03c e74c b6be
00000160: ed79 11be f797 073e a3d0 00be 51cb 4f3e
00000170: 79ff 893e 775d 2dbe 530d 2c3d cc3a b3bc
00000180: 74fa a33d 1b69 ea3d 45bb 3c3d 8bd4 223d
00000190: 9396 c1bd f0e4 10be a52b 5d3d 21c9 4fbe
000001a0: 2455 9ebe 59a7 0c3e a75e cbbc 6737 d83d
000001b0: 97e8 903e b133 37bc c237 05bd 5f0b e93d
000001c0: fd58 d6bc 7b0b 433e 9825 dbbc a0f2 483e
000001d0: 39a7 bb3c e503 dbbd 50c4 6f3c 22b5 29be
000001e0: 63fc df3c 8a04 52bc 659b 26bc e5a1 6a3d
000001f0: 5b50 c2be 115c 5dbd dd69 143d 4f24 093b
00000200: 558a 95bd c52f 5f3d f56b 343e b89f 3cbd
00000210: 4bfd 20bd cbbe 3b3e 71ee 903b 0e1d dabe
00000220: 7db9 233e 584f 953b 01f8 763e d531 c13e
00000230: fc8c 8d3e a5ec 2a3d 8210 0cbc 27be f5ba
00000240: 145e 793e 5ce1 14be 9639 c83d c506 503e
00000250: a2e0 7cbe 2c52 203e 9fd6 8ebd fb06 87be
00000260: 5cfb 13be 4f25 4c3e 9039 7e3d 8487 0f3e
00000270: 89ee e43d 5a7e 11bd b208 9c3c 0bf1 34bd
00000280: 094b 4a3d 6921 c8bd 6d6b 483e a796 1ebe
00000290: 51aa 07be 7786 273e 2144 303d 3716 81be
000002a0: 9bd2 0a3d 19fa 5a3d fef9 113e 0ead dc3e
000002b0: 3bb3 523e 2948 783d df54 e2bb 81e6 9dbc
000002c0: fe7b 513e ca01 c53e c027 f8bd 6679 2f3e
000002d0: faf7 343e 9aca 54bd 7fa6 bb3d 2b9a 05be
000002e0: 18d1 a73e 54ef f63c 80d7 1cbd 9406 263e
000002f0: bbad aabe 51ee c9bd f686 4dbd 262b b63d
00000300: cb26 ddbb d703 91bd 4872 0cba 06d3 adba
00000310: b316 99bd e49d d1b8 2707 8abd 4fa3 bd37
00000320: 9495 8238 3c05 56ba d0fd ad39 2848 28bc
00000330: 2fa0 ba38 70b4 223c d5c2 9b3a 1e97 493a
00000340: a777 0dbe 48a0 e1bd c210 a9bd 95fb 82bd
00000350: 5139 da3c 90ce 653d 50cf 713d 4162 8a3e
00000360: 4a8d ec3d 420a a1bc b4e6 42bd 7258 d2be
00000370: 84af 283e 9da3 533d 6d98 733d ee71 8d3d
00000380: 572a 92bd 11cc 9ebe 447d c13d 5126 6abc
00000390: 7767 9dbe 4d67 9ebd 18be bf3c 227f 5d3e
000003a0: ba5f 30be cb35 8c3d 7ed2 b63c 396f 94be
000003b0: 06d4 763d 5bdd 40bd 810e ffbb 7023 5f3c
000003c0: b916 16bb 31c5 043d e2ed dd3d 7191 75bd
000003d0: eee9 743e 0aef 183d c62d 873d 552e e9bc
000003e0: e8e8 10be f1c3 23bd 2f0a 3bbe e750 45bd
000003f0: 00e8 9c3e c936 a13c 4114 5b3b 36bb 1e3d

mlp_extractor.policy_net.0.bias f4 [192]
0.025538838 0.021480208 0.056067385 0.0586471 -0.000116323616 0.050711643 0.022753425 0.04616126
0.049349744 0.009197711 0.032344826 0.029633543 0.00045378672 0.040213592 -0.004615326 0.020157063
7.079321e-09 0.0013065885 0.025796926 0.030586919 -0.002003162 0.0004967597 0.03620098 0.08109756
0.035337266 0.04141032 0.026366038 -2.8332343e-08 0.032299723 0.049964055 0.051860638 0.023431923
0.028081626 0.022027986 0.040203076 0.03150498 0.014087296 0.09212846 0.04169626 0.040761717
0.008087981 0.08402017 0.093543805 0.041801784 0.01349771 0.0128066335 0.055672523 0.06605273
0.037930664 -0.0049183103 0.029749252 0.051843416 0.05239595 0.03277808 0.0322593 0.058873232
-0.0018728524 0.045462817 0.031685226 -0.0026949665 0.059464622 0.027250404 0.039613865 0.036451038
0.03436442 0.010833784 0.07317645 0.0219759 -0.012547936 0.040211234 0.049623974 0.016590307
-1.1264999e-05 -0.0018717215 0.042164806 0.052501194 0.032679573 0.060419396 0.0875243 -5.7176523e-05
0.048582654 0.012603049 8.0164675e-05 -7.8262434e-05 0.03694552 0.0119852135 -0.000377291 0.0320823
-2.67487e-06 0.05382203 0.03724571 0.061974067 0.05830703 0.02079918 0.052373093 0.010089041
0.0435898 0.07331023 0.08175609 -0.008618449 0.020401806 0.025650762 0.0014204201 0.03742776
0.043742858 0.10004655 0.055856876 0.05308463 0.02086719 0.03692121 0.035751693 0.016518788
0.038916707 4.90756e-40 0.028940693 0.05401782 0.034443844 0.104155876 0.062172316 0.004023566
0.030827252 0.0016778246 0.032726232 0.029957986 0.025455095 0.033015087 0.04100367 0.05041239
0.03678342 -0.009810528 0.09556458 0.05893427 0.069701865 0.03735946 0.06487816 0.05699175
0.06383375 -0.00015348279 0.018992374 -3.0598613e-07 0.08327337 0.01423025 9.2709015e-05 0.040249
0.0669897 0.07389761 0.06909061 0.04961084 0.0006559604 0.048502292 0.024404787 0.03811189
0.028607424 2.32116e-08 0.048824545 0.046163555 0.09537093 -0.0066852546 0.00076801475 0.022983938
0.071678564 0.014882402 0.105290845 -0.00044356872 0.040489886 0.06965235 0.023839192 0.013607241
0.010350448 0.017678304 0.043425363 0.0020338248 0.033010952 0.031066824 0.03243981 0.06871107
0.00041265594 0.02350307 0.020050488 0.0067679198 0.033414096 0.088454805 0.054635346 0.049157448
0.07855241 0.0333989 0.0481458 8.1942435e-06 0.003713136 0.05676226 0.060425144 0.06266086
00000000: d336 d13c 43f7 af3c eaa6 653d f137 703d
00000010: c4f2 f3b8 03b7 4f3d 6465 ba3c 9713 3d3d
00000020: f522 4a3d ffb1 163c 027c 043d 0bc2 f23c
00000030: 39ea ed39 02b7 243d 293c 97bb 6d20 a53c
00000040: 5e3e f331 d641 ab3a 1354 d33c 6b91 fa3c
00000050: 7b47 03bb fb38 023a 7b47 143d 7a16 a63d
00000060: cfbd 103d de9d 293d 97fd d73c 7b5f f3b2
00000070: b74c 043d 1ca7 4c3d d26b 543d 4ef4 bf3c
00000080: 700b e63c 0974 b43c fbab 243d 5e0b 013d
00000090: 67ce 663c d9ad bc3d b3c9 2a3d c2f5 263d
000000a0: 7383 043c c412 ac3d e593 bf3d 5938 2b3d
000000b0: 8025 5d3c ead2 513c df08 643d a746 873d
000000c0: 2f5d 1b3d c729 a1bb b4b4 f33c c359 543d
000000d0: 239d 563d 4f42 063d 5422 043d 0f25 713d
000000e0: 807a f5ba 3837 3a3d 5ec8 013d 099e 30bb
000000f0: 2d91 733d 3d3c df3c 2642 223d af4d 153d
00000100: b5c1 0c3d 2f80 313c 89dd 953d cd06 b43c
00000110: dc95 4dbc 89b4 243d 8242 4b3d 65e8 873c
00000120: cdfe 3cb7 8d54 f5ba 01b5 2c3d 7e0b 573d
00000130: 04db 053d 547a 773d f13f b33d d3d0 6fb8
00000140: 9bfe 463d 057d 4e3c 151e a838 d320 a4b8
00000150: 3054 173d a15d 443c 24cf c5b9 bb68 033d
00000160: eb81 33b6 7d74 5c3d f58e 183d 85d8 7d3d
00000170: 5ad3 6e3d 0b63 aa3c 2b85 563d 814c 253c
00000180: 388b 323d ad23 963d bd6f a73d 6534 0dbc
00000190: b021 a73c 8c21 d23c 642d ba3a da4d 193d
000001a0: b62b 333d 35e5 cc3d 2eca 643d 456f 593d
000001b0: abf1 aa3c b23a 173d 5e70 123d 6952 873c
000001c0: 2067 1f3d 0758 0500 0815 ed3c ca41 5d3d
000001d0: fd14 0d3d ad4f d53d 66a8 7e3d 1ed8 833b
000001e0: 6f89 fc3c 74ea db3a f10b 063d 736a f53c
000001f0: 3487 d03c d43a 073d 77f3 273d 397d 4e3d
00000200: 36aa 163d 56bc 20bc 5db7 c33d 1065 713d
00000210: dabf 8e3d 3c06 193d d7de 843d 2e70 693d
00000220: 45bb 823d 39f0 20b9 e595 9b3c 6a46 a4b4
00000230: 3b8b aa3d ff25 693c c66c c238 23dc 243d
00000240: e531 893d a157 973d 617f 8d3d bc34 4b3d
00000250: c2f4 2b3a 57aa 463d 8cec c73c 371b 1c3d
00000260: 1e5a ea3c d962 c732 3ffc 473d ff15 3d3d
00000270: d651 c33d fb0f dbbb 9954 493a d048 bc3c
00000280: 36cc 923d 51d5 733c baa2 d73d c98e e8b9
00000290: b9d8 253d e4a5 8e3d 694a c33c e8f0 5e3c
000002a0: ed94 293c 17d2 903c cbde 313d eb49 053b
000002b0: 7e36 073d da7f fe3c 9bdf 043d 64b8 8c3d
000002c0: be59 d839 8389 c03c ec40 a43c 6dc5 dd3b
000002d0: 38dd 083d cb27 b53d 50c9 5f3d 5259 493d
000002e0: 16e0 a03d 49cd 083d 8834 453d 027a 0937
000002f0: 1658 733b 8b7f 683d 5b80 773d 5654 803d

mlp_extractor.policy_net.2.weight f4 [96, 192]
0.10235327 -0.13290659 0.07265588 -0.16578785 7.96824e-37 -0.14716123 -0.05808295 0.047536414
0.0803591 -0.20281218 0.03304771 0.17810743 -6.378823e-06 0.05634179 -0.06656555 -0.06206018
-2.9377366e-08 -0.05166946 0.0778541 -0.025114214 0.008668076 3.1050803e-15 0.10478862 -0.211413
0.18672779 -0.20356965 -0.15695706 4.91434e-40 0.07386782 -0.055106003 -0.004240926 0.14950931
0.04604301 0.15017936 -0.19494675 0.013065588 -0.081278466 0.016667964 0.042680357 0.06887572
-0.23555382 -0.16762777 -0.025923867 0.06623639 0.071239136 0.17999174 -0.013838223 0.17685397
-0.06692234 0.18313676 -0.0064456626 -0.18955053 0.066126086 0.05911555 -0.044409566 0.12264718
-3.8884048e-20 0.05153849 -0.07433552 0.10967521 9.4534815e-05 0.008903036 0.009094835 -0.14290392
-0.072138466 0.117314234 -0.08679395 -0.0870055 0.033278663 0.16151102 0.06809548 0.11182895
-4.90993e-40 -6.576744e-15 0.0452409 0.15239762 0.120865144 -0.25853312 0.08227204 -5.2613868e-14
-0.1029334 -0.023620144 1.6075994e-22 -0.21792495 -0.10837023 -0.049554925 -2.6878597e-24 -0.08706332
-4.90495e-40 0.12994468 0.092666335 0.090479635 0.11435586 0.13816366 0.049709335 0.0056033214
0.24455306 -0.07999425 -0.11080459 0.05985862 0.031453617 0.11860718 -0.030390186 0.073783174
-0.073850706 0.036192458 -0.2222838 -0.08702349 -0.08750813 0.13999805 -0.08319185 -0.022079967
0.014933305 -6.9149714e-06 -0.01878163 0.097395316 -0.0003772424 -0.15589419 -0.15524642 -0.008781043
0.15558663 3.5543395e-19 -0.0591979 0.23699543 -0.022260183 -0.031265594 0.13971213 0.053935006
-0.030721884 0.00015390794 -0.057517998 -0.13073173 0.09120299 -0.031916313 0.04268612 -0.027514914
0.1176827 1.8595094e-23 -0.11019949 1.3870308e-22 0.11269596 0.02270913 -6.784335e-39 0.08290195
-0.110100605 0.029632032 0.10576101 0.063061304 -0.052878026 0.14790499 -0.019126428 0.048130244
-0.11436847 -3.2378397e-33 -0.051095396 -0.19541426 -0.18774556 0.07330797 -0.24653214 -0.0009377622
-0.12177889 0.22550948 -0.053688694 -2.4843085e-14 0.04443826 -0.013178132 0.088096604 0.23832126
0.009894224 -0.053651743 0.12117308 -0.0046022446 0.07785326 0.06362332 0.06380798 0.022693528
1.7501881e-24 0.111452624 0.117115766 0.08552485 0.09170029 0.06629787 0.0134214135 0.12162492
-0.16999811 0.058967784 -0.011950918 4.92897e-40 -3.8661812e-05 -0.049774583 -0.19654557 -0.02117384
-0.01724887 -0.034241233 -0.118815064 0.17155203 -1.5949299e-23 0.091817185 0.2086731 -0.11988596
0.20457001 0.13258618 0.21288612 0.019745773 -5.3329018e-06 -0.055052046 0.010340916 0.09936956
-2.3667034e-29 0.008374643 0.018662328 0.0020946495 0.12520428 1.370449e-14 -0.030813972 0.1133615
-0.20198515 0.1698204 0.23330508 -1.4719816e-17 -0.3212733 -0.040885422 -0.008745038 0.018484542
-0.026271518 -0.008167796 0.006294429 0.12213547 -0.036849014 -0.119328626 0.3339846 0.047891453
0.17575046 -0.16316372 0.083758704 0.24924898 0.10797966 0.024080308 0.09319617 -0.0039833575
0.08744998 -0.15354788 0.05835385 0.065404244 0.060771618 -0.028296744 -0.07339476 0.105948955
1.2653171e-15 0.06855603 0.009212583 -0.12253293 0.057342157 -0.12698038 0.032512724 0.04953208
00000000: 979e d13d aa18 08be 9bcc 943d 4ac4 29be
00000010: 9492 8703 6fb1 16be 63e8 6dbd 8bb5 423d
00000020: 5093 a43d ffad 4fbe 095d 073d cb61 363e
00000030: ac09 d6b6 a6c6 663d 8553 88bd d132 7ebd
00000040: 8359 fcb2 5ba3 53bd f871 9f3d 53bc cdbc
00000050: 8c04 0e3c 9fbe 5f27 6a9b d63d a67c 58be
00000060: 9235 3f3e 9074 50be 5ab9 20be eb59 0500
00000070: 0348 973d d5b6 61bd 77f7 8abb f818 193e
00000080: 9897 3c3d 9ec8 193e 1fa0 47be 0c11 563c
00000090: 5375 a6bd 418b 883c 99d1 2e3d b70e 8d3d
000000a0: 0535 71be 9da6 2bbe 4a5e d4bc f2a6 873d
000000b0: d3e5 913d c14f 383e b7b9 62bc 3519 353e
000000c0: 940e 89bd 3488 3b3e 2336 d3bb 8919 42be
000000d0: 1d6d 873d 2623 723d cee6 35bd 722e fb3d
000000e0: ee9f 379f 061a 533d 393d 98bd 669d e03d
000000f0: fe40 c638 0ade 113c 8102 153c 6855 12be
00000100: 55bd 93bd 7242 f03d 07c1 b1bd f12f b2bd
00000110: 354f 083d 2563 253e a575 8b3d 9406 e53d
00000120: b058 0580 c2f3 eca7 864e 393d 1f0e 1c3e
00000130: 2588 f73d 745e 84be 3e7e a83d a9f3 6ca9
00000140: bfce d2bd 087f c1bc cb58 421b b827 5fbe
00000150: 36f1 ddbd 1bfa 4abd 8cf6 4f98 414e b2bd
00000160: 4d57 0580 3810 053e d9c7 bd3d 634d b93d
00000170: 6833 ea3d c67a 0d3e 049c 4b3d 119c b73b
00000180: 1e6c 7a3e 06d4 a3bd 84ed e2bd 502e 753d
00000190: 82d5 003d 52e8 f23d d7f4 f8bc a21b 973d
000001a0: 0a3f 97bd 8b3e 143d 5d9e 63be 5f39 b2bd
000001b0: 7637 b3bd a65b 0f3e 7d60 aabd 0ce1 b4bc
000001c0: d2aa 743c 2707 e8b6 efdb 99bc 3277 c73d
000001d0: 9ec8 c5b9 baa2 1fbe ebf8 1ebe 5dde 0fbc
000001e0: 1a52 1f3e a9cf d120 7f79 72bd eeae 723e
000001f0: fd5a b6bc 5a10 00bd b210 0f3e f4ea 5c3d
00000200: 76ac fbbc 5962 2139 fe97 6bbd 8ade 05be
00000210: a2c8 ba3d aeba 02bd a4d7 2e3d f566 e1bc
00000220: a103 f13d 39d7 b319 45b0 e1bd 86ae 271b
00000230: 24cd e63d 7f08 ba3c f7df 4980 7fc8 a93d
00000240: 6d7c e1bd e0be f23c 3a99 d83d 4926 813d
00000250: a196 58bd 6874 173e 07af 9cbc 3824 453d
00000260: 043a eabd 9e7e 8689 6849 51bd ad1a 48be
00000270: 5f40 40be 7d22 963d ec72 7cbe 28d4 75ba
00000280: 3667 f9bd f5eb 663e ade8 5bbd 41c4 dfa8
00000290: e504 363d 17e9 57bc fe6b b43d 7d0a 743e
000002a0: 621b 223c eec1 5bbd 9729 f83d 6dce 96bb
000002b0: 8871 9f3d f14c 823d c2ad 823d c7e7 b93c
000002c0: 0c6a 0718 4641 e43d 64da ef3d a727 af3d
000002d0: 5dcd bb3d 2dc7 873d 7de5 5b3c 7c16 f93d
000002e0: fc13 2ebe 3488 713d c8cd 43bc ff5d 0500
000002f0: ce28 22b8 6fe0 4bbd 3e43 49be c374 adbc
00000300: 814d 8dbc 8940 0cbd 5055 f3bd 56ab 2f3e
00000310: 8d40 9a99 a60a bc3d 67ae 553e c586 f5bd
00000320: cd7a 513e acc4 073e d2fe 593e e3c1 a13c
00000330: 47f1 b2b6 417e 61bd f26c 293c 4582 cb3d
00000340: 2203 f08f cc35 093c bde1 983c 6346 093b
00000350: 8d35 003e cee0 7628 956d fcbc 132a e83d
00000360: 32d5 4ebe 66e5 2d3e 87e7 6e3e 2fc4 87a3
00000370: ef7d a4be 7977 27bd 5947 0fbc e56c 973c
00000380: 5e37 d7bc 38d2 05bc 7f41 ce3b 2922 fa3d
00000390: feee 16bd 9162 f4bd 0800 ab3e d429 443d
000003a0: eef7 333e 6414 27be af89 ab3d 203b 7f3e
000003b0: 7124 dd3d 1144 c53c a2dd be3d d386 82bb
000003c0: fa18 b33d a83b 1dbe 7204 6f3d a9f2 853d
000003d0: a9eb 783d 93ce e7bc fe4f 96bd c4fb d83d
000003e0: f659 b626 1b67 8c3d 60f0 163c 8bf2 fabd
000003f0: 9cdf 6a3d 2507 02be 102c 053d 26e2 4a3d

mlp_extractor.policy_net.2.bias f4 [96]
0.00039050487 0.018509362 0.023947828 0.023464307 0.033911943 0.021765871 0.01778914 0.032598224
0.037802987 0.010435913 0.031754814 0.023853937 0.013828475 0.02251066 0.028691942 0.03826749
0.03276588 0.010756634 0.02145583 -0.012102097 0.022181217 0.012618145 0.029881546 -0.0035566583
0.021892354 0.041207463 0.07172928 0.025009941 0.017319586 0.007514605 0.049689528 0.03189694
0.024664665 0.043060515 0.035804305 0.02263267 0.012829135 0.031614296 0.0288553 0.02251344
0.007420935 0.02334245 0.027345287 0.015089846 0.024803825 0.022384737 0.023065142 0.03309939
0.021608561 0.025980072 0.04150346 -0.012959087 0.013735301 0.024655577 0.026994258 0.040020924
0.013759036 0.021302389 0.03454399 0.02308717 0.0028868227 0.03578785 0.022101533 0.016036538
-0.015208606 0.021521509 0.030214282 0.016133297 0.0142504815 0.030202026 0.041938055 0.033717856
0.026351634 0.00451662 0.028390285 0.02606797 0.009191734 0.034067243 0.03569645 0.03191076
0.064747885 0.041895624 0.051715728 0.022650281 0.04976978 0.02319306 -0.0011330683 0.031846624
0.022744028 0.042563565 0.021814598 0.03611344 0.03530174 0.0018656786 0.023343032 0.044253547
00000000: adbc cc39 f2a0 973c 3c2e c43c 3838 c03c
00000010: 40e7 0a3d 574e b23c 88ba 913c b785 053d
00000020: 4ed7 1a3d 64fb 2a3c 5611 023d 5569 c33c
00000030: d490 623c 4768 b83c 5d0b eb3c 5fbe 1c3d
00000040: 8435 063d 983c 303c 23c4 af3c e047 46bc
00000050: 62b5 b53c 56bc 4e3c 25ca f43c d316 69bb
00000060: 9857 b33c 28c9 283d cde6 923d a6e1 cc3c
00000070: cee1 8d3c 133d f63b 3f87 4b3d 5ea6 023d
00000080: 8d0d ca3c 3960 303d 89a7 123d 2668 b93c
00000090: 4b31 523c fe7d 013d f361 ec3c 1b6e b83c
000000a0: 512b f33b aa38 bf3c 3903 e03c 673b 773c
000000b0: 6431 cb3c 3260 b73c 1cf3 bc3c 3a93 073d
000000c0: 7004 b13c 29d4 d43c 88ff 293d 5a52 54bc
000000d0: 070a 613c 7efa c93c 1023 dd3c fbec 233d
000000e0: 946d 613c 5982 ae3c 007e 0d3d 4e21 bd3c
000000f0: d930 3d3b 4896 123d 460e b53c 0f5f 833c
00000100: 842d 79bc e04d b03c f183 f73c fa29 843c
00000110: da7a 693c 3d6a f73c 3dc7 2b3d bc1b 0a3d
00000120: 62df d73c 2800 943b be92 e83c 7f8c d53c
00000130: ed98 163c 188a 0b3d 7136 123d dbb4 023d
00000140: 8a9a 843d bf9a 2b3d dfd3 533d 158d b93c
00000150: 66db 4b3d 5fff bd3c 7783 94ba 9b71 023d
00000160: af51 ba3c 2257 2e3d 87b4 b23c b0eb 133d
00000170: 8f98 103d c989 f43a e339 bf3c 3543 353d

mlp_extractor.value_net.0.weight f4 [192, 16]
-0.22998492 -0.2348052 -0.26136988 -0.00918954 -0.32473248 -0.44040957 -0.021607798 -0.10939003
0.10773513 -0.019758988 0.078207254 -0.08603312 0.22320198 -0.02342079 -0.0032719052 -0.012412826
0.18905464 0.14922096 -0.057557683 0.18576409 -0.074083604 0.16342913 0.18369365 -0.014744613
0.004681729 -0.08866626 0.032006532 0.27319318 0.12110749 -0.08792467 -0.05978409 -0.06312313
0.19996339 -0.11033641 -0.050957095 0.250145 -0.08050069 -0.061468206 0.060836513 0.039015718
0.020468177 0.11748802 -0.092214264 -0.06269143 0.0038337053 0.06920466 0.033276882 0.083753906
0.09391491 -0.07941915 0.2661573 0.121977076 0.17777997 0.21212159 0.049250577 -0.11343311
0.018419413 0.06857353 0.20972946 0.26820096 0.15884635 -0.12032949 -0.15480137 -0.20063126
0.08957132 0.24911472 0.22976045 0.101847775 -0.057799242 0.17354336 0.22451745 -0.0811169
0.045822896 -0.054239336 0.12740318 0.23659451 0.053497408 0.13947406 0.1520569 0.015263202
0.033843786 -0.13569088 0.29342303 0.052798837 0.046678115 0.03665019 0.09186547 -0.06907566
-0.25507906 -0.064300895 -0.28499544 -0.023156108 -0.09226982 0.017968222 -0.02558639 0.059920825
-0.299891 -0.09995949 0.25619963 -0.09400995 0.10754757 0.06619046 -0.015163709 -0.018059958
-0.2242794 0.14992097 0.09421692 0.3623966 -0.20320565 0.005597899 -0.015215029 0.023269072
0.3712528 0.27746165 -0.09204144 0.2561951 -0.022757946 0.18237737 -0.0058838613 -0.02048601
0.0027349049 0.0052814274 -0.077512845 -0.08848701 -0.0684841 0.0066625476 -0.0008301825 -0.004537531
-0.026402602 0.13680725 -0.055765346 -0.11668007 -0.0052258414 0.08842467 0.13317014 -0.096609674
-0.14553393 -0.031363383 0.067613825 -0.027955633 -0.0043964186 -0.06982095 0.08715115 -0.061348394
0.22548333 -0.26236218 -0.16365157 0.11507638 -0.19610175 -0.061766915 -0.11825754 0.19362092
0.058722213 0.010185881 -0.009648629 -0.46358275 0.084081896 -0.0064045344 -0.011929369 0.015373652
0.03854822 0.16051327 -0.050039552 0.09873133 0.22522575 0.16231759 -0.07983584 -0.087146126
-0.09656115 0.029286338 -0.21731211 0.43028834 -0.08774672 0.029059144 -0.017485231 -0.022508202
-0.05522745 0.05804721 0.108454235 -0.06143086 0.15850772 0.18374822 0.012984977 -0.20475364
-0.088554375 0.14680593 0.005298364 -0.18121059 -0.05135774 0.009424297 -0.12086579 -0.21974094
-0.0032302267 0.18784913 -0.10086667 -0.047915317 0.09127991 -0.10450858 0.06946415 -0.061224043
-0.12693249 0.16330227 -0.24202986 0.21182306 -0.11255711 0.0012528284 -0.021255365 0.02144682
1.4895195e-16 8.1112105e-38 -6.275151e-32 -1.7935503e-37 -1.991604e-35 4.9177e-40 -3.3118403e-07 4.90813e-40
-4.92395e-40 -4.92066e-40 6.3707013e-22 -4.91597e-40 -4.91042e-40 -1.62345e-36 -4.93813e-40 4.91288e-40
0.042904973 0.050472137 0.18530893 0.16646914 0.33843523 0.14640716 0.120950624 -0.050605677
-0.111174434 0.18484108 0.0029119703 -0.094018176 -0.13746536 -0.027851747 -0.12215969 -0.033079553
0.25823987 -0.036816765 -0.04891125 0.29921958 0.07020755 -0.20981881 0.1680633 0.17174435
-0.0007815488 0.09226387 0.20645793 0.15260793 0.20502107 0.0234475 0.031072117 0.06267838
00000000: 2b81 6bbe c670 70be 46d2 85be b98f 16bc
00000010: 5643 a6be 5d7d e1be d602 b1bc e107 e0bd
00000020: 3ca4 dc3d 9add a1bc 202b a03d 2232 b0bd
00000030: 0f8f 643e f5dc bfbc 766d 56bb 2a5f 4bbc
00000040: 8a97 413e 61cd 183e 9bc1 6bbd f138 3e3e
00000050: 25b9 97bd f759 273e 301a 3c3e 6493 71bc
00000060: 3069 993b a896 b5bd 4819 033d fadf 8b3e
00000070: 3407 f83d d911 b4bd 29e0 74bd b346 81bd
00000080: 34c3 4c3e 0ef8 e1bd 63b8 50bd 0113 803e
00000090: 8cdd a4bd 16c6 7bbd b52f 793d f2ce 1f3d
000000a0: e1ac a73c 8f9d f03d d5da bcbd 5d64 80bd
000000b0: e73e 7b3b 2cbb 8d3d 574d 083d 2b87 ab3d
000000c0: 7656 c03d 82a6 a2bd c545 883e 1ecf f93d
000000d0: f40b 363e 6736 593e f9ba 493d 9e4f e8bd
000000e0: 4fe4 963c 4770 8c3d 52c3 563e a351 893e
000000f0: 9ea8 223e 4f6f f6bd 4084 1ebe 4872 4dbe
00000100: 2b71 b73d ee17 7f3e 5346 6b3e 9195 d03d
00000110: e6be 6cbd 5ab5 313e e7e7 653e 9e20 a6bd
00000120: cab0 3b3d 112a 5ebd fb75 023e d545 723e
00000130: 1920 5b3d 4ad2 0e3e ceb4 1b3e 8212 7a3c
00000140: c89f 0a3d 8df2 0abe 8b3b 963e 9843 583d
00000150: 8d31 3f3d 821e 163d f723 bc3d 8a77 8dbd
00000160: b999 82be 30b0 83bd ecea 91be e1b1 bdbc
00000170: f6f7 bcbd 1832 933c 8d9a d1bc 8a6f 753d
00000180: 508b 99be 90b7 ccbd 992c 833e 4a88 c0bd
00000190: e641 dc3d dd8e 873d 3571 78bc 7af2 93bc
000001a0: 80a9 65be e284 193e cdf4 c03d 0c8c b93e
000001b0: 2415 50be 956e b73b 7548 79bc c89e be3c
000001c0: d914 be3e 740f 8e3e 3980 bcbd 012c 833e
000001d0: df6e babc 22c1 3a3e 68cd c0bb 47d2 a7bc
000001e0: 173c 333b d30f ad3b 0ebf 9ebd ad38 b5bd
000001f0: 6441 8cbd 8051 da3b 9ba0 59ba 92af 94bb
00000200: 454a d8bc 3317 0c3e 346a 64bd f6f5 eebd
00000210: 893d abbb fe17 b53d c15d 083e 4bdb c5bd
00000220: d906 15be e476 00bd 1e79 8a3d 3603 e5bc
00000230: d50f 90bb 49fe 8ebd 4d7c b23d 7448 7bbd
00000240: 1ae5 663e 5654 86be 4794 27be 2aad eb3d
00000250: e6ce 48be 4eff 7cbd 0231 f2bd 9044 463e
00000260: b486 703d aee2 263c 4915 1ebc b85a edbe
00000270: 2133 ac3d 21dd d1bb 6673 43bc c5e1 7b3c
00000280: bde4 1d3d 975d 243e 46f6 4cbd a733 ca3d
00000290: 94a1 663e 9536 263e f980 a3bd ab79 b2bd
000002a0: dac1 c5bd e7e9 ef3c 1187 5ebe c14e dc3e
000002b0: 8db4 b3bd 710d ee3c 303d 8fbc 1f63 b8bc
000002c0: 2e36 62bd e9c2 6d3d 411d de3d ed9e 7bbd
000002d0: d94f 223e 7e28 3c3e f1be 543c f0aa 51be
000002e0: ff5b b5bd 4b54 163e e69d ad3b 458f 39be
000002f0: 7e5c 52bd 5e68 1a3c 7c88 f7bd c503 61be
00000300: 36b2 53bb 865b 403e 2f93 cebd da42 44bd
00000310: f6f0 ba3d 9808 d6bd 3843 8e3d 10c6 7abd
00000320: 97fa 01be b638 273e add6 77be 25e8 583e
00000330: 5884 e6bd f235 a43a bb1f aebc 3eb1 af3c
00000340: dbba 2b25 e3ce dc01 88e9 a28b 1b20 7482
00000350: 9ec8 d385 db5a 0500 96cd b1b4 3058 0500
00000360: 995c 0580 ae5b 0580 ea8a 401c 5f5a 0580
00000370: d358 0580 9c1b 0a84 8d60 0580 8359 0500
00000380: 20bd 2f3d dfbb 4e3d a0c1 3d3e e376 2a3e
00000390: 6247 ad3e c2eb 153e f6b4 f73d e647 4fbd
000003a0: 6caf e3bd fb46 3d3e c1d6 3e3b 9a8c c0bd
000003b0: b8c3 0cbe 5929 e4bc dc2e fabd 6d7e 07bd
000003c0: 0438 843e 2dcd 16bd 2a57 48bd 4f33 993e
000003d0: fac8 8f3d beda 56be c918 2c3e c0dd 2f3e
000003e0: dae0 4cba d7f4 bc3d b569 533e 4145 1c3e
000003f0: 0bf1 513e f914 c03c f48a fe3c 865d 803d

mlp_extractor.value_net.0.bias f4 [192]
0.019385494 0.085257724 0.0632021 0.13362743 0.07917853 0.08167219 -0.011598022 -0.036750805
0.0036497437 0.0202844 0.050034575 0.011999689 0.025577428 -4.91961e-40 0.07326602 0.037966263
-0.0007043896 -0.014640268 0.07450997 0.0678801 0.102786615 0.04868758 -0.020721715 0.022587273
0.01642422 0.04769309 -0.0035827863 0.053539865 0.08542554 0.08628701 0.027497532 0.020254679
0.038253844 0.07354963 0.016649943 0.015204846 0.056475352 0.110716596 0.11015193 0.07577586
0.07317131 0.07351291 -0.027512975 -0.006669277 0.048282914 0.04795037 0.08358725 0.01600774
-0.026555426 0.00921214 0.095707476 0.068932354 -0.029171625 0.011558535 0.08836443 0.09170078
0.008548699 0.059032995 0.06190303 0.08369616 0.08648736 0.0039613084 0.038025454 0.06473599
0.061417583 0.064814195 0.065611355 0.0538821 -0.08375358 0.025573786 -0.024615187 0.10888255
0.086893454 0.07886927 0.078441896 0.054364875 0.037413042 -0.03460346 0.100856125 0.012720872
0.033490185 0.036276482 0.06376263 0.010456285 0.05981635 0.009456885 -0.024369918 0.06545014
0.084637545 0.07900879 0.053977422 0.09932525 0.03296406 0.06591225 0.06682212 0.09014506
0.09169944 0.01640773 0.019485248 0.036037087 -0.015025845 -0.014166517 0.11422851 0.007486365
0.077066995 0.04711217 0.025450166 0.08255109 0.03172176 0.06768224 0.094012246 0.021824084
0.078698285 -0.043182187 -0.008552184 0.08280568 0.08673536 0.017140277 -0.0035935207 0.056222253
0.0025399157 0.07260141 0.0040107155 0.04784939 -0.029953046 0.097633585 0.111802325 0.04992751
0.03177052 0.08067481 -0.036445145 0.0065827444 0.03984094 -0.020333923 0.13777655 -0.009468383
0.07440593 0.13636537 0.027252624 0.027351918 -0.04689452 0.09338492 0.039255306 0.075151436
0.0673387 0.101568684 0.13930702 0.055694684 -0.0043623266 0.0059278845 0.12110533 0.10024843
0.091269575 0.038596578 0.010165952 -0.029827325 0.10592898 0.14998774 -0.053166777 -0.0091051
0.044113286 -0.0143779535 0.08781741 0.04202699 -0.016671868 0.011285155 -0.024435483 0.085423976
0.09482092 0.014459285 0.04090217 0.008283894 0.0138364 0.022221835 0.15347078 0.010014683
0.0056911013 0.072378166 0.0008104372 0.045673504 0.10858845 0.0077317185 0.08722453 -0.0025203999
0.008891597 0.024147375 -0.020285683 0.044210225 0.044819947 0.07894725 0.077331655 -0.0037487426
00000000: 54ce 9e3c 9a9b ae3d 1a70 813d a1d5 083e
00000010: 5a28 a23d c043 a73d a105 3ebc 0388 16bd
00000020: 8a30 6f3b 782b a63c 0ef1 4c3d 589a 443c
00000030: c187 d13c 635b 0580 7f0c 963d 8382 1b3d
00000040: c9a6 38ba bcdd 6fbc af98 983d b904 8b3d
00000050: ca81 d23d a16c 473d 96c0 a9bc f208 b93c
00000060: 168c 863c d459 433d 2ecd 6abb 9e4c 5b3d
00000070: 96f3 ae3d 3eb7 b03d 8142 e13c 24ed a53c
00000080: 10b0 1c3d 30a1 963d 7665 883c bf1d 793c
00000090: b352 673d 62bf e23d 5697 e13d 6030 9b3d
000000a0: d7da 953d f08d 963d e462 e1bc f389 dabb
000000b0: 4ec4 453d 9b67 443d cb2f ab3d aa22 833c
000000c0: c48a d9bc 84ee 163c 4802 c43d 682c 8d3d
000000d0: 55f9 eebc 0260 3d3c 69f8 b43d 9ecd bb3d
000000e0: d80f 0c3c 95cc 713d 088e 7d3d e468 ab3d
000000f0: 4920 b13d ddcd 813b 94c0 1b3d 4d94 843d
00000100: 0191 7b3d 4ebd 843d 3f5f 863d 7ab3 5c3d
00000110: ff86 abbd 1e80 d13c caa5 c9bc d0fd de3d
00000120: 32f5 b13d 3686 a13d 25a6 a03d b4ad 5e3d
00000130: 6b3e 193d 5cbc 0dbd a88d ce3d 346b 503c
00000140: 012d 093d a696 143d fb95 823d d750 2b3c
00000150: fd01 753d 0df1 1a3c 6ca3 c7bc b90a 863d
00000160: 7356 ad3d 5ccf a13d 6e17 5d3d 096b cb3d
00000170: 5205 073d 00fd 863d 09da 883d f99d b83d
00000180: eacc bb3d 8169 863c 879f 9f3c a09b 133d
00000190: f62e 76bc ae1a 68bc a3f0 e93d 2e50 f53b
000001a0: 4dd5 9d3d b1f8 403d de7c d03c 8c10 a93d
000001b0: adee 013d fc9c 8a3d 7e89 c03d 6cc8 b23c
000001c0: 912c a13d cedf 30bd 761e 0cbc 0696 a93d
000001d0: 4fa2 b13d c469 8c3c 4681 6bbb 4e49 663d
000001e0: b774 263b 0cb0 943d 526c 833b b9fd 433d
000001f0: 1760 f5bc 1ef4 c73d 9ef8 e43d ca80 4c3d
00000200: ce21 023d d638 a53d 8147 15bd 10b4 d73b
00000210: 4130 233d 5493 a6bc 4c15 0d3e 4721 1bbc
00000220: 2362 983d 5da3 0b3e e540 df3c 2111 e03c
00000230: 7814 40bd 9840 bf3d 2cca 203d ffe8 993d
00000240: dfe8 893d 3e03 d03d 80a6 0e3e 1c20 643d
00000250: d9f1 8ebb b33e c23b 1206 f83d 0d4f cd3d
00000260: 8beb ba3d 7217 1e3d 188f 263c 6f58 f4bc
00000270: 4bf1 d83d 6396 193e 68c5 59bd 8f2d 15bc
00000280: 22b0 343d 8291 6bbc 9dd9 b33d 7e24 2c3d
00000290: 7193 88bc 5fe5 383c ec2c c8bc c4f2 ae3d
000002a0: 7831 c23d a3e6 6c3c 0989 273d 2bb9 073c
000002b0: 11b2 623c 910a b63c 7227 1d3e a014 243c
000002c0: 6b7c ba3b 013b 943d 8573 543a 2414 3b3d
000002d0: 9f63 de3d 5b5a fd3b c6a2 b23d 4b2d 25bb
000002e0: 10ae 113c b7d0 c53c 292e a6bc c815 353d
000002f0: 1f95 373d 19af a13d 0f60 9e3d 77ad 75bb

mlp_extractor.value_net.2.weight f4 [96, 192]
0.15066841 -0.09059901 -0.18019666 -0.08292838 -0.076097004 0.34845722 0.32814837 -0.019028952
0.104422085 0.024120046 -0.002175366 0.108175725 0.16359177 1.89513e-40 0.12402539 -0.24728347
4.91594e-40 0.046317372 -0.0517929 -0.092978895 0.037371963 -0.112414256 0.07587948 0.056448493
0.0261445 0.051403943 -0.1033436 -0.07852595 0.17611374 0.038389586 -0.052346174 0.17448798
0.0076527074 0.22993393 0.04962564 0.30278662 -0.18407561 0.061519332 0.043202948 0.33937433
0.24692695 -0.04897867 -0.017737236 0.33670637 0.1875189 0.36156264 -0.04524516 -0.09454405
0.26326138 0.057050165 -0.22967717 0.34684852 0.18982743 0.18807839 0.036151536 -0.04859698
0.0122303 0.19213417 -0.2022994 0.028411066 -0.11674167 0.23881574 0.094832696 -0.01194758
-0.2776731 -0.41978458 0.09052977 0.11955403 0.015584373 0.018902872 -0.06954258 -0.021908622
0.10730549 -0.23427707 -0.13969979 0.09681265 0.27253777 0.07847948 -0.3750912 0.29008394
0.22683764 0.076033406 -0.0099996 -0.0010244932 -0.062115673 0.03175731 0.0385229 -0.07359819
0.3009543 0.12634765 -0.18758191 0.12358511 0.21884201 -0.14665988 -0.28321916 -0.15777148
-0.10075673 0.2018544 0.21051528 0.31533954 -0.0036975592 0.27241468 -0.1714604 0.0891316
0.14042918 -0.1271159 0.34001127 0.26312563 -0.0030790314 0.40980172 -0.116773635 -0.01424426
-0.3269728 -0.038945395 0.10314994 -0.11581724 0.12224943 0.043673463 -0.11118193 0.14334837
0.30510676 0.041921675 0.1366268 0.02830637 0.034421172 -0.025465813 -0.153034 0.22188398
-0.04556248 -0.12358337 0.17064036 -0.010836103 0.22114058 -0.24240422 0.1546612 -0.009897679
0.1149324 0.056203857 0.13409588 0.16765699 0.11208151 0.14218834 -0.00023537833 -0.1860666
0.17024602 0.030360019 0.17667837 0.25921682 -0.15119155 0.07415557 -0.036267407 -0.22709869
0.038870644 0.17556897 0.20281956 -0.0013057853 -0.031603232 -0.06842901 0.1282281 0.25368538
-0.2871707 0.3172588 0.326018 0.10949414 0.40401253 0.18870309 0.09734186 -0.13915773
-0.23874313 0.34177706 0.19977055 0.29931504 0.2443766 0.21291687 0.18132697 -0.27839962
0.36609447 0.03971301 -0.18491323 -0.06383231 -0.040536374 0.30436316 0.25299138 0.24306749
-0.098004475 -0.091011345 -0.00080138707 0.28761488 -0.23488116 0.11306149 -0.09072716 -0.04675349
-0.00130714 0.0029857026 0.07232614 3.927459e-05 0.0049053696 -9.253899e-05 0.0056165857 0.01647332
-0.0030151438 4.8863836e-08 -1.6783543e-09 -0.027142992 -0.0007824979 1.5474348e-16 -0.044680394 -0.14013909
4.9094e-40 -1.6309752e-08 -0.0610615 -0.0023265325 0.0030174246 0.12440995 1.7567741e-05 -0.00027504712
-1.278585e-06 -0.0011595534 -0.0064601856 0.012460949 0.008485951 0.035466697 -1.3309408e-13 3.3414313e-08
-5.6947368e-15 -2.796185e-05 -0.02636304 2.8096123e-05 -0.004241046 0.010772676 -0.0017569046 0.007829454
-1.7860107e-06 -0.010101266 2.297492e-06 -0.00020050196 -7.1324007e-06 0.0012890104 2.6305634e-20 0.01648871
-0.037468784 -0.00052116066 -0.0004030174 -4.0804844e-06 -0.007912529 0.041495543 -0.00957926 0.044367988
7.6226756e-06 -0.009558613 -0.020193 -8.164884e-05 -0.007932667 -0.052571263 -0.022451865 -0.003666904
00000000: d248 1a3e f98b b9bd 7985 38be 5bd6 a9bd
00000010: bfd8 9bbd fc68 b23e 1003 a83e 9be2 9bbc
00000020: 3fdb d53d 6797 c53c 9690 0ebb 3c8b dd3d
00000030: 9a84 273e 4910 0200 0601 fe3d e137 7dbe
00000040: 5d5a 0500 49b7 3d3d cb24 54bd b86b bebd
00000050: 5813 193d 7239 e6bd b366 9b3d 8936 673d
00000060: fe2c d63c f18c 523d cfa5 d3bd 37d2 a0bd
00000070: 2957 343e 663e 1d3d f168 56bd faac 323e
00000080: 90c3 fa3b cd73 6b3e 4144 4b3d d906 9b3e
00000090: 517e 3cbe b2fb 7b3d 93f5 303d 79c2 ad3e
000000a0: 6bda 7c3e dc9d 48bd ae4d 91bc c764 ac3e
000000b0: f404 403e bd1e b93e fd52 39bd 50a0 c1bd
000000c0: 32ca 863e 6fad 693d 7e30 6bbe 2196 b13e
000000d0: 1f62 423e 9f97 403e a213 143d a00d 47bd
000000e0: 9961 483c d2be 443e 9327 4fbe 53be e83c
000000f0: 4216 efbd 1d8c 743e a537 c23d c8bf 43bc
00000100: 2b2b 8ebe 01ee d6be ac67 b93d bed8 f43d
00000110: 9955 7f3c 32da 9a3c 576c 8ebd b679 b3bc
00000120: fbc2 db3d 54e6 6fbe 760d 0fbe b645 c63d
00000130: 128a 8b3e dab9 a03d f40b c0be e285 943e
00000140: 2048 683e 67b7 9b3d 5dd5 23bc 4a48 86ba
00000150: 016d 7ebd f413 023d 30ca 1d3d a6ba 96bd
00000160: af16 9a3e 4761 013e 7915 40be 311a fd3d
00000170: 1f18 603e 022e 16be 1a02 91be d98e 21be
00000180: 8b59 cebd ebb2 4e3e 5191 573e 2f74 a13e
00000190: c052 72bb f079 8b3e 5193 2fbe a18a b63d
000001a0: abcc 0f3e ac2a 02be f515 ae3e 67b8 863e
000001b0: 93c9 49bb 88d1 d13e 0427 efbd c260 69bc
000001c0: fb68 a7be 3585 1fbd 4740 d33d 9731 edbd
000001d0: e95d fa3d f2e2 323d 5ab3 e3bd eac9 123e
000001e0: f436 9c3e 10b6 2b3d e5e7 0b3e c3e2 e73c
000001f0: 37fd 0c3d ae9d d0bc f2b4 1cbe 8e35 633e
00000200: b99f 3abd 4719 fdbd 59bc 2e3e e989 31bc
00000210: ad72 623e d038 78be 815f 1e3e e029 22bc
00000220: ae61 eb3d 0436 663d 6e50 093e 46ae 2b3e
00000230: fe8a e53d d299 113e e4cf 76b9 3e88 3ebe
00000240: f954 2e3e 93b5 f83c 2deb 343e 11b8 843e
00000250: f5d1 1abe e0de 973d 228d 14bd 8f8c 68be
00000260: d336 1f3d 5ac8 333e eeaf 4f3e e226 abba
00000270: 6472 01bd 8224 8cbd 3a4e 033e 0de3 813e
00000280: 0a08 93be bf6f a23e d5eb a63e 773e e03d
00000290: bbda ce3e 623b 413e 2b5b c73d 5d7f 0ebe
000002a0: 1479 74be 67fd ae3e a790 4c3e d23f 993e
000002b0: dc3d 7a3e e106 5a3e c7ad 393e 658a 8ebe
000002c0: bc70 bb3e 1caa 223d e559 3dbe 84ba 82bd
000002d0: 7809 26bd 7dd5 9b3e 1688 813e afe6 783e
000002e0: 92b6 c8bd 2864 babd 2d14 52ba 4242 933e
000002f0: b084 70be c88c e73d 29cf b9bd 9680 3fbd
00000300: 5754 abba c7ab 433b ba1f 943d c5ba 2438
00000310: 39bd a03b 7e11 c2b8 560b b83b 0ef3 863c
00000320: b899 45bb 5bde 5133 d8ab e6b0 fb5a debc
00000330: 8c20 4dba 3768 3225 ca02 37bd 9f80 0fbe
00000340: 8a58 0500 8619 8cb2 a01b 7abd bd78 18bb
00000350: fcbf 453b a5ca fe3d 705e 9337 3334 90b9
00000360: d99b abb5 28fc 97ba f7af d3bb 0229 4c3c
00000370: a908 0b3c 8745 113d c2d9 15aa 6d83 0f33
00000380: ad2c cda7 9e8f eab7 4df7 d7bc f7af eb37
00000390: 79f8 8abb e17f 303c f047 e6ba 1c47 003c
000003a0: dcb6 efb5 c87f 25bc 9d2e 1a36 d63d 52b9
000003b0: db52 efb6 03f4 a83a 1f73 f81e 5513 873c
000003c0: de78 19bd 809e 08ba 144c d3b9 18eb 88b6
000003d0: 8da3 01bc 3bf7 293d 54f2 1cbc 35bb 353d
000003e0: 49c6 ff36 bb9b 1cbc ca6b a5bc e33a abb8
000003f0: 04f8 01bc f754 57bd f9ec b7bc 7150 70bb

mlp_extractor.value_net.2.bias f4 [96]
0.024995934 -0.012892506 0.106010154 -0.02080898 -0.013339101 0.08437038 -0.018960314 -0.03557668
0.07366788 -0.013336817 -0.036573164 -0.016276317 -0.015048652 -0.0395813 -0.03551236 0.0586053
0.042732358 0.049082533 -0.021687929 0.08022895 -0.047848206 0.025809933 -0.014414619 -0.035141714
-0.007232239 -0.011184264 0.0015371047 -0.0044093025 -0.019230489 -0.018532207 -0.022501424 -0.014851677
0.052438963 0.092229955 -0.026557507 -0.032235213 -0.029114438 -0.013172857 -0.026853625 0.09382847
0.080368154 0.03435564 0.047796175 0.057999406 -0.03397643 0.07284382 -0.025478868 0.020931393
0.081009775 -0.018978123 0.011554892 0.002481848 0.07339066 -0.02380824 0.06712973 0.10807254
-0.025236478 -0.0337179 -0.010886754 0.10314557 -0.01861881 0.08512105 0.044527896 -0.029147457
-0.024976159 -0.029674307 0.050868932 -0.023698948 -0.024522888 -0.032832675 -0.021581285 -0.020298108
0.046988968 -0.028844431 0.048290957 -0.027183842 -0.020569615 -0.030504324 0.056038935 -0.021272343
-0.038710944 -0.008327749 -0.020909097 0.088058636 0.042710897 0.07100365 0.028559677 0.022354066
-0.034145925 0.079658836 0.06900835 -0.0010143956 -0.023692336 -0.039915487 0.055259883 -0.012317373
00000000: 46c4 cc3c 173b 53bc da1b d93d 9877 aabc
00000010: 3f8c 5abc 61ca ac3d a952 9bbc dab8 11bd
00000020: 2fdf 963d aa82 5abc becd 15bd e955 85bc
00000030: 9f8e 76bc 0020 22bd 6975 11bd 1c0c 703d
00000040: 2008 2f3d c40a 493d e2aa b1bc 134f a43d
00000050: 7bfc 43bd 5a6f d33c 4b2b 6cbc c2f0 0fbd
00000060: 6bfc ecbb 343e 37bc ad78 c93a e97b 90bb
00000070: 4289 9dbc dbd0 97bc e854 b8bc 7354 73bc
00000080: 3dca 563d 0fe3 bc3d 218f d9bc 1209 04bd
00000090: 6781 eebc f8d2 57bc 22fc dbbc 2429 c03d
000000a0: 0f98 a43d 80b8 0c3d ecc5 433d c990 6d3d
000000b0: de2a 0bbd 242f 953d 0fb9 d0bc 5078 ab3c
000000c0: 74e8 a53d 0278 9bbc bb50 3d3c 80a6 223b
000000d0: d84d 963d 8009 c3bc 507b 893d 2355 dd3d
000000e0: bbbc cebc c81b 0abd 5b5e 32bc fc3d d33d
000000f0: 7a86 98bc f253 ae3d e262 363d a6c6 eebc
00000100: cd9a ccbc 8817 f3bc f15b 503d 4c24 c2bc
00000110: 39e4 c8bc 8e7b 06bd 3ccb b0bc 3848 a6bc
00000120: 8177 403d 284b ecbc bdcc 453d a6b0 debc
00000130: 9c81 a8bc 34e4 f9bc 1589 653d 5643 aebc
00000140: 5e8f 1ebd 1c71 08bc 8e49 abbc 1658 b43d
00000150: 9ff1 2e3d 5d6a 913d fcf5 e93c e01f b73c
00000160: 99dc 0bbd 2c24 a33d 4054 8d3d 78f5 84ba
00000170: 6e16 c2bc 6c7e 23bd 3058 623d cfce 49bc

action_net.weight f4 [4, 96]
0.049332324 -0.15356746 -0.0114030065 0.12900336 0.02607833 -0.25674865 -0.21026964 -0.08650484
0.10029409 -0.04135146 0.12414172 0.04133779 -0.11450955 -0.1483268 0.12906945 0.20242481
0.15192662 -0.06146057 0.060247306 -0.03332015 0.1790132 -0.1737486 0.10110679 0.041854277
-0.014858016 0.08772033 -0.04611104 -0.20512472 0.08012737 -0.09839845 -0.07426724 0.002033835
-0.08988714 -0.06112144 -0.121417165 0.02551105 0.0061425837 0.06131633 0.05092989 0.04351558
0.04036115 0.13356529 0.029396014 0.061027672 0.10928835 0.024133667 0.0736063 0.07593684
0.16580428 0.11799641 0.0674547 0.027180878 -0.10619267 0.15385325 0.054464623 0.08635914
0.11151173 0.057620205 0.088360645 0.027306976 0.017687174 0.0017683931 0.13170679 0.09976203
-0.10587069 -0.10010061 -0.06301036 0.037939515 0.12652211 0.13582546 -0.09462088 0.030811325
0.01770765 0.009014779 -0.06915709 -0.12879586 -0.09894665 0.13490535 -0.1430078 -0.1769626
-0.020140668 -0.18053871 0.06954439 -0.108666986 0.0991011 -0.02601071 -0.15292117 -0.03336158
0.045036297 0.06481747 0.08443786 0.10684545 0.18987273 0.00063018716 -0.15050717 0.0508985
-0.08738284 0.12897658 -0.15655391 -0.028840499 0.19343343 -0.01488828 -0.10681299 0.1874008
-0.058744468 0.060096834 0.15130138 0.06951079 0.21267334 -0.11216965 -0.08160608 -0.0393639
-0.055610865 -0.15905268 0.17430216 -0.11837842 0.01989327 -0.18083012 0.19812603 0.06495937
-0.16945103 0.15353787 -0.02925176 0.1183026 -0.064543165 -0.08481891 0.09222902 -0.08687451
0.078960866 0.09390457 0.10394211 -0.15755287 0.14013545 0.16591184 -0.16364571 0.10312737
0.05403229 -0.08902059 -0.054886203 -0.09329735 -0.13889508 0.0415288 -0.15516773 -0.1080124
-0.10327294 -0.0666001 0.13852334 0.04000004 -0.10943697 0.008270784 -0.15598965 0.10299334
-0.06653047 -0.14035442 0.12348508 -0.117803566 -0.0051562455 -0.036854375 0.11607306 0.10190747
0.06026327 -0.07554932 -0.1797941 -0.15515116 -0.0074840668 -0.08946052 -0.13697405 -0.044584054
0.20076448 0.025061226 -0.14497083 0.00223782 0.19911827 0.06892059 0.111888215 -0.16945142
0.019995105 0.07193173 0.1783877 -0.12422326 0.1414428 -0.15985043 -0.018481307 0.092525065
-0.1580373 -0.12589076 0.079000324 0.11229093 -0.024337072 -0.0017171327 -0.1149262 0.08857834
-0.09818214 -0.061380044 0.11332718 0.015558148 0.017558774 0.10517732 0.07376984 0.0047310786
0.12646504 -0.12623388 -0.006752002 -0.17529345 -0.010286387 -0.09375511 0.14682344 0.09141792
0.14139915 -0.103587545 -0.021894492 -0.07839022 -0.041842937 -0.013092283 -0.085019045 0.0854818
-0.013683218 0.06130382 -0.011296052 0.066959485 -0.13302942 -0.1498485 0.18773803 0.19309998
-0.0329846 -0.046060134 -0.039751343 0.051998474 -0.19619578 -0.11030226 -0.03648674 0.11213136
-0.18417431 0.13444999 0.13338363 -0.1510514 0.021798326 0.13699672 0.026451591 0.13445507
0.05468601 -0.1207692 0.04266203 0.024701923 -0.1587872 -0.048238434 0.09085069 -0.06603134
-0.14742087 0.11369626 0.074026555 0.10681402 0.03331888 0.19979359 -0.010963429 -0.15958565
00000000: b110 4a3d ca40 1dbe add3 3abc 7519 043e
00000010: 39a2 d53c 8f74 83be ed50 57be 7329 b1bd
00000020: fd66 cd3d 2660 29bd 043e fe3d d151 293d
00000030: fc83 eabd fbe2 17be c82a 043e 7348 4f3e
00000040: a792 1b3e 14be 7bbd e1c5 763d b67a 08bd
00000050: 3c4f 373e 27eb 31be 1411 cf3d 646f 2b3d
00000060: 096f 73bc b7a6 b33d eede 3cbd 370c 52be
00000070: d219 a43d 2085 c9bd 6c19 98bd 174a 053b
00000080: c016 b8bd 7a5a 7abd 90a9 f8bd 8dfc d03c
00000090: ba47 c93b d526 7b3d dc9b 503d 653d 323d
000000a0: bc51 253d 57c5 083e e9cf f03c 27f8 793d
000000b0: 92d2 df3d f8b3 c53c e6be 963d c684 9b3d
000000c0: 99c8 293e 1aa8 f13d b125 8a3d 6faa de3c
000000d0: 8b7b d9bd b58b 1d3e 4c16 5f3d 10dd b03d
000000e0: 4360 e43d 2a03 6c3d 6df6 b43d e1b2 df3c
000000f0: b1e4 903c 6dc9 e73a 25de 063e 0950 cc3d
00000100: bbd2 d8bd 8c01 cdbd 930b 81bd 7766 1b3d
00000110: 038f 013e d415 0b3e 98c8 c1bd 0868 fc3c
00000120: a20f 913c b9b2 133c 3ba2 8dbd 10e3 03be
00000130: 8ba4 cabd a124 0a3e a370 12be af35 35be
00000140: 0bfe a4bc 24df 38be 4a6d 8e3d cc8c debd
00000150: 84f5 ca3d 6a14 d5bc 5e97 1cbe 27a6 08bd
00000160: fb77 383d 06bf 843d c2ed ac3d cad1 da3d
00000170: ff6d 423e 2533 253a 8d1e 1abe f27a 503d
00000180: c6f5 b2bd 7012 043e ab4f 20be e942 ecbc
00000190: 6a13 463e f9ed 73bc c5c0 dabd ffe5 3f3e
000001a0: 0a9e 70bd 1928 763d c0ee 1a3e ac5b 8e3d
000001b0: 0ac7 593e 34b9 e5bd 1721 a7bd 0a3c 21bd
000001c0: 38c8 63bd b5de 22be 447c 323e 6370 f2bd
000001d0: 36f7 a23c 882b 39be 8de1 4a3e 6b09 853d
000001e0: 9284 2dbe 0839 1d3e 63a1 efbc a248 f23d
000001f0: 352f 84bd 89b5 adbd 92e2 bc3d 43eb b1bd
00000200: 3cb6 a13d 0a51 c03d 9adf d43d 8a55 21be
00000210: ab7f 0f3e cbe4 293e be92 27be 7134 d33d
00000220: f650 5d3d 6d50 b6bd 5bd0 60bd ae12 bfbd
00000230: 833a 0ebe 1a1a 2a3d 4ae4 1ebe 9b35 ddbd
00000240: c380 d3bd a265 88bd 10d9 0d3e 15d7 233d
00000250: 7d20 e0bd 2f82 073c c0bb 1fbe 2cee d23d
00000260: 2141 88bd 12b9 0fbe bfe5 fc3d ff42 f1bd
00000270: b9f5 a8bb 9df4 16bd b6b7 ed3d ddb4 d03d
00000280: 9ed6 763d 9ab9 9abd f21b 38be f2df 1ebe
00000290: e73c f5bb 1437 b7bd ed42 0cbe c59d 36bd
000002a0: 3495 4d3e 334d cd3c 3c73 14be 64a8 123b
000002b0: a9e5 4b3e 3d26 8d3d a625 e53d ac84 2dbe
000002c0: c6cc a33c f150 933d 44ab 363e c468 febd
000002d0: 62d6 103e d5af 23be 1c66 97bc c87d bd3d
000002e0: 88d4 21be 82e9 00be ecca a13d c9f8 e53d
000002f0: 8a5e c7bc 6a11 e1ba 6d5e ebbd 9068 b53d
00000300: b813 c9bd a469 7bbd 1518 e83d 9ae7 7e3c
00000310: 6bd7 8f3c 3567 d73d a414 973d 2a07 9b3b
00000320: 0d80 013e 7443 01be e63f ddbb 2080 33be
00000330: 3c88 28bc ae02 c0bd e258 163e 5239 bb3d
00000340: f0ca 103e b525 d4bd 145c b3bc 0d8b a0bd
00000350: 8063 2bbd 0481 56bc 771e aebd 1511 af3d
00000360: 932f 60bc b719 7b3d 1313 39bc 0e22 893d
00000370: dd38 08be e371 19be 663e 403e 00bc 453e
00000380: dc1a 07bd 8da9 3cbd 4ed2 22bd 5afc 543d
00000390: 8ce7 48be 27e6 e1bd 1f73 15bd 20a5 e53d
000003a0: 3198 3cbe 42ad 093e b895 083e 38ad 1abe
000003b0: 6792 b23c de48 0c3e 02b1 d83c 97ae 093e
000003c0: 70fe 5f3d d855 f7bd 61be 2e3d b05b ca3c
000003d0: 1d99 22be aa95 45bd ed0f ba3d 703b 87bd
000003e0: 7ff5 16be 96d9 e83d 3c9b 973d 4fc1 da3d
000003f0: 6179 083d b196 4c3e f49f 33bc 6c6a 23be

action_net.bias f4 [4]
0.0009148192 0.010866751 0.021282421 0.004282766
00000000: 7ad0 6f3a 750a 323c 7958 ae3c 7256 8c3b

value_net.weight f4 [1, 96]
0.47839817 0.059344035 0.37880686 -0.18266001 -0.43961835 0.4662491 -0.17406547 -0.27661505
0.3756093 -0.19673742 -0.25159 -0.31110626 -0.3266246 -0.12769839 -0.12690322 0.4353156
0.4223189 0.31738892 -0.24911384 0.38753504 -0.09968226 0.5706031 -0.19080034 -0.13817897
-0.2534281 0.09627685 -0.24214089 0.05673341 -0.18200174 0.11074184 0.39677364 -0.1739048
0.3344497 0.28391376 -0.17915341 -0.18217225 -0.1784515 0.15781611 -0.22615783 0.5145702
0.5314968 0.19810036 0.526027 0.34792846 -0.1921924 0.38712817 -0.1599459 0.5617623
0.39709786 -0.16324288 0.30059186 0.1310303 0.3768554 -0.24637577 0.40635017 0.297694
-0.18894382 -0.16928667 -0.31133705 0.3038132 -0.30034655 0.38139078 0.5422577 -0.21968259
-0.24268265 -0.17815088 0.41721517 -0.16951086 -0.18931513 -0.12180717 -0.2707966 -0.17151229
0.3988584 -0.1429768 0.3626745 -0.21533993 -0.24280839 -0.1946882 0.49590385 -0.17647454
-0.10228511 -0.36920187 -0.24059033 0.46962258 0.5779218 0.35849878 0.3476076 0.6196396
-0.23997673 0.27194208 0.338464 -0.2943374 -0.31597507 -0.118373975 0.4194345 -0.19650836
00000000: 9bf0 f43e bb12 733d f9f2 c13e 3a0b 3bbe
00000010: a815 e1be 34b8 ee3e 383e 32be 7da0 8dbe
00000020: dd4f c03e 8975 49be 68d0 80be 5249 9fbe
00000030: 573b a7be 5ec3 02be ebf2 01be b0e1 de3e
00000040: 2f3a d83e cd80 a23e b317 7fbe fe6a c63e
00000050: 3626 ccbd 0b13 123f 2a61 43be ca7e 0dbe
00000060: 54c1 81be cc2c c53d c8f3 77be 4b61 683d
00000070: aa5e 3abe 9ecc e23d ea25 cb3e 1a14 32be
00000080: fe3c ab3e 255d 913e fe73 37be 5d8b 3abe
00000090: fdbb 36be 8c9a 213e eb95 67be dfba 033f
000000a0: 2d10 083f d2da 4a3e b5a9 063f ae23 b23e
000000b0: 16ce 44be aa35 c63e dcc8 23be a7cf 0f3f
000000c0: 6950 cb3e 2429 27be 2de7 993e cf2c 063e
000000d0: 31f3 c03e ee49 7cbe 210d d03e 596b 983e
000000e0: 7d7a 41be 7c59 2dbe 9267 9fbe 678d 9b3e
000000f0: 06c7 99be a745 c33e 67d1 0a3f 79f4 60be
00000100: cd81 78be 2f6d 36be 3a9d d53e 4194 2dbe
00000110: d3db 41be 0a76 f9bd daa5 8abe eba0 2fbe
00000120: 2b37 cc3e 8368 12be 79b0 b93e 1282 5cbe
00000130: c3a2 78be 585c 47be 1ce7 fd3e beb5 34be
00000140: db7a d1bd 0708 bdbe 505d 76be 5f72 f03e
00000150: aff2 133f 278d b73e a0f9 b13e b3a0 1e3f
00000160: 76bc 75be fe3b 8b3e 274b ad3e 64b3 96be
00000170: 7cc7 a1be 0e6e f2bd 1ec0 d63e 7d39 49be
