waypoint_state_413_low_velocity_dynamic_3.onnx (onnx, 694169 bytes, 20 tensors)

log_std f4 [4]
-0.2921911 -0.26992536 -0.25420678 -0.25275257
00000000: 129a 95be a833 8abe 6427 82be c968 81be

features_extractor.state_extractor.0.weight f4 [128, 16]
-0.20787455 -0.10288019 -0.064267606 -0.04751012 -0.019049129 0.12497958 0.015302136 0.21004945
-0.051797826 0.2740998 0.03950482 -0.0403664 0.08092876 0.031459402 -0.040638622 0.031292316
0.17729151 -0.21238086 -0.12979065 -0.008251255 0.07317469 -0.00127657 0.004351832 0.17080182
0.21264829 -0.12047506 0.005266048 -0.3051841 0.015932944 0.058233365 0.022926716 0.01177614
-0.061028298 0.00035288045 -3.595266e-05 -0.023143845 0.0036421954 -2.0608853e-05 -0.026375312 -6.012451e-10
0.0031599568 -2.3565237e-05 -0.02443194 -0.0003598635 1.9862307e-05 -3.3014814e-15 4.881317e-22 -3.007301e-26
-0.12739581 0.111978285 -0.076353416 0.055388417 -0.22754052 -0.08239311 0.31398797 -0.29707998
-0.18134913 0.034960642 -0.17392518 -0.018879259 -0.1944753 -0.13515723 -0.088075764 0.14055626
0.106092505 -0.20100194 0.028080802 0.1671823 0.037140388 0.25081217 -0.095230065 -0.045595475
-0.12171499 -0.016760336 0.41846317 0.3139849 -0.007437558 0.061206188 -0.11566405 -0.03287692
0.041639082 0.10313599 -0.003931763 0.15666914 0.04044924 -0.032416612 0.0070994566 -0.10075717
-0.04159054 0.19885468 0.1441302 -0.06297312 0.039566383 0.110379525 -0.06814652 0.034077633
-0.014193324 -0.005564264 0.0008447762 -0.03898132 -0.0131471455 0.00010429482 -0.066000305 -0.0022097926
1.0751645e-05 -0.008584583 -0.0031746298 0.00045899762 1.4962909e-06 9.599854e-19 1.126518e-17 8.9579596e-15
-0.099960305 -0.12640962 0.001577359 -0.05121594 -0.052524097 -0.039366968 -0.15015538 -0.021960434
0.012558002 0.0035310409 0.15532435 -0.023245657 -0.00049066107 8.992693e-08 -0.00029493775 0.004690486
0.044858325 0.29655662 0.010394399 0.2193494 -0.04705666 -0.15292811 -0.038456805 0.0063552554
0.080364406 -0.09075916 -0.200286 0.2127885 0.030738879 -0.0065121716 -0.021891838 -0.0013743562
0.06609428 -0.10359282 -0.053750303 -0.20026469 0.03336749 0.13433039 0.32736444 0.2652556
0.07549007 0.2525046 -0.08843887 -0.13793392 -0.09362388 -0.011092166 0.0032914064 -0.042783402
-0.1113076 0.050765365 -0.0276087 -0.08358537 0.017745059 0.070737 -0.020315334 -0.067439795
-0.015762763 0.12647045 -0.058032297 0.03225068 0.033326935 0.0060684183 0.00084874453 0.0009878856
-0.13606128 -0.08656129 -0.004839669 -0.034845456 0.07034985 0.08926042 0.042807624 0.047893908
-0.036029726 0.17741784 -0.054994196 0.037366033 0.02510414 -0.020056272 -0.009643505 0.05609221
0.04338062 0.26024872 0.05346977 0.057167765 0.20918843 -0.040652078 0.029853625 -0.07445873
0.022996759 -0.16431783 -0.11020523 0.07720383 0.038819343 0.010911939 -0.035068724 0.05595002
-0.12085556 -0.24949771 0.05786626 -0.08527409 0.25614768 0.03506887 -0.012091293 0.30374432
-0.17931981 0.048631553 0.053914987 -0.1819691 -0.020226723 0.002629846 0.029902173 0.012049288
-0.027139707 -0.19066308 -0.09012901 -0.041320797 0.09231389 0.08072056 0.058369562 0.28462976
-0.15961237 0.113915354 0.20244798 -0.39646584 0.0711791 0.22762543 0.09017123 0.031637
-0.12838587 0.037218366 -0.096538246 0.15907167 0.05285878 0.032163195 -0.010413768 -0.049009524
-0.0732729 0.20112301 -0.20085463 0.05766153 0.15176861 0.082820155 0.06902856 -0.0060842102
00000000: 11dd 54be d9b2 d2bd bc9e 83bd f999 42bd
00000010: eb0c 9cbc 4bf5 ff3d cfb5 7a3c 3417 573e
00000020: f529 54bd cf56 8c3e cecf 213d 3d57 25bd
00000030: fabd a53d 93db 003d af74 26bd 5f2c 003d
00000040: e88b 353e 5e7a 59be d7e7 04be 4630 07bc
00000050: 9ddc 953d 9552 a7ba d099 8e3b ace6 2e3e
00000060: 79c0 593e a1bb f6bd d08e ac3b 1741 9cbe
00000070: ce85 823c 1c86 6e3d cfd0 bb3c b6f0 403c
00000080: cff8 79bd d002 b939 e0cb 16b8 2998 bdbc
00000090: e6b1 6e3b 2de1 acb7 0a11 d8bc dd44 25b0
000000a0: 4717 4f3b f6ad c5b7 7e25 c8bc 10ac bcb9
000000b0: fb9d a637 95e5 6da7 5c87 131c 12ea 1495
000000c0: 0c74 02be df54 e53d 2e5f 9cbd f7de 623d
000000d0: 6200 69be b8bd a8bd 08c3 a03e de1a 98be
000000e0: 96b3 39be e432 0f3d 7119 32be ada8 9abc
000000f0: 8824 47be a866 0abe 1161 b4bd fbed 0f3e
00000100: 0747 d93d 74d3 4dbe b609 e63c d631 2b3e
00000110: 8520 183d 746a 803e fb07 c3bd 52c2 3abd
00000120: b545 f9bd f94c 89bc ce40 d63e a1c2 a03e
00000130: c2b6 f3bb 57b3 7a3d 46e1 ecbd f3a9 06bd
00000140: be8d 2a3d f638 d33d 05d6 80bb e06d 203e
00000150: 1aae 253d 48c7 04bd 8fa2 e83b c659 cebd
00000160: d85a 2abd 90a0 4b3e de96 133e 0df8 80bd
00000170: 5c10 223d a90e e23d 6790 8bbd fd94 0b3d
00000180: 1e8b 68bc 6e54 b6bb f973 5d3a e0aa 1fbd
00000190: 2067 57bc dbb8 da38 2b2b 87bd 2bd2 10bb
000001a0: f761 3437 5aa6 0cbc 730d 50bb 9ea5 f039
000001b0: 2ad4 c835 39ab 8d21 4fce 4f23 4c5f 2128
000001c0: fdb7 ccbd 8671 01be 63bf ce3a cec7 51bd
000001d0: 8223 57bd 423f 21bd 55c2 19be 5ee6 b3bc
000001e0: 14c0 4d3c 0969 673b 590d 1f3e ad6d bebc
000001f0: b59f 00ba da1d c133 e0a1 9ab9 a6b2 993b
00000200: 5dbd 373d 45d6 973e 454d 2a3c 219d 603e
00000210: 7cbe 40bd 3099 1cbe e284 1dbd bf3f d03b
00000220: 1896 a43d f0df b9bd c617 4dbe 3be5 593e
00000230: 1ad0 fb3c 0e64 d5bb 8356 b3bc be23 b4ba
00000240: 705c 873d 7928 d4bd 4729 5cbd 3012 4dbe
00000250: 59ac 083d e88d 093e 509c a73e 95cf 873e
00000260: 8a9a 9a3d 4848 813e 701f b5bd 8d3e 0dbe
00000270: e0bd bfbd ebbb 35bc a3b4 573b a63d 2fbd
00000280: 3df5 e3bd 58ef 4f3d a42b e2bc ce2e abbd
00000290: 165e 913c 8fde 903d 586c a6bc e01d 8abd
000002a0: e920 81bc 7881 013e 46b3 6dbd 4a19 043d
000002b0: d381 083d 95d9 c63b 487e 5e3a f17b 813a
000002c0: a653 0bbe 0c47 b1bd 1696 9ebb 1cba 0ebd
000002d0: 9513 903d 2bce b63d 0c57 2f3d 672c 443d
000002e0: e893 13bd 06ad 353e 9841 61bd 200d 193d
000002f0: 33a7 cd3c 0d4d a4bc cbff 1dbc f2c0 653d
00000300: e1af 313d 523f 853e 1e03 5b3d bf28 6a3d
00000310: 7e35 563e cb82 26bd 978f f43c d27d 98bd
00000320: b363 bc3c ef42 28be 48b3 e1bd 0b1d 9e3d
00000330: 0801 1f3d fdc7 323c 39a4 0fbd d92b 653d
00000340: 1f83 f7bd 547c 7fbe 2c05 6d3d 2fa4 aebd
00000350: ca25 833e 60a4 0f3d 8f1a 46bc 6084 9b3e
00000360: 9d9f 37be e131 473d f6d5 5c3d 1c56 3abe
00000370: 83b2 a5bc 7f59 2c3b 67f5 f43c 606a 453c
00000380: 1754 debc 2f3d 43be 8f95 b8bd ff3f 29bd
00000390: 110f bd3d d250 a53d ec14 6f3d feba 913e
000003a0: 6d71 23be 744c e93d 864e 4f3e 92fd cabe
000003b0: 59c6 913d a416 693e b2ab b83d cd95 013d
000003c0: 9677 03be 4972 183d d8b5 c5bd afe3 223e
000003d0: 7382 583d 8ebd 033d 829e 2abc 36be 48bd
000003e0: 1a10 96bd 31f3 4d3e d6ac 4dbe 7f2e 6c3d
000003f0: 3b69 1b3e 9d9d a93d d85e 8d3d 0e5e c7bb

features_extractor.state_extractor.0.bias f4 [128]
-0.003531056 0.010312731 -0.006595296 0.00627079 -0.03774895 0.02078807 0.0020721469 0.0154139055
0.02700169 0.016318657 -0.025305813 0.0056842263 0.02051792 0.02877593 0.014273955 0.049526848
0.027879741 0.007767054 0.027917018 -0.017650167 0.039171107 -0.005043243 0.028866997 -0.00850957
0.012197567 0.0034175625 -0.01249839 0.00985169 -0.0034486426 0.019817382 0.020045908 0.051727504
0.0031093122 0.005562635 0.01768967 0.03259782 0.003146535 0.026588157 0.022582063 0.0023976935
-0.0058670864 -0.0034714309 0.05154758 0.005657718 0.024872761 4.3533243e-11 0.084209055 0.0054026064
0.021148503 0.02011677 0.017523436 0.008421275 -0.0005857853 0.024696559 0.017306685 0.018975828
0.009226873 0.006262396 0.0031349254 0.031766742 -0.008581021 0.020987133 0.0028946225 -0.009249747
-0.0028922742 0.022939345 -0.02102601 0.06185689 -0.019122917 0.042456686 -0.0061400183 0.048979454
0.0070362748 0.029576195 -0.00761169 0.0031329994 -0.014959463 0.025980225 0.0072979853 -9.8017545e-06
0.015816342 0.009844848 0.022762245 0.0108204195 0.033353206 0.012822365 0.003874413 0.034626476
0.07727708 0.055296384 0.013433972 0.020253835 0.0014786249 0.00029564838 0.019957593 -0.012132865
0.010799348 -0.022300845 0.012388819 0.013234868 0.012971376 -0.0050948565 0.013524528 0.0147683155
0.015752325 0.02525006 0.05486812 0.0091748005 0.0128386635 0.0036292756 0.09950024 -0.010015373
0.011757479 -6.040979e-11 -0.0052274354 -0.011301663 0.018417707 0.026378447 0.0284229 0.011858336
0.014277236 0.017184364 0.0054435316 0.019642683 -0.0011960694 0.019756773 0.020723935 0.026975766
00000000: 4a69 67bb bbf6 283c 5a1d d8bb 337b cd3b
00000010: a59e 1abd be4b aa3c dbcc 073b 9b8a 7c3c
00000020: a632 dd3c b4ae 853c 234e cfbc bf42 ba3b
00000030: 3215 a83c 80bb eb3c 4edd 693c aadc 4a3d
00000040: 0e64 e43c c582 fe3b 3bb2 e43c 1597 90bc
00000050: e271 203d ca41 a5bb 7b7a ec3c b96b 0bbc
00000060: 4ed8 473c 2ff9 5f3b 0cc6 4cbc fc68 213c
00000070: 9f02 62bb 1058 a23c 5137 a43c 38e0 533d
00000080: 9ac5 4b3b c446 b63b ede9 903c 4b85 053d
00000090: 1936 4e3b 68cf d93c 05fe b83c 9f22 1d3b
000000a0: b040 c0bb f280 63bb 8e23 533d 6164 b93b
000000b0: f6c1 cb3c 1376 3f2e cc75 ac3d 5908 b13b
000000c0: a03f ad3c edcb a43c 4f8d 8f3c 63f9 093c
000000d0: 638f 19ba 7050 ca3c c0c6 8d3c 3273 9b3c
000000e0: 4f2c 173c c934 cd3b 5273 4d3b d81d 023d
000000f0: 6997 0cbc 35ed ab3c b5b3 3d3b 408c 17bc
00000100: 4f8c 3dbb 4beb bb3c bd3e acbc a65d 7d3d
00000110: aaa7 9cbc 10e7 2d3d 3532 c9bb ae9e 483d
00000120: 8d90 e63b c749 f23c 7c6b f9bb 0253 4d3b
00000130: 8918 75bc 7bd4 d43c f023 ef3b 3772 24b7
00000140: 4691 813c 494c 213c e377 ba3c 2148 313c
00000150: 5f9d 083d e614 523c dde9 7d3b 7ed4 0d3d
00000160: 7243 9e3d 767e 623d 2a1a 5c3c 5feb a53c
00000170: 6bce c13a 4101 9b39 1b7e a33c edc8 46bc
00000180: c0ef 303c 43b0 b6bc 79fa 4a3c 0fd7 583c
00000190: e585 543c c1f2 a6bb fb95 5d3c cef6 713c
000001a0: 050b 813c 37d9 ce3c 65bd 603d e751 163c
000001b0: 4259 523c 24d9 6d3b c8c6 cb3d 8517 24bc
000001c0: 71a2 403c b0d7 84ae e84a abbb 9c2a 39bc
000001d0: bbe0 963c 9d17 d83c 24d7 e83c 7749 423c
000001e0: 11eb 693c 39c6 8c3c a75f b23b b1e9 a03c
000001f0: 6ec5 9cba f5d8 a13c 3ec5 a93c 48fc dc3c

features_extractor.state_extractor.2.weight f4 [128, 128]
-0.07317637 0.24564205 -0.002426166 -0.22883768 -0.05651343 -0.082316555 7.7535565e-12 0.01825906
0.20605685 0.06741267 -0.026439391 -0.21191634 -0.011697666 0.059830826 -0.1484631 -0.20416315
0.0456969 -0.2066423 0.14556582 0.019291567 0.00020318503 -0.026302336 0.0637093 0.049979817
0.1504574 0.045416243 0.017479366 -0.013170722 -0.027973343 0.07276984 0.21270163 0.13665377
-0.019632073 0.1079478 0.0605016 0.008456787 -0.11203298 -0.15782107 0.18642439 0.12076121
-0.024765195 0.08875177 0.1234877 -0.119226724 -0.055180285 -2.276553e-28 0.049737994 0.06241261
7.6884413e-07 0.09956355 0.10122896 -0.024090404 4.90536e-40 -0.014485133 -0.039528914 -0.20968829
-0.0864801 -0.017695196 -3.002894e-38 0.036204655 -2.73603e-12 -0.012652234 0.20024638 0.10530082
-0.018089285 0.18375662 -0.09705731 0.09493539 0.049669717 0.18868178 1.9235e-15 0.12346539
0.21093933 -0.094169125 0.16466443 0.18332797 -0.039881684 -0.07804296 0.018880673 1.0561703e-34
0.006054837 0.005958543 0.033803955 -0.048822258 0.16115019 0.16006199 -0.119718455 0.23611547
0.24779034 -0.12785298 0.022827854 0.36954013 -0.019620882 -0.16211563 0.17732584 -0.057786692
0.027640201 0.13607308 -0.24988146 -0.03306264 0.16050166 2.965229e-25 0.016369348 -0.20357212
0.024697257 -0.14635158 -0.16106018 -0.29931206 0.0069562905 -0.103681765 0.03408116 -0.004663068
-0.23161866 4.91096e-40 0.17135398 -5.9505153e-05 0.06652361 0.08744093 -0.069419295 0.23726526
0.028845355 -0.0060513364 0.2065048 0.14880742 0.100477085 0.03350467 -0.0003274413 -0.10773244
-0.021116924 -0.016525347 -4.1025395e-08 0.08194325 -0.13308172 0.07301789 -2.4236349e-25 8.53537e-05
-0.08974927 -0.26647004 -0.0009737951 0.12990786 -0.07350471 0.14588335 -0.052775707 0.26243377
0.15729012 -0.1768428 0.33500448 0.07306504 -0.004395707 0.1559466 0.048735216 -0.049249213
-0.04747951 -0.13984469 -0.061974533 0.0926667 0.05265788 -0.015447348 0.11400882 0.06325955
0.110681236 0.058056954 0.3097794 0.003036864 -0.109470956 0.0905763 -0.11545629 -0.16334194
0.2849424 0.16793717 0.12223391 -0.24369921 -0.047708906 4.92011e-40 0.17367452 -0.08303528
-2.9949257e-05 0.0018754468 0.0792264 0.004471903 4.147359e-13 0.06518857 0.043728385 0.006633193
-0.19110852 0.024780035 -1.4994625e-26 0.14748219 -1.2758227e-06 -0.026221424 -0.21033554 -0.14906918
-0.24276009 0.09406451 -0.06849706 0.031574897 -0.2746436 0.07325107 4.249578e-09 -0.073339835
-0.049044497 0.01342768 -0.030009488 -0.09944112 -0.05739608 0.1916073 0.10843647 -1.300354e-37
0.00010153957 0.032735523 0.007987133 -0.17284791 0.21968974 0.09030469 0.1593706 0.04382551
0.03246987 0.030795375 0.021829313 0.12813097 4.704591e-08 -0.14569965 0.11088527 0.06976065
-0.011692112 0.036534254 0.2506098 0.14395082 -0.1498599 9.038002e-18 -0.2033621 0.13921912
0.09654782 0.109482214 -0.08566366 0.027778659 0.07854988 -0.044461336 0.19594724 -0.0004364378
-0.032888405 6.544242e-05 0.08996977 -1.478642e-07 -0.16747938 0.24871191 -0.081057474 -0.1144707
-0.0050514247 0.13916278 -0.084622934 0.23386236 -0.120818704 0.014230311 -1.4821478e-07 0.24821422
00000000: 7edd 95bd 9789 7b3e 5000 1fbb 6d54 6abe
00000010: a07a 67bd 9595 a8bd ea66 082d 0694 953c
00000020: 9100 533e a70f 8a3d 6c97 d8bc 9900 59be
00000030: 91a7 3fbc 2b11 753d b606 18be 2510 51be
00000040: ac2c 3b3d 0a9a 53be 350f 153e 5909 9e3c
00000050: 110e 5539 ff77 d7bc 057a 823d a3b7 4c3d
00000060: 8111 1a3e 6206 3a3d e330 8f3c 03ca 57bc
00000070: 5a28 e5bc 5b08 953d 75ce 593e f7ee 0b3e
00000080: 71d3 a0bc bc13 dd3d 87d0 773d 568e 0a3c
00000090: 8c71 e5bd d99b 21be 09e6 3e3e a751 f73d
000000a0: 61e0 cabc 7dc3 b53d 1fe7 fc3d 242d f4bd
000000b0: b904 62bd 2f4b 9091 11ba 4b3d 5da4 7f3d
000000c0: 9162 4e35 f9e7 cb3d 2151 cf3d 3d59 c5bc
000000d0: 6a57 0500 0d53 6dbc 12e9 21bd 87b8 56be
000000e0: 7b1c b1bd 84f5 90bc 3c7e 2381 554b 143d
000000f0: ef87 40ac 514b 4fbc 630d 4d3e f5a7 d73d
00000100: fb2f 94bc b22a 3c3e fcc5 c6bd 7c6d c23d
00000110: 7972 4b3d cc35 413e 509a 0a27 6cdb fc3d
00000120: 7b00 583e bedb c0bd cb9d 283e 54ba 3b3e
00000130: fa5a 23bd fdd4 9fbd a4ab 9a3c 9d63 0c07
00000140: a767 c63b e23f c33b 0476 0a3d d9f9 47bd
00000150: 8e04 253e 4ae7 233e f32e f5bd 41c8 713e
00000160: c0bc 7d3e e4eb 02be 7b01 bb3c 5d34 bd3e
00000170: f9bb a0bc a401 26be e894 353e bdb1 6cbd
00000180: b46d e23c be56 0b3e ede0 7fbe b16c 07bd
00000190: 8c5a 243e ee89 b716 0319 863c 3675 50be
000001a0: e751 ca3c 30dd 15be f6ec 24be 6e3f 99be
000001b0: 98f1 e33b 1b57 d4bd b098 0b3d a6cc 98bb
000001c0: 712d 6dbe fa58 0500 6b77 2f3e 2c95 79b8
000001d0: 883d 883d 3b14 b33d b42b 8ebd aaf5 723e
000001e0: 184d ec3c 4a4a c6bb ff75 533e f960 183e
000001f0: eec6 cd3d 313c 093d 6dac abb9 d3a2 dcbd
00000200: 66fd acbc 2a60 87bc e633 30b3 ddd1 a73d
00000210: 9346 08be 678a 953d 0704 9696 ebff b238
00000220: 77ce b7bd c36e 88be 4846 7fba 9106 053e
00000230: a389 96bd 7262 153e 572b 58bd b85d 863e
00000240: a910 213e 4716 35be b585 ab3e 20a3 953d
00000250: dd09 90bb 77b0 1f3e 949e 473d 8bb9 49bd
00000260: e079 42bd 7233 0fbe 02d9 7dbd 0ac8 bd3d
00000270: caaf 573d e016 7dbc 757d e93d 398e 813d
00000280: d8ac e23d 21cd 6d3d 689b 9e3e 2006 473b
00000290: 4f32 e0bd 1180 b93d 5974 ecbd 1c43 27be
000002a0: f8e3 913e b9f7 2b3e c655 fa3d 498c 79be
000002b0: 6a6a 43bd 875b 0500 bcd7 313e 670e aabd
000002c0: 8a3b fbb7 8dd1 f53a 7341 a23d 0b89 923b
000002d0: be79 e92a 9681 853d 891c 333d 425b d93b
000002e0: f4b1 43be 80ff ca3c e47f 9494 9205 173e
000002f0: ef3c abb5 50ce d6bc 3362 57be 97a5 18be
00000300: 1a96 78be e5a4 c03d 3048 8cbd ae54 013d
00000310: 169e 8cbe a804 963d af03 9231 3233 96bd
00000320: e2e2 48bd c6ff 5b3c 75d6 f5bc c9a7 cbbd
00000330: 2718 6bbd b434 443e f113 de3d b9fe 3082
00000340: a4f1 d438 af15 063d 77dc 023c 0bff 30be
00000350: 59f6 603e aaf1 b83d 0c32 233e 6182 333d
00000360: 20ff 043d 9546 fc3c 63d3 b23c c434 033e
00000370: 860f 4a33 4a32 15be d117 e33d acde 8e3d
00000380: 4690 3fbc f1a4 153d ed4f 803e d867 133e
00000390: e074 19be c2b8 2623 283e 50be 758f 0e3e
000003a0: ddba c53d 3638 e03d 6e70 afbd 1290 e33c
000003b0: c2de a03d 171d 36bd 65a6 483e b1d1 e4b9
000003c0: feb5 06bd 223e 8938 1242 b83d 9ac4 1eb4
000003d0: b77f 2bbe 56ae 7e3e 7601 a6bd 9d6f eabd
000003e0: 6c86 a5bb b080 0e3e ca4e adbd 9d79 6f3e
000003f0: cc6f f7bd 4026 693c f824 1fb4 de2b 7e3e

features_extractor.state_extractor.2.bias f4 [128]
0.01379736 0.018328778 0.008408099 -0.0066467053 0.027504561 0.01897915 0.011472568 0.0021764121
0.008596065 -0.0032897466 -0.0031272268 0.008236389 0.015525906 0.014569462 0.0122623695 0.032805152
-0.0035555605 0.0018206101 0.00879309 -0.006971049 0.02762458 0.03147924 4.91491e-40 0.010602921
0.0017124525 -0.0040433533 0.008510053 -0.008364602 0.008733566 0.013660554 -0.0005625984 0.015365578
0.010476558 0.013333281 0.020146083 0.009174051 0.0005047491 0.008615409 0.018423159 0.011722534
-0.0064646592 -0.00040781815 0.0027135946 0.0069431225 0.009879416 0.007781679 -0.01320889 0.0021797433
0.015371542 0.03434848 0.004582299 0.011189521 0.0054865847 0.014599039 -0.0037234568 0.0066310805
0.018893499 0.02001365 0.014829282 -0.011272629 0.02054855 0.025901027 0.0061282357 -0.018935902
0.0 0.007915003 0.003666059 0.039897077 0.0129727805 -0.004700682 0.0068618734 0.011009283
0.0061067413 0.015841603 0.0110623855 0.0012093334 0.017241681 -0.00020805436 0.002926451 -0.018126715
0.007682319 0.004719965 -0.0026267977 -0.0027578261 0.011186976 0.0065008625 -0.002734597 0.012333892
-0.0018561301 -0.012696371 0.01145383 0.00016408929 0.011475371 0.008205225 0.008529273 0.005692753
0.010495663 0.005232842 0.0030253374 0.0029580705 0.015314452 0.007228515 0.021270303 -0.0064332457
0.013702863 -0.00089634495 0.025730724 -0.010591306 -0.013034187 0.007493713 0.019354226 0.0038276033
0.011369922 0.0069793663 0.0059519364 -3.1574594e-09 -4.93044e-40 0.00038008508 0.023442741 0.006554172
0.0017960764 -0.009519775 0.0060229106 -0.003103839 -0.0050691627 -0.0064949347 -0.008120151 0.0033804867
00000000: 520e 623c 3c26 963c 20c2 093c 9bcc d9bb
00000010: 3f51 e13c 2a7a 9b3c 70f7 3b3c 23a2 0e3b
00000020: 83d6 0c3c ca98 57bb 29f2 4cbb ebf1 063c
00000030: 5f60 7e3c c1b4 6e3c 1be8 483c b25e 063d
00000040: 6804 69bb 8aa1 ee3a e410 103c 666d e4bb
00000050: f14c e23c 60f0 003d 145a 0500 e0b7 2d3c
00000060: 5f74 e03a 1b7e 84bb c06d 0b3c af0b 09bc
00000070: 3b17 0f3c 84d0 5f3c 577b 13ba e8bf 7b3c
00000080: dea5 2b3c d573 5a3c 6609 a53c c24e 163c
00000090: 2451 043a a527 0d3c 2aec 963c df0f 403c
000000a0: 7ed5 d3bb 6dd0 d5b9 90d6 313b 2283 e33b
000000b0: 46dd 213c 74fd fe3b 1a6a 58bc 06da 0e3b
000000c0: ecd8 7b3c feb0 0c3d 1c27 963b 4154 373c
000000d0: cfc8 b33b cf30 6f3c 3d05 74bb 8949 d93b
000000e0: 8ac6 9a3c abf3 a33c 84f6 723c d5b0 38bc
000000f0: 6f55 a83c 642e d43c 5ecf c83b 771f 9bbc
00000100: 0000 0000 eead 013c 4442 703b 1e6b 233d
00000110: c98b 543c 2e08 9abb 91d9 e03b 4860 343c
00000120: 0f1b c83b 40c6 813c 023f 353c 7f82 9e3a
00000130: 6d3e 8d3c 2b29 5ab9 b3c9 3f3b 7a7e 94bc
00000140: f6bb fb3b f0a9 9a3b 5a26 2cbb a5bc 34bb
00000150: 9449 373c 3005 d53b ed36 33bb 1814 4a3c
00000160: 6449 f3ba 7104 50bc d8a8 3b3c 620f 2c39
00000170: 3203 3c3c 356f 063c 5dbe 0b3c 468a ba3b
00000180: 00f6 2b3c 4378 ab3b bd44 463b 30dc 413b
00000190: 78e9 7a3c 2edd ec3b 0f3f ae3c facd d2bb
000001a0: f981 603c b1f8 6aba 3dc9 d23c 2887 2dbc
000001b0: 588d 55bc d28d f53b c18c 9e3c 87d8 7a3b
000001c0: e948 3a3c 2bb3 e43b 7608 c33b 9dfa 58b1
000001d0: 685e 0580 2846 c739 fe0a c03c 61c4 d63b
000001e0: 536a eb3a d5f8 1bbc d65b c53b c769 4bbb
000001f0: 381b a6bb 76d3 d4bb 620a 05bc 288b 5d3b

features_extractor.vd_extractor.0.weight f4 [128, 1]
-0.000297506 -3.9157584e-37 -0.0008251281 0.13544628 -1.3358526e-15 0.007025741 -5.6276182e-18 -4.597976e-39
-0.000488241 -0.00050123024 -1.9461485e-14 -9.661334e-10 0.18221186 0.21792983 0.2385721 -2.8011819e-08
-1.6224909e-36 0.17596391 0.096697845 0.032830235 0.12106654 0.15234107 0.090003744 0.21057622
-1.2261362e-16 -2.0170552e-16 -3.1397444e-21 0.20791762 0.16992408 0.005770299 0.15637155 0.013305348
0.20426083 -6.539353e-12 -3.0695616e-18 -1.7806888e-15 -0.0001228115 -2.558143e-34 -3.9383132e-05 0.14464074
0.20954467 -1.9022067e-10 0.073112406 -5.6370294e-17 0.19825687 -3.5963093e-30 0.058174133 -1.5237448e-14
-3.688029e-15 0.07112769 0.29422072 0.043616857 -2.3974024e-34 -1.3268719e-15 -1.485207e-39 -8.72195e-05
-1.5804789e-06 0.342915 0.016361535 0.22632118 0.17806838 0.000506759 0.23356383 0.13331327
0.038398366 -4.6847485e-06 0.11616202 -0.0004353481 0.025778245 0.18665978 -4.040663e-05 0.11732175
-6.44666e-12 -3.9611498e-26 0.06996067 0.060769502 -0.0001981523 0.26458177 -7.183518e-23 0.19236124
-2.6256436e-12 -2.0875705e-16 0.007104406 0.1982906 0.0372202 0.0122936405 -1.4420077e-18 0.06493349
-5.26277e-40 0.15599519 -2.6920069e-11 -3.1287422e-07 0.052077357 0.14553653 0.13283543 -8.954435e-11
-0.00026265852 -2.802349e-18 0.016606586 0.103009365 0.1204153 0.10132955 -0.0014996635 0.21016286
-6.443921e-05 0.046629958 0.069243304 -4.071942e-11 0.0511044 0.15903594 -6.48079e-11 -2.349179e-15
-5.874791e-23 0.17670512 0.06470762 -3.24206e-39 -0.00039953485 -3.444527e-27 -1.5386081e-10 0.1107851
-2.495256e-06 -3.8083335e-30 0.044720735 0.0001311479 -0.00028614188 -3.7646158e-05 -6.29336e-40 -5.661378e-18
00000000: 94fa 9bb9 113f 0583 694d 58ba 6eb2 0a3e
00000010: 4384 c0a6 3038 e63b 5a9f cfa2 4911 3280
00000020: 99fa ffb9 fe64 03ba 214b afa8 ccc8 84b0
00000030: bf95 3a3e ff28 5f3e 3f4c 743e a49e f0b2
00000040: b906 0a84 e22f 343e 8509 c63d ff78 063d
00000050: bcf1 f73d 4cff 1b3e e253 b83d 4ba1 573e
00000060: 275d 0da5 f68c 68a5 7d3b 6d9d 5be8 543e
00000070: 9400 2e3e c714 bd3b dd1f 203e adfe 593c
00000080: c029 513e 4115 e6ac 617e 62a2 e94f 00a7
00000090: f6c6 00b9 8c04 aa87 512f 25b8 b41c 143e
000000a0: e192 563e 5c26 51af f5bb 953d 26fb 81a4
000000b0: d903 4b3e 36e2 918e 0048 6e3d 2a3f 89a8
000000c0: 10e0 84a7 65ab 913d 19a4 963e 97a7 323d
000000d0: b055 9f87 ef38 bfa6 272c 1080 9de9 b6b8
000000e0: d720 d4b5 8e92 af3e a008 863c bdc0 673e
000000f0: 8f57 363e 05d8 043a 5b2b 6f3e 4683 083e
00000100: 9b47 1d3d af31 9db6 5ae6 ed3d 6f3f e4b9
00000110: e62c d33c be23 3f3e 4a7a 29b8 6346 f03d
00000120: 5ad2 e2ac 8a25 4495 8a47 8f3d 71e9 783d
00000130: 1ac7 4fb9 4377 873e d3af ad9a 58fa 443e
00000140: 64c3 38ac 35ae 70a5 14cc e83b b10c 4b3e
00000150: 3574 183d 446b 493c 83cd d4a1 d9fb 843d
00000160: 0cbb 0580 34bd 1f3e 9bca ecad 1bf9 a7b4
00000170: 114f 553d 8707 153e 0306 083e fde8 c4ae
00000180: 6eb5 89b9 e0c6 4ea2 890a 883c 93f6 d23d
00000190: 4c9c f63d de85 cf3d 5b90 c4ba ef34 573e
000001a0: 8a23 87b8 0eff 3e3d 6fcf 8d3d fe15 33ae
000001b0: d952 513d 51da 223e 9b83 8eae b446 29a7
000001c0: 320b 8e9a 30f2 343e 6e85 843d 8b4d 2380
000001d0: a978 d1b9 a773 8893 f82b 29af 4ce3 e23d
000001e0: 2c74 27b6 ff7b 9a8e 172d 373d bf84 0939
000001f0: 5005 96b9 41e6 1db8 55da 0680 34de d0a2

features_extractor.vd_extractor.0.bias f4 [128]
-0.00029493272 0.0 -0.00088286697 0.02711665 0.0 -0.004386343 0.0 0.0
-0.0007404901 -0.0010540363 0.0 0.0 0.018443633 0.025679013 0.027759602 -4.330736e-06
0.0 0.025150035 0.029963315 0.006063992 0.020352611 0.026049625 0.019526776 0.026732715
0.0 0.0 0.0 0.02191152 0.026963944 -0.005371812 0.03138401 -0.008371474
0.025756354 -8.2482925e-13 0.0 0.0 -0.00018298184 0.0 -4.284851e-05 0.027619328
0.02091441 0.0 0.0116671 0.0 0.019715576 0.0 -0.001569049 0.0
0.0 0.025033414 0.023542814 -0.00054037094 0.0 0.0 0.0 -0.00022960042
-5.267216e-05 0.011064032 0.016383464 0.02244818 0.03069846 -0.0008226517 0.031164214 0.035697456
0.006107943 -2.6785718e-05 0.0455121 -0.00062793103 0.010927761 0.030794812 -0.00022428801 0.007986245
0.0 0.0 0.0010797527 -0.008592766 -0.00035957052 0.035808068 0.0 0.030192725
0.0 0.0 -0.0050068856 0.025362257 0.029013326 -0.0041218107 0.0 0.020927742
0.0 0.024857845 0.0 -2.4743314e-05 0.05212191 -0.004093551 0.017521948 0.0
-0.00051200436 0.0 0.016639024 0.010063214 0.02010234 0.00013069654 -0.0020031764 0.03485014
-0.000114398994 0.021250578 0.03263972 -5.4245927e-08 0.02295689 0.026324974 0.0 -8.1594564e-10
0.0 0.019724179 0.022356661 0.0 -0.0008122161 0.0 0.0 0.025080096
0.0 0.0 0.0126474025 0.00014436047 -0.00039209754 -0.00021784713 0.0 0.0
00000000: 33a1 9ab9 0000 0000 3370 67ba bd23 de3c
00000010: 0000 0000 50bb 8fbb 0000 0000 0000 0000
00000020: 731d 42ba 9727 8aba 0000 0000 0000 0000
00000030: 1a17 973c cb5c d23c 1b68 e33c bd50 91b6
00000040: 0000 0000 7207 ce3c a075 f53c 74b4 c63b
00000050: 85ba a63c 0666 d53c 9ef6 9f3c 91fe da3c
00000060: 0000 0000 0000 0000 0000 0000 ca7f b33c
00000070: 7de3 dc3c 0606 b0bb 858c 003d 8228 09bc
00000080: fdfe d23c 362b 68ab 0000 0000 0000 0000
00000090: d0de 3fb9 0000 0000 3db8 33b8 ee41 e23c
000000a0: b254 ab3c 0000 0000 5d27 3f3c 0000 0000
000000b0: 8f82 a13c 0000 0000 8ca8 cdba 0000 0000
000000c0: 0000 0000 e012 cd3c dcdc c03c aea7 0dba
000000d0: 0000 0000 0000 0000 0000 0000 e5c0 70b9
000000e0: 4dec 5cb8 ea45 353c 9d36 863c 3fe5 b73c
000000f0: 567b fb3c 39a7 57ba 184c ff3c 7f37 123d
00000100: 2425 c83b e4b1 e0b7 e56a 3a3d bd9b 24ba
00000110: 5a0a 333c 6745 fc3c db2e 6bb9 bdd8 023c
00000120: 0000 0000 0000 0000 7d86 8d3a acc8 0cbc
00000130: bd84 bcb9 7bab 123d 0000 0000 bc56 f73c
00000140: 0000 0000 0000 0000 cd10 a4bb 82c4 cf3c
00000150: 5bad ed3c 4110 87bb 0000 0000 a870 ab3c
00000160: 0000 0000 aea2 cb3c 0000 0000 dd8f cfb7
00000170: c97d 553d 3223 86bb 308a 8f3c 0000 0000
00000180: 0838 06ba 0000 0000 904e 883c 2ee0 243c
00000190: aaad a43c 960b 0939 b947 03bb 05bf 0e3d
000001a0: 7ee9 efb8 b115 ae3c 3ab1 053d 07fc 68b3
000001b0: 1610 bc3c 79a7 d73c 0000 0000 1249 60b0
000001c0: 0000 0000 9a94 a13c 5125 b73c 0000 0000
000001d0: e6ea 54ba 0000 0000 0000 0000 c674 cd3c
000001e0: 0000 0000 0000 0000 0d37 4f3c 785f 1739
000001f0: 7192 cdb9 e56d 64b9 0000 0000 0000 0000

features_extractor.vd_extractor.2.weight f4 [128, 128]
-4.91158e-40 7.864589e-26 -4.93201e-40 -5.505823e-13 4.91185e-40 -4.95646e-40 -3.4195864e-13 -4.92205e-40
-4.90882e-40 9.4177635e-27 4.90576e-40 8.628457e-10 -3.9143797e-33 -7.658042e-21 -1.7585872e-32 -4.9482e-40
6.825837e-13 2.510315e-08 -2.2838444e-07 -4.91776e-40 4.45369e-24 -4.92575e-40 2.061602e-21 -6.052701e-26
-4.91193e-40 1.631453e-11 -4.96009e-40 2.7043553e-22 8.9069957e-23 4.91744e-40 4.91419e-40 -1.04960006e-10
4.016683e-14 -4.95124e-40 -4.91993e-40 1.20776544e-20 -2.8917199e-36 -4.90907e-40 2.463833e-29 8.40173e-27
-8.469343e-17 -2.3532337e-22 -2.0191875e-24 2.1325113e-18 -3.1765032e-07 -4.92544e-40 -5.7680316e-10 1.6504376e-12
8.2668875e-19 4.91595e-40 4.91566e-40 3.7166608e-34 -6.2906302e-09 -9.257019e-08 3.5417856e-28 1.8382516e-20
4.91082e-40 2.323186e-26 4.92831e-40 3.4074334e-33 -4.91703e-40 -8.839372e-32 -1.8271661e-27 2.2471929e-23
1.1854111e-35 -4.91039e-40 -4.91619e-40 2.5789964e-30 2.1081758e-20 -4.1726006e-23 5.499951e-16 4.93567e-40
-4.92783e-40 3.4022996e-09 -4.90715e-40 -9.053104e-06 -4.9117e-40 -2.330773e-24 4.835294e-13 -7.457047e-22
2.8895967e-13 4.91667e-40 9.596625e-29 4.9171573e-31 4.91437e-40 -3.286252e-32 1.437056e-19 -1.666293e-08
-1.8296522e-33 -4.92272e-40 3.33803e-27 -1.302521e-13 1.5147043e-25 -6.173217e-11 -3.4626333e-17 4.92034e-40
-4.90683e-40 -2.5078407e-13 -4.94361e-40 3.8881593e-22 1.6838687e-11 1.2536908e-13 8.699832e-23 4.94548e-40
-4.91997e-40 -4.91287e-40 4.97817e-40 -2.3863005e-19 -2.9123207e-10 -4.91011e-40 -2.3149358e-09 4.95524e-40
-4.9108e-40 5.0649488e-28 -4.91089e-40 3.545009e-09 -2.2705486e-10 -4.90592e-40 1.9682953e-17 -4.93762e-40
-4.91067e-40 4.92062e-40 7.2848736e-25 -4.92273e-40 4.91658e-40 -4.91965e-40 5.43332e-40 -4.92139e-40
-0.00017396086 -5.324172e-15 7.020285e-13 0.051748913 5.085248e-20 -0.03340638 4.2882194e-11 5.36486e-40
0.0020971985 -4.92474e-40 -4.91843e-40 4.92247e-40 0.17671368 -0.28237724 0.18719311 -2.0441683e-16
2.8613225e-27 0.0560069 0.0035433387 0.006149255 0.06508592 0.018529313 0.3098558 0.08200713
-4.91284e-40 7.784002e-10 1.0669986e-11 0.027217602 -0.02006526 -0.0014305816 -0.17360799 -0.0491911
-0.08965453 4.90525e-40 4.9501e-40 -4.92161e-40 2.8226571e-08 1.0883425e-15 1.4030561e-06 -0.31081256
-0.1890659 -9.713265e-21 0.08631572 -1.936505e-21 0.12089288 1.6661159e-09 0.09960269 -4.92404e-40
1.45627e-40 0.16638927 0.097643785 -0.0747782 -9.013672e-23 4.92713e-40 7.296874e-22 1.3684974e-09
-4.92444e-40 -0.046209 -0.005007596 -0.04599533 0.023010898 1.0290415e-35 -0.07954922 -0.08042335
0.011414178 -4.93683e-40 -0.22388056 -1.0111889e-07 0.07464254 0.13915594 4.90921e-40 -0.023963112
-4.90618e-40 -1.3711713e-22 0.0654625 -0.045286797 4.001797e-09 -0.1243578 -3.2782694e-07 0.15490772
-5.887935e-28 5.793931e-10 -9.741943e-07 0.16144218 -0.22218649 0.032013442 -4.93546e-40 -0.13008912
-2.1448202e-32 0.030825237 -7.72482e-39 1.1141168e-17 0.01193606 -0.05748958 -0.119449325 -4.92052e-40
1.8163519e-07 4.92926e-40 0.037359063 -0.18073204 0.051349893 -0.040529873 -9.553753e-25 0.29019788
-4.477165e-10 0.19076264 -0.13283674 -4.90659e-40 -0.12387434 0.22828227 -4.92276e-40 -4.7571046e-26
-5.2602274e-26 0.033908095 -0.051364925 4.93495e-40 -1.5394897e-12 -6.0083916e-37 -4.9168e-40 0.0075092185
4.92332e-40 4.92953e-40 -0.022745633 -0.0001563237 8.0969687e-07 4.91114e-40 2.0096244e-10 4.926e-40
00000000: 2659 0580 c1b7 c215 d85e 0580 a3f9 1aab
00000010: 3959 0500 a965 0580 6f81 c0aa 115c 0580
00000020: 6158 0580 bc89 3a14 8757 0500 5e2d 6d30
00000030: d398 a289 05a8 109e 449f b68a 5b63 0580
00000040: 5721 402b 69a2 d732 d639 75b4 df5a 0580
00000050: 364b ac18 195d 0580 2fc5 1b1d 8ddb 9595
00000060: 3f59 0580 0e81 8f2d ac66 0580 df77 a31b
00000070: a25b d71a c85a 0500 e059 0500 3bcf e6ae
00000080: 34e5 3429 3464 0580 7a5b 0580 f423 641e
00000090: 1500 7684 7358 0580 c3dc f90f d569 2614
000000a0: 2d4a c3a4 873e 8e9b 213a 1c98 005a 1d22
000000b0: 8789 aab4 035d 0580 ea8c 1eb0 4847 e82b
000000c0: d6fe 7321 5e5a 0500 495a 0500 b503 f707
000000d0: f824 d8b1 00cb c6b3 c27c e011 329e ad1e
000000e0: f058 0500 c313 e614 d05d 0500 0c8a 8d09
000000f0: ab5a 0580 b47b e58b 55c3 1093 cd55 d919
00000100: eb1b 7c05 d158 0580 6f5a 0580 a93b 510e
00000110: 901c c71e 4bc6 499a 7a86 1e26 dd5f 0500
00000120: ae5d 0580 e3cd 6931 ea57 0580 c9e2 17b7
00000130: 2f59 0580 b755 3498 f719 082b 1b60 619c
00000140: 7aab a22a 915a 0500 a84d f310 2592 1f0d
00000150: ed59 0500 c8a1 2a8b 5aa8 2920 2c22 8fb2
00000160: 6600 1889 415c 0580 a53b 8413 9da6 12aa
00000170: e582 3b16 1fc0 87ae 8faf 1fa4 975b 0500
00000180: d357 0580 cb2d 8daa 1462 0580 5a06 eb1b
00000190: 5a1d 942d 2d27 0d2a 5a59 d21a 9962 0500
000001a0: 7d5b 0580 8259 0580 b66b 0500 c1dc 8ca0
000001b0: 451b a0af bd58 0580 c814 1fb1 5265 0500
000001c0: ee58 0580 bf83 2012 f558 0580 759c 7331
000001d0: 43a6 79af 9257 0580 0f8b b523 6860 0580
000001e0: e558 0580 ab5b 0500 b774 6117 425c 0580
000001f0: 8b5a 0500 665b 0580 97ea 0500 e25b 0580
00000200: 4369 36b9 d2d2 bfa7 7c9a 452b abf6 533d
00000210: e024 701f 21d5 08bd 0f99 3c2e 81d7 0500
00000220: 2771 093b d15c 0580 0f5b 0580 2f5c 0500
00000230: 6ef4 343e c093 90be 8daf 3f3e 33ad 6ba5
00000240: 84b2 6213 7e67 653d 5c37 683b b17f c93b
00000250: c44b 853d c9ca 973c 6ba5 9e3e 5bf3 a73d
00000260: 8059 0580 0bf7 5530 58b5 3b2d 73f7 de3c
00000270: e65f a4bc 5a82 bbba 4bc6 31be 9b7c 49bd
00000280: cb9c b7bd 6257 0500 e363 0500 f25b 0580
00000290: e376 f232 c0d8 9c26 a450 bc35 d322 9fbe
000002a0: 7e9a 41be 787a 379e 4cc6 b03d 7451 129d
000002b0: b096 f73d 3efd e430 7ffc cb3d 9f5c 0580
000002c0: f395 0100 f361 2a3e 77f9 c73d 5025 99bd
000002d0: edef d99a 7c5d 0500 d488 5c1c b915 bc30
000002e0: bc5c 0580 a645 3dbd c316 a4bb 9965 3cbd
000002f0: 5a81 bc3c 59da 5a05 b4ea a2bd ffb4 a4bd
00000300: 8802 3b3c 3060 0580 f240 65be b326 d9b3
00000310: 30de 983d e57e 0e3e 7d58 0500 4a4e c4bc
00000320: a557 0580 b2c3 259b 3411 863d a67e 39bd
00000330: 2e80 8931 4daf febd 3100 b0b4 21a0 1e3e
00000340: 9b98 3a92 2a43 1f30 10c1 82b5 1951 253e
00000350: db84 63be 8720 033d ce5f 0580 1536 05be
00000360: 1abb de8a 3585 fc3c a81d 5480 ae84 4d23
00000370: 778f 433c 327a 6bbd d9a1 f4bd a45b 0580
00000380: 8007 4334 145e 0500 d105 193d d211 39be
00000390: 4454 523d a702 26bd 51d6 9397 d194 943e
000003a0: 7f22 f6af 4857 433e 5b06 08be c257 0580
000003b0: d4b1 fdbd d4c2 693e 445c 0580 778f 6b95
000003c0: a73c 8295 37e3 0a3d 0764 52bd aa5f 0500
000003d0: f6a9 d8ab 7974 4c83 9b5a 0580 e40f f63b
000003e0: 6c5c 0500 275e 0500 0d55 babc d3ea 23b9
000003f0: f259 5935 0759 0500 e6f5 5c2f 2b5d 0500

features_extractor.vd_extractor.2.bias f4 [128]
0.0 0.0051984913 0.063213415 -1.38223415e-08 0.010330007 0.0034116153 0.028452344 0.020724952
-0.0069384985 -0.0010500335 -0.0020225334 0.03390196 -2.254335e-05 0.021975223 0.0 -0.0008051371
-0.0012718993 0.0 0.025466165 0.0028071043 0.0010077157 0.0 0.024926744 0.0
-0.0038316688 0.030521585 0.0 0.007934022 -4.1302603e-05 0.013027419 0.0 0.0
0.030669846 0.023071906 -0.0010746355 -0.001673722 0.016664116 0.0 0.0 0.0
0.0 0.00026894608 0.0 -0.003935429 0.03448588 0.029382773 0.0 -0.0031079107
0.022328587 0.0111785 0.004578591 0.021790126 -0.0019912873 0.0 -0.00022416872 -4.0554285e-05
0.018184453 -0.0008282543 -0.0031544839 0.008934017 -7.038851e-05 0.005057551 -0.0013077033 0.023264263
-0.0051023825 0.06046287 0.008883664 0.0 0.0 -0.00017209943 -0.00048389367 0.02127468
0.0073055862 0.0 0.025417944 -0.0027361957 0.0 0.0 0.021461645 0.029936347
-0.0005925973 0.019021228 0.0 0.023786858 -0.0026783915 -0.0075641545 0.0 0.02978486
0.0 0.016011106 -0.0018581859 -0.00017766554 -0.0019114859 -0.0001940002 -0.0070064445 0.028842652
0.0 0.011523256 0.03371675 0.027848588 0.018414138 0.015975978 0.025138834 0.02635033
0.018413609 0.020297784 -0.0024857144 -0.0004367653 0.0 0.016490754 -0.0007784505 0.014464411
0.0 0.014743266 -0.00015402533 0.015269247 0.0 -1.7155015e-06 0.023820922 0.011889368
0.016035603 -0.0011570209 0.010360846 0.017456962 0.006624876 0.014230087 -0.004303855 0.024024174
00000000: 0000 0000 1b58 aa3b 0976 813d 4d77 6db2
00000010: 313f 293c 6895 5f3b e414 e93c 60c7 a93c
00000020: 585c e3bb 47a1 89ba 7b8c 04bb c8dc 0a3d
00000030: 7a1b bdb7 6205 b43c 0000 0000 d60f 53ba
00000040: dcb5 a6ba 0000 0000 6b9e d03c 65f7 373b
00000050: 5415 843a 0000 0000 2c33 cc3c 0000 0000
00000060: bc1c 7bbb 6708 fa3c 0000 0000 b3fd 013c
00000070: 553c 2db8 f570 553c 0000 0000 0000 0000
00000080: 543f fb3c 4b01 bd3c c9da 8cba cb60 dbba
00000090: 2f83 883c 0000 0000 0000 0000 0000 0000
000000a0: 0000 0000 5501 8d39 0000 0000 c5f4 80bb
000000b0: 1141 0d3d 24b4 f03c 0000 0000 17ae 4bbb
000000c0: 71ea b63c 0726 373c 0108 963b 3581 b23c
000000d0: 4280 02bb 0000 0000 d50e 6bb9 d518 2ab8
000000e0: 90f7 943c 351f 59ba 75bb 4ebb fc5f 123c
000000f0: 8b9d 93b8 d0b9 a53b 3e67 abba b294 be3c
00000100: e331 a7bb eaa7 773d ca8c 113c 0000 0000
00000110: 0000 0000 9775 34b9 1cb3 fdb9 3d48 ae3c
00000120: b363 ef3b 0000 0000 4b39 d03c bf51 33bb
00000130: 0000 0000 0000 0000 55d0 af3c 123d f53c
00000140: 8858 1bba 68d2 9b3c 0000 0000 a8dc c23c
00000150: f487 2fbb badc f7bb 0000 0000 61ff f33c
00000160: 0000 0000 b929 833c 5f8e f3ba bb4b 3ab9
00000170: d38a faba 886c 4bb9 5196 e5bb 6d47 ec3c
00000180: 0000 0000 0acc 3c3c 931a 0a3d b922 e43c
00000190: 3fd9 963c 0ee0 823c f5ef cd3c a6dc d73c
000001a0: 23d8 963c 8a47 a63c 5ee7 22bb a5fd e4b9
000001b0: 0000 0000 9e17 873c ee10 4cba 23fc 6c3c
000001c0: 0000 0000 bd8d 713c dc81 21b9 dd2b 7a3c
000001d0: 0000 0000 2f40 e6b5 1824 c33c a0cb 423c
000001e0: 195d 833c 2ea7 97ba 8ac0 293c e701 8f3c
000001f0: 7d15 d93b 5025 693c 5a07 8dbb 58ce c43c

mlp_extractor.policy_net.0.weight f4 [192, 256]
-4.93357e-40 4.93162e-40 -2.0055502e-12 -5.518833e-38 4.91514e-40 4.91623e-40 4.91126e-40 -4.91817e-40
4.91046e-40 4.91522e-40 -8.274485e-16 -4.95133e-40 4.90642e-40 -4.93302e-40 4.93351e-40 -1.5731199e-31
-6.205224e-14 4.91625e-40 -4.90627e-40 -4.92122e-40 -1.1495957e-17 4.90816e-40 4.90621e-40 4.91235e-40
-1.9111663e-13 -4.93176e-40 -1.34977264e-17 -1.2768593e-15 -2.8021083e-34 7.4864985e-25 4.844664e-30 4.93911e-40
6.961006e-21 4.91912e-40 -1.9934243e-35 4.92456e-40 -1.0369758e-25 -2.1649602e-37 1.1748402e-09 4.93431e-40
-4.346875e-34 8.728973e-29 -9.5975393e-32 1.4608562e-27 4.94255e-40 4.90937e-40 -7.316667e-15 4.92175e-40
-2.9753831e-28 4.93607e-40 2.1729751e-23 4.9239e-40 -4.94635e-40 5.7590063e-21 -6.385702e-36 4.90878e-40
4.92313e-40 4.91489e-40 4.9167e-40 -4.1415333e-09 4.94182e-40 4.94293e-40 -4.33957e-33 4.91454e-40
-9.043898e-22 -1.28506665e-36 -1.0015615e-27 -7.005708e-24 -8.6756825e-29 4.90897e-40 4.91341e-40 1.8630466e-27
-1.9864912e-05 4.92579e-40 -1.1152041e-35 -4.93457e-40 -1.2725375e-22 3.998725e-24 4.94126e-40 4.93277e-40
-7.334401e-07 -4.94947e-40 -8.8058705e-29 4.94712e-40 4.93354e-40 4.93833e-40 4.92207e-40 4.9114e-40
-1.6002765e-18 4.91403e-40 -6.5468485e-26 -6.229957e-26 -5.871464e-26 4.91745e-40 -2.5165655e-18 4.91801e-40
2.4209969e-26 -4.93281e-40 -4.93399e-40 -1.0411365e-38 -4.93728e-40 4.9421e-40 -1.085401e-26 -4.91155e-40
4.9055e-40 4.9108e-40 4.91454e-40 3.3805663e-26 -4.90823e-40 4.93116e-40 4.9051e-40 -1.0852115e-36
-5.46778e-40 -3.9397607e-38 -4.93704e-40 4.92859e-40 4.90482e-40 -1.5265333e-33 4.91197e-40 9.439654e-31
4.90791e-40 4.93023e-40 4.93268e-40 1.2250338e-30 -4.91933e-40 -3.2113682e-21 4.91341e-40 2.2790964e-34
-3.239221e-30 4.92195e-40 4.91601e-40 1.2087844e-26 4.90595e-40 1.0216665e-12 -4.94735e-40 4.91203e-40
4.92053e-40 -1.5184103e-27 4.90899e-40 4.9268e-40 -1.054059e-18 1.5406844e-10 -3.7599633e-34 -4.9297e-40
4.91803e-40 -4.93934e-40 5.490154e-31 -4.93771e-40 -7.925885e-22 -4.91337e-40 -2.8015427e-22 -4.95096e-40
-4.92063e-40 -2.382135e-39 4.95338e-40 4.91741e-40 -4.92293e-40 9.983847e-16 -3.290848e-23 4.9122e-40
4.90816e-40 4.91001e-40 4.9149e-40 4.92576e-40 4.9199e-40 4.91545e-40 -4.90735e-40 4.91374e-40
6.7589523e-25 -9.0159166e-26 -1.557431e-28 -4.99787e-40 4.90889e-40 -6.9000884e-32 -4.90747e-40 4.9326e-40
4.92545e-40 -4.94517e-40 -4.92611e-40 3.89806e-40 2.750962e-38 -4.91269e-40 -4.92846e-40 -4.94604e-40
3.1813922e-20 -4.5311113e-23 4.91512e-40 -1.4205258e-37 -4.90599e-40 4.91375e-40 3.86451e-40 4.91357e-40
4.92006e-40 -6.41444e-40 -4.90904e-40 4.270732e-36 4.92086e-40 4.6027718e-21 -4.91665e-40 4.92943e-40
-4.613899e-10 4.92398e-40 4.456632e-24 -4.93069e-40 -3.815771e-18 -4.90574e-40 -1.1064639e-37 -6.2174617e-37
3.237132e-23 2.6370173e-12 -4.90623e-40 -1.6311208e-37 4.90518e-40 4.92915e-40 5.663039e-30 4.91693e-40
4.91199e-40 1.0974758e-21 4.92659e-40 -4.90973e-40 -4.90532e-40 4.94295e-40 4.9082e-40 4.933e-40
4.9087e-40 4.905e-40 4.93703e-40 -1.4727111e-29 4.91699e-40 4.90512e-40 4.91641e-40 4.9129e-40
-4.95988e-40 4.9342e-40 4.91309e-40 -4.92388e-40 -4.90752e-40 -1.1120354e-27 -5.492691e-12 4.92348e-40
4.92098e-40 4.90883e-40 8.4347874e-16 4.9182e-40 -2.796403e-33 -4.9676e-40 -3.1355213e-38 1.4818132e-14
-4.91549e-40 7.6369813e-35 -5.4107533e-28 -2.0565023e-34 4.94961e-40 -5.2754905e-25 -1.6280735e-09 4.90536e-40
00000000: 475f 0580 bc5e 0500 c820 0dac a73c 9681
00000010: 245a 0500 725a 0500 0f59 0500 fc5a 0580
00000020: d658 0500 2a5a 0500 ec7e 6ea6 3b64 0580
00000030: b657 0500 205f 0580 435f 0500 e033 4c8c
00000040: aeba 8ba9 735a 0500 ab57 0580 d65b 0580
00000050: 1f10 54a3 3258 0500 a757 0500 5d59 0500
00000060: 9e2d 57aa c65e 0580 36fd 78a3 cb03 b8a6
00000070: 673b ba87 27b2 6717 de85 c40e d360 0500
00000080: 5c7d 031e 405b 0500 2cfa d385 c45c 0500
00000090: 135f 0096 ed56 9382 0478 a130 7c5f 0500
000000a0: 1f73 1088 464e dd10 972a f98b 5e7b e712
000000b0: c861 0500 8858 0500 2cce 03a8 fc5b 0500
000000c0: 5a96 bc91 fa5f 0500 4228 d219 955c 0500
000000d0: d762 0580 b191 d91d 12cf 0785 5e58 0500
000000e0: 5e5c 0500 125a 0500 935a 0500 504d 8eb1
000000f0: 9461 0500 e361 0500 3942 b489 f959 0500
00000100: e3aa 889c 8ca4 da83 29b4 9e92 9682 0799
00000110: 66f4 db90 6c58 0500 a959 0500 139b 1313
00000120: 93a3 a6b7 1c5d 0500 7d2d 6d85 8f5f 0580
00000130: 21d7 199b 74b1 9a18 6c61 0500 0e5f 0500
00000140: 9fe1 44b5 b663 0580 5e41 df90 0e63 0500
00000150: 455f 0500 9b60 0500 135c 0500 1959 0500
00000160: bd28 eca1 d559 0500 9517 a295 0b3f 9a95
00000170: d35e 9195 c95a 0500 94b0 39a2 f15a 0500
00000180: 90c3 ef14 115f 0580 655f 0580 a65e 7180
00000190: 5060 0580 a861 0500 5ffc 5694 2459 0580
000001a0: 7457 0500 ee58 0500 f959 0500 c565 2715
000001b0: 3758 0580 9b5e 0500 5857 0500 a1a3 b883
000001c0: 32f4 0580 4080 5681 3f60 0580 e45d 0500
000001d0: 4457 0500 8ca3 fd88 4259 0500 ca2a 990d
000001e0: 2058 0500 595e 0500 085f 0500 eac5 c60d
000001f0: 4f5b 0580 e5a4 729d a959 0500 d178 9707
00000200: fe65 838e 0a5c 0500 625a 0500 a76c 6f14
00000210: 9457 0500 6ac9 8f2b 1f63 0580 4659 0500
00000220: a55b 0500 0a9a f092 6d58 0500 645d 0500
00000230: 398d 9ba1 6966 292f 76e4 f987 335e 0580
00000240: f25a 0500 e360 0580 6a2a 320d 6f60 0580
00000250: 918b 6f9c a659 0580 c657 a99b 2064 0580
00000260: ac5b 0580 6cf0 1980 cd64 0500 c65a 0500
00000270: 505c 0580 e5e1 8f26 ba22 1f9a 5259 0500
00000280: 3258 0500 b658 0500 135a 0500 1a5d 0500
00000290: 785b 0500 3a5a 0500 f857 0580 c059 0500
000002a0: f02d 5117 2939 df95 876d 4591 3471 0580
000002b0: 6658 0500 f422 b38b 0158 0580 025f 0500
000002c0: 045d 0500 8362 0580 335d 0580 9f3e 0400
000002d0: d0c6 1501 7559 0580 db5d 0580 c162 0580
000002e0: ac3c 161f 711c 5b9a 235a 0500 1a5a 4182
000002f0: 9757 0580 c159 0500 4535 0400 b459 0500
00000300: 835b 0500 16fc 0680 7158 0580 27a8 b504
00000310: bc5b 0500 47e3 ad1d 905a 0580 205e 0500
00000320: dba6 fdaf 9b5c 0500 5868 ac18 7a5e 0580
00000330: f0c6 8ca2 8557 0580 a49a 1682 bb91 5383
00000340: c189 1c1a 4890 392c a857 0580 4404 5e82
00000350: 5d57 0500 0c5e 0500 5cb8 e50e a45a 0500
00000360: 4359 0500 8ad8 a51c 555d 0500 a258 0580
00000370: 6757 0580 e561 0500 3558 0500 1f5f 0500
00000380: 5958 0500 5057 0500 3e60 0500 c459 958f
00000390: a85a 0500 5957 0500 7f5a 0500 8459 0500
000003a0: 9d66 0580 745f 0500 9259 0500 945c 0580
000003b0: 0458 0580 8435 b092 c341 c1ac 775c 0500
000003c0: c55b 0500 6258 0500 bf1d 7326 fe5a 0500
000003d0: ea50 6889 c468 0580 cab6 2a81 4978 8528
000003e0: 3d5a 0580 9a06 cb06 3f79 2b92 93ad 8887
000003f0: c063 0500 be44 2397 bec2 dfb0 6a57 0500

mlp_extractor.policy_net.0.bias f4 [192]
4.93892e-40 0.012927947 -3.9709843e-20 0.019081328 -5.4774846e-10 0.010119896 0.015467442 0.016441997
-5.7908466e-07 0.011674585 0.016230762 0.011597896 0.0048889793 0.0005386695 0.0015195183 0.023464339
-0.00049597106 0.0035727096 -4.92856e-40 0.010804286 -5.3617365e-05 -7.630916e-05 -0.0001479359 -0.00011814398
0.0 -1.7237593e-05 -0.0066052065 0.0029298512 -0.00016831668 0.0020258669 0.007239308 -0.0023421128
-0.0019343562 4.90544e-40 0.019373363 0.006606672 -1.4779642e-05 0.0062526567 -1.3445123e-05 0.011470542
0.011405076 0.026495555 -0.0064419364 0.0125587005 0.0 0.0017382213 -0.007327874 0.006617522
0.0012589691 -5.7141415e-06 0.01555328 -3.2643266e-10 -1.8670826e-07 0.0009462816 -0.0066362685 -1.4601692e-05
0.009415375 0.0036409905 0.004027151 -0.0032558038 -0.012987716 0.015259931 -5.751854e-06 -0.0070965574
-0.0010981235 0.0015281875 -0.002091857 0.0069599478 0.009853276 0.008398226 0.019418692 0.02405808
0.01860554 -0.0021995108 0.0046399073 0.005769178 -7.133911e-05 0.019651651 -1.317874e-09 0.003248054
0.015317009 0.008158884 0.0005242755 -1.3519184e-05 -4.90508e-40 0.013258742 0.002869079 0.011599916
-0.0012397206 0.0031043552 0.018929422 0.025201963 0.009491848 0.0065392647 0.0 0.0017616098
0.016694838 -4.3722974e-20 0.0058124256 0.004408442 0.015376863 0.016380588 0.036466636 -0.008704722
0.021219268 0.011613794 0.01965334 0.031254236 4.95056e-40 0.023936072 -0.00919343 0.0018390813
-0.012759969 0.001905814 -6.6751825e-05 -0.00022460951 0.007961946 5.00252e-40 0.025919573 0.00026903095
-0.006957167 0.014133406 -0.013967962 -0.0024536748 0.009595687 0.014932422 -7.797746e-09 0.006179652
0.013675441 1.2402458e-35 -0.0017416851 0.0041419743 -0.010965201 0.0 0.030690622 0.0034588575
-6.536833e-08 0.00909353 0.039179835 0.010481391 0.000106081185 -0.009948502 0.0077984207 0.0062925755
-0.002228016 -0.0049820207 -3.452628e-06 0.0034204903 0.005997392 0.010872902 -3.6760775e-05 0.0016092137
0.0056195594 0.009192442 -0.007884491 0.00738511 -0.0011553223 0.03572516 -4.911e-40 -2.0876973e-07
-0.0043394966 0.0005538371 -0.00013338968 0.009112232 0.0 -0.0066013886 0.035449114 -0.0028628514
0.0070662573 -0.0038124882 -0.004714292 0.027257644 -0.009746478 0.0023652911 0.018386222 0.001755092
0.005827221 -0.00039475705 -0.004318389 0.0103294905 0.012309578 -0.0013465434 0.0058326432 0.017503263
0.0008099929 0.009390241 0.00964037 0.007630094 0.0069737304 0.029351467 -0.009324501 -0.00012516891
00000000: c560 0500 bdcf 533c 4186 3b9f 7250 9c3c
00000010: 5f90 16b0 eccd 253c 276b 7d3c 5eb1 863c
00000020: 6572 1bb5 c246 3f3c 60f6 843c 1a05 3e3c
00000030: bb33 a03b 8035 0d3a 932a c73a 4938 c03c
00000040: 0e04 02ba 1f24 6a3b e25d 0580 7604 313c
00000050: 35e3 60b8 2b08 a0b8 3e1f 1bb9 11c4 f7b8
00000060: 0000 0000 7399 90b7 7d70 d8bb bf02 403b
00000070: 2a7e 30b9 68c4 043b b837 ed3b 227e 19bb
00000080: 398a fdba 7057 0500 e3b4 9e3c c87c d83b
00000090: 14f6 77b7 16e3 cc3b 5d92 61b7 f1ee 3b3c
000000a0: 5bdc 3a3c 350d d93c e116 d3bb 02c3 4d3c
000000b0: 0000 0000 07d5 e33a aa1e f0bb ccd7 d83b
000000c0: fe03 a53a 1abc bfb6 2fd3 7e3c 5075 b3af
000000d0: fa79 48b4 e20f 783a 0e75 d9bb caf9 74b7
000000e0: f242 1a3c af9d 6e3b 31f6 833b 535f 55bb
000000f0: 6eca 54bc ca04 7a3c 0d00 c1b6 3d8a e8bb
00000100: e9ee 8fba 774d c83a 8917 09bb 4610 e43b
00000110: a36f 213c b798 093c f313 9f3c 7315 c53c
00000120: a56a 983c ab25 10bb 5d0a 983b 5f0b bd3b
00000130: e59b 95b8 80fc a03c 9220 b5b0 4edd 543b
00000140: 31f4 7a3c d7ac 053c 896f 093a 74d0 62b7
00000150: 5657 0580 323b 593c 2807 3c3b 930d 3e3c
00000160: 1f7e a2ba 7072 4b3b e011 9b3c 5974 ce3c
00000170: b283 1b3c 5447 d63b 0000 0000 d1e5 e63a
00000180: 9dc3 883c d579 4e9f 2976 be3b b174 903b
00000190: 3def 7b3c 9530 863c 0a5e 153d 409e 0ebc
000001a0: 08d4 ad3c c847 3e3c 0b00 a13c 7104 003d
000001b0: 0464 0500 9515 c43c 0aa0 16bc 540d f13a
000001c0: 300f 51bc 82cc f93a 1dfd 8bb8 2885 6bb9
000001d0: d272 023c 8072 0500 4955 d43c b90c 8d39
000001e0: f2f8 e3bb cd8f 673c e1d9 64bc d5cd 20bb
000001f0: 3a37 1d3c 1ea7 743c d9f6 05b2 ae7e ca3b
00000200: f50e 603c b4e2 8305 4149 e4ba 66b9 873b
00000210: 63a7 33bc 0000 0000 e66a fb3c 00ae 623b
00000220: 9f60 8cb3 07fd 143c 097b 203d 24ba 2b3c
00000230: e777 de38 0bff 22bc e589 ff3b f331 ce3b
00000240: e803 12bb 3840 a3bb b3b3 67b6 4e2a 603b
00000250: c585 c43b 4224 323c 952f 1ab8 40ec d23a
00000260: 4824 b83b e59b 163c f42d 01bc cbfe f13b
00000270: 2f6e 97ba 8c54 123d fd58 0580 302a 60b4
00000280: 5632 8ebb 612f 113a 85de 0bb9 794b 153c
00000290: 0000 0000 7650 d8bb 1733 113d ad9e 3bbb
000002a0: 108c e73b f0da 79bb 597a 9abb 6c4b df3c
000002b0: b1af 1fbc 0003 1b3b b49e 963c 1d0b e63a
000002c0: 46f2 be3b 65f7 ceb9 4681 8dbb 063d 293c
000002d0: 1dae 493c 807e b0ba c21f bf3b 0163 8f3c
000002e0: b455 543a 86d9 193c a4f2 1d3c de05 fa3b
000002f0: e483 e43b 7d72 f03c cbc5 18bc c63f 03b9
