waypoint_state_413_low_velocity_dynamic_2.onnx (onnx, 694169 bytes, 20 tensors)

log_std f4 [4]
0	0xbe85ee0c	-0.26158178
1	0xbe8d3403	-0.27578744
2	0xbe828af6	-0.25496644
3	0xbe677b48	-0.22605622

features_extractor.state_extractor.0.weight f4 [128, 16]
0	0xbde4a199	-0.11163635
1	0xbdeb26ef	-0.11482035
2	0xbdb24187	-0.087039046
3	0x3c80a38b	0.015702983
4	0x3c283624	0.010266814
5	0x3d82a78f	0.063796155
6	0x3d133219	0.03593645
7	0x3e3168da	0.17325154
8	0xbbab9bcf	-0.0052370797
9	0x3ea5f93d	0.32416716
10	0x3d5444a5	0.051823277
11	0xbd2d9681	-0.04237986
12	0x3cfbb1c8	0.030724421
13	0xba9a1c12	-0.0011757633
14	0xbd083a1f	-0.033258554
15	0x3d9dab2a	0.076986626
16	0x3e107fce	0.14111254
17	0xbe15a56c	-0.14613885
18	0xbdfc4482	-0.12317754
19	0xbc9171bf	-0.017754434
20	0x3d8c175a	0.068403915
21	0xbcbc0297	-0.022950454
22	0xbba35920	-0.0049849898
23	0x3e264158	0.16235864
24	0x3e0583bf	0.13038538
25	0xbda891f4	-0.08230963
26	0xbd6dd336	-0.058062755
27	0xbecf25cc	-0.40458524
28	0x3babe8a1	0.0052462374
29	0x3d7bc5d7	0.06146797
30	0x3da47ce7	0.08031636
31	0xbcb697fd	-0.02228927
32	0xbd83f84e	-0.06443845
33	0x3a8c67f4	0.0010712133
34	0xb8934c8c	-7.023764e-05
35	0xbcd857e5	-0.026409099
36	0x3bc683ff	0.0060582156
37	0xb71d1dd5	-9.364875e-06
38	0xbcf98f60	-0.030463874
39	0xb4d02136	-3.8767183e-07
40	0x3ba0c695	0.0049064853
41	0xb59d454b	-1.1717578e-06
42	0xbcf2313e	-0.029564496
43	0xba6ed4bd	-0.000911068
44	0x393908d3	0.00017646262
45	0xaae96b9f	-4.1463791e-13
46	0x269adafa	1.074525e-15
47	0xa48b783a	-6.048531e-17
48	0xbdefb84e	-0.11705075
49	0x3dc6cb1d	0.097067095
50	0xbe29622a	-0.16541353
51	0x3d29b1ef	0.041429456
52	0xbe643cb8	-0.22288787
53	0xbe09dba6	-0.13462695
54	0x3e9de5b3	0.3083931
55	0xbe93029a	-0.28712922
56	0xbe281354	-0.16413623
57	0x3a483720	0.0007637609
58	0xbe31f585	-0.17378815
59	0xbd3e2a0b	-0.046426814
60	0xbe882fb2	-0.2659889
61	0xbdeb8f41	-0.11501933
62	0xbd851c33	-0.06499519
63	0x3dcbd50b	0.09952744
64	0x3d5bc3f2	0.053653665
65	0x3d8b668e	0.0680667
66	0x3ca24ad3	0.01981107
67	0x3df3e1fa	0.11908336
68	0x3df0ea22	0.11763407
69	0x3e8f2cc3	0.27963838
70	0xbdecb251	-0.11557449
71	0xbd246755	-0.040137608
72	0xbcfc247b	-0.030779114
73	0xbd885026	-0.06655912
74	0x3e977edc	0.29588974
75	0x3eb05f8c	0.34447896
76	0xbd0ff9e5	-0.035150427
77	0x3d933294	0.071873814
78	0xbcacade0	-0.021079004
79	0xbd735572	-0.05940766
80	0x3d4c393d	0.049859274
81	0x3d74fcdc	0.059811458
82	0x3c069ea8	0.008216538
83	0x3e1cb993	0.15305166
84	0x3d5222d7	0.051302757
85	0xbcbdf306	-0.023187172
86	0x3b0dd52d	0.0021641955
87	0xbd9abc4d	-0.07555447
88	0xbd6d04bd	-0.057865847
89	0x3e4e0a35	0.20121081
90	0x3e25ad4e	0.16179392
91	0xbd22d132	-0.039750285
92	0x3cdf27d2	0.027240667
93	0x3d27f03f	0.0410006
94	0xbdd6fffe	-0.104980454
95	0x3d0a5a0c	0.03377728
96	0xbd57d5d4	-0.052694157
97	0xbd4ea739	-0.050452445
98	0x3cb27000	0.021781921
99	0xbde684eb	-0.11255821
100	0xbdc1ec1b	-0.09468862
101	0x3c7a7226	0.015286004
102	0xbe0d22e9	-0.13782848
103	0xbcddeb1b	-0.027089646
104	0x3bd04c31	0.006356739
105	0xbd42ae08	-0.04752925
106	0xbc81e082	-0.015854124
107	0x3ccd6283	0.025071388
108	0x3bba0224	0.0056765247
109	0x37fa84ce	2.9864164e-05
110	0x33039af0	3.064173e-08
111	0x358c5ffc	1.0458748e-06
112	0xbdf09852	-0.11747803
113	0xbe162d4f	-0.14665721
114	0x3c41dbd8	0.0118322
115	0xbd8a3252	-0.06747879
116	0xbd7834c7	-0.060597207
117	0xbde912a7	-0.11380511
118	0xbe2248fe	-0.15848157
119	0xbd377440	-0.0447886
120	0x3c9bc1da	0.019013334
121	0x3c63be83	0.013900402
122	0x3e33f1c9	0.17572702
123	0xbd11a85e	-0.035560958
124	0x3afa198e	0.0019081102
125	0x38387062	4.3973683e-05
126	0xbbf62f40	-0.007512957
127	0x3b270aa4	0.002548852
128	0x3c89abc3	0.016805535
129	0x3e95459e	0.29154676
130	0x3d414013	0.047180247
131	0x3e712dd5	0.2355264
132	0x3c83b4bf	0.016077397
133	0xbe31b612	-0.1735461
134	0xbd0ff35f	-0.035144206
135	0x3b0232ca	0.0019866698
136	0x3d3d898a	0.046273746
137	0xbdaf364c	-0.08555278
138	0xbe3e74f8	-0.18599308
139	0x3e23d00b	0.15997331
140	0x3ce8e3cf	0.02842894
141	0xbc3bbb5b	-0.011458243
142	0xbd06c8de	-0.032906406
143	0x3b89859d	0.004196836
144	0x3d9354e2	0.071939245
145	0xbcd3ff8d	-0.025878692
146	0xbdada604	-0.084789306
147	0xbe57a710	-0.21059823
148	0x3c98dd1d	0.018660123
149	0x3e027f55	0.12743886
150	0x3ea4532c	0.32094705
151	0x3e458201	0.19287874
152	0x3df5509b	0.11978265
153	0x3e944a2c	0.2896284
154	0xbdd132f5	-0.102147974
155	0xbdcdd0e8	-0.10049611
156	0xbd8bb60c	-0.06821832
157	0xbcd88d67	-0.026434613
158	0x3c8f4215	0.017487565
159	0x3cb442e2	0.022004548
160	0xbe2b60bc	-0.1673612
161	0x3daae41a	0.08344288
162	0xbcc26262	-0.023728553
163	0xbe2036c8	-0.15645897
164	0x3d030aac	0.0319926
165	0x3e097ae1	0.13425781
166	0xbb055d06	-0.0020349636
167	0xbddb5c54	-0.107109696
168	0xbd6bbdeb	-0.057554167
169	0x3e173df5	0.14769728
170	0xbd59bc0b	-0.053157847
171	0x3d083fed	0.03326409
172	0x3d20eaa1	0.03928626
173	0x3c1d6581	0.00960672
174	0xbc537666	-0.012906646
175	0xbc733739	-0.014844709
176	0xbd996e1c	-0.07491705
177	0xbe14a440	-0.14515781
178	0x3da84ffa	0.08218379
179	0x3b6eed90	0.0036457516
180	0x3d4d0622	0.050054677
181	0x3dda6f95	0.10665814
182	0x3d0b888d	0.03406577
183	0x3d86e349	0.0658632
184	0xbc89877c	-0.016788237
185	0x3e30cca4	0.17265564
186	0xbda28309	-0.07935149
187	0x3d985d25	0.07439641
188	0x3d8e8019	0.069580264
189	0xbda736e3	-0.08164766
190	0x3ba20196	0.0049440367
191	0x3daeff6e	0.08544813
192	0x3d4d475d	0.050116885
193	0x3e5a3cb2	0.21312216
194	0x3e0cbdfe	0.13744351
195	0x3d93006a	0.07177813
196	0x3e43d8d0	0.19125676
197	0xbd82e0bb	-0.0639052
198	0x3cacda98	0.021100327
199	0xbd997612	-0.07493223
200	0xbcccf249	-0.025017874
201	0xbdf3f0bd	-0.119111516
202	0xbd9d0b1a	-0.07668133
203	0x3d98f79c	0.07469103
204	0x3c4eed78	0.012629859
205	0x3d1cfedf	0.038329
206	0xbbc4097b	-0.0059825755
207	0x3d1e584c	0.038658425
208	0xbda143d9	-0.07874269
209	0xbeb8a0de	-0.36060232
210	0x3d46951b	0.04848204
211	0xbd804b3f	-0.06264352
212	0x3e6d4da3	0.23174147
213	0x3d7239b2	0.059137054
214	0xbc80a7e0	-0.015705049
215	0x3e55ade2	0.20867112
216	0xbdef126d	-0.11673436
217	0x3d82b89f	0.0638287
218	0x3d418ada	0.04725156
219	0xbe1528bd	-0.14566322
220	0x3b1453dd	0.0022632994
221	0x3c089100	0.008335352
222	0x3d14a8ef	0.03629392
223	0x3b56fa8b	0.0032803144
224	0x3da9d127	0.08291846
225	0xbe59a4c8	-0.21254265
226	0xbe26aeab	-0.16277568
227	0xbbe9a9f2	-0.0071308548
228	0x3dd50c0c	0.104026884
229	0x3d6f9dd3	0.058500122
230	0x3d6561d7	0.05600151
231	0x3e766ce6	0.24064979
232	0xbdb001f6	-0.08594124
233	0x3d985bcf	0.07439386
234	0x3e485b44	0.19566065
235	0xbec3d771	-0.38250306
236	0x3d6334ab	0.05547015
237	0x3e66100f	0.22467063
238	0x3d6c2a56	0.057657562
239	0x3c4b624a	0.012413571
240	0xbe106043	-0.14099221
241	0x3cd774fd	0.026300902
242	0xbda3ceff	-0.07998466
243	0x3e2cc23c	0.1687097
244	0x3d40bba0	0.047053933
245	0x3ce3ef95	0.027824203
246	0xbbe12f37	-0.0068720835
247	0xbd35435a	-0.044253685
248	0xbd6e95b5	-0.05824824
249	0x3e53a666	0.20668945
250	0xbe32fc4e	-0.17479059
251	0x3d63b9f8	0.055597275
252	0x3e043eaa	0.1291453
253	0x3d94e258	0.07269734
254	0x3d7d113e	0.06178402
255	0x3c08c4b3	0.008347678

features_extractor.state_extractor.0.bias f4 [128]
0	0x3c88b79b	0.016689112
1	0x3a6bf666	0.0009001255
2	0xbc2419e8	-0.010015942
3	0x3af63630	0.001878446
4	0xbd6c5ab9	-0.057703707
5	0x3c783fdb	0.015151943
6	0x3c48118c	0.012211215
7	0x3c915055	0.0177385
8	0x3cf88620	0.030337393
9	0x3c27aca1	0.010234029
10	0xbbec7173	-0.0072156726
11	0xbb8ab81a	-0.0042333724
12	0x3c344274	0.011002172
13	0x3cc2aa1a	0.023762751
14	0x3c47c196	0.012192151
15	0x3d56f03b	0.052475195
16	0x3ce60788	0.028079763
17	0x3c0487ea	0.008089045
18	0x3cf91949	0.030407565
19	0xbca9cba1	-0.02072698
20	0x3d086c96	0.03330668
21	0x3c885946	0.016644131
22	0x3d0d4df9	0.03449819
23	0xbc289b41	-0.010290922
24	0x3ca497d3	0.020091927
25	0xbbeef66b	-0.007292559
26	0xbaf3d46f	-0.0018602739
27	0x3c088882	0.008333327
28	0x3b5333d0	0.0032226928
29	0x3d2649ba	0.040597655
30	0x3d06d766	0.032920264
31	0x3d0174d0	0.03160554
32	0x3b511793	0.003190492
33	0x3c2ce184	0.010551814
34	0x3c8bb4d7	0.017054005
35	0x3d07ab87	0.033122566
36	0x3b24409c	0.0025062924
37	0x3cbdfa6f	0.023190705
38	0x3c8cd730	0.017192453
39	0x3c2c685d	0.010522929
40	0x39136d41	0.00014059713
41	0xbc529bf3	-0.012854564
42	0x3d588f77	0.052871194
43	0x3c655509	0.013997325
44	0x3cb4d767	0.022075368
45	0xb985692d	-0.000254461
46	0x3db04fa4	0.0860894
47	0x3c12d0da	0.008960927
48	0x3dffe18c	0.124941915
49	0x3c43fd26	0.011962211
50	0x3ca57c2f	0.020200817
51	0x3c42f151	0.011898355
52	0xb8c09fcb	-9.185037e-05
53	0x3b010e6b	0.0019692432
54	0x3c6c8a43	0.014437261
55	0x3cd27f67	0.025695516
56	0xbd02f441	-0.03197122
57	0x3c600799	0.013673686
58	0x3d27a4cd	0.04092865
59	0x3d9469ab	0.07246717
60	0x3c05ecac	0.008174103
61	0x3c9ad95c	0.018902473
62	0x3b602a36	0.0034204847
63	0xbc29be7e	-0.010360358
64	0xb9ab2537	-0.0003264339
65	0x3c7cbf67	0.015426493
66	0xbb231e38	-0.0024889838
67	0x3d8874ff	0.0666294
68	0xbc884f75	-0.01663945
69	0x3d09de1e	0.033659093
70	0x3b4312b3	0.0029765784
71	0x3ced3b56	0.028958958
72	0x3baea70d	0.0053299726
73	0x3c6316c5	0.013860409
74	0x3a03adf7	0.0005023176
75	0xbb30ced7	-0.0026978755
76	0xbce9ebb9	-0.028554784
77	0x3d28cab3	0.041208934
78	0x3c2fb84f	0.010725095
79	0xba3a4f01	-0.00071071094
80	0x3c26c3b0	0.0101784915
81	0x3cfd8c8b	0.030950805
82	0x3cbbf41f	0.022943554
83	0x3cc16890	0.02360943
84	0x3d0fbdb4	0.035093024
85	0x3c0c1353	0.008549529
86	0x3a7fe5a1	0.00097616954
87	0x3cf0fb7b	0.02941679
88	0x3da806b6	0.08204405
89	0x3d489765	0.048972506
90	0x3c27b96f	0.010237082
91	0x3d406c81	0.046978477
92	0x3b228f4e	0.0024804655
93	0x3c23ef52	0.010005789
94	0xbb90d96d	-0.0044204504
95	0xbc807e9a	-0.015685368
96	0x3c671d40	0.014106095
97	0xbbdfcb60	-0.006829664
98	0x3c957d64	0.018248267
99	0x3cbf9961	0.023388566
100	0x3c13d384	0.009022597
101	0xbb7a4b11	-0.0038191716
102	0x3ca339b3	0.019924974
103	0x3c6fd46a	0.014638046
104	0xbb985dd3	-0.0046498566
105	0x3cb192a0	0.021676362
106	0x3d677c36	0.05651494
107	0x3c23bcae	0.009993715
108	0x3c75727a	0.014980907
109	0xbb8dd474	-0.004328305
110	0x3dc3a1c6	0.0955234
111	0xbc5bff09	-0.013427504
112	0x3c73cc22	0.014880212
113	0xb773ecbd	-1.4539049e-05
114	0xbbaeb4cc	-0.0053316113
115	0x3c516726	0.01278094
116	0x3cb0eeb8	0.021598205
117	0x3d0c8f07	0.03431609
118	0xbc0ce221	-0.008598835
119	0x3c630f34	0.013858605
120	0x3c9a82cb	0.018861195
121	0x3c85bab8	0.016324386
122	0x3c05ea08	0.008173473
123	0x3cb8c7dd	0.02255624
124	0xbc0f8d7e	-0.008761762
125	0x3c98e3f4	0.018663384
126	0x3c84d892	0.01621655
127	0x3cc98385	0.024598846

features_extractor.state_extractor.2.weight f4 [128, 128]
0	0xbd1a5342	-0.037677057
1	0x3e705754	0.23470813
2	0xbb295615	-0.0025838662
3	0xbe6c4295	-0.23072274
4	0xbc508363	-0.012726638
5	0xbd8dd927	-0.06926184
6	0x35441f96	7.3061653e-07
7	0x3ce1b0ee	0.027550187
8	0x3e5d4e72	0.21611956
9	0x3d95229b	0.07281991
10	0xbd7336d0	-0.059378445
11	0xbe4eae5e	-0.20183703
12	0xbc5620a9	-0.01306931
13	0x3d10b4cf	0.035328683
14	0xbe15717e	-0.14594075
15	0xbe4ad2a5	-0.19806917
16	0x3cfe7bdc	0.03106492
17	0xbe496bfe	-0.19670102
18	0x3d99ea8f	0.075154416
19	0xbd17cd9d	-0.037061322
20	0xbcd355ee	-0.02579781
21	0xbe03e2f8	-0.1287955
22	0xbcccb198	-0.024987027
23	0x3d4552e4	0.048174754
24	0x3e175cd0	0.14781499
25	0x3d673578	0.056447476
26	0x3d00d2d4	0.03145106
27	0x3d63c600	0.05560875
28	0xbcdbe3f5	-0.026842097
29	0x3dd33cb5	0.10314313
30	0x3e8f3368	0.27968907
31	0x3dbf459f	0.09339451
32	0xbcacdc27	-0.02110107
33	0x3dd8e5a2	0.10590674
34	0x3da2080f	0.07911693
35	0x3bae6763	0.0053223833
36	0xbde2e072	-0.11077966
37	0xbe1f6821	-0.15567066
38	0x3e46c333	0.194104
39	0x3e00239f	0.12513588
40	0xbce48363	-0.027894681
41	0x3dbf0d6c	0.09328732
42	0x3dcb36d1	0.09922565
43	0xbdf3cd42	-0.11904384
44	0xbd85812a	-0.06518777
45	0x9b283c18	-1.3916052e-22
46	0x3d95f7eb	0.07322677
47	0x3d55a815	0.05216225
48	0x3d72e102	0.059296615
49	0x3e374f81	0.17901422
50	0x3daae327	0.08344107
51	0xbcc50f33	-0.0240551
52	0x1c392897	6.1263826e-22
53	0xbd40cb2c	-0.04706876
54	0xbd250c06	-0.04029467
55	0xbe50a683	-0.20376019
56	0xbcf7096b	-0.030155858
57	0xbcd99a3c	-0.026562802
58	0xbb7c3071	-0.0038481022
59	0x3dc59f25	0.09649495
60	0xbcbe1b0e	-0.02320626
61	0xbd30dfb8	-0.043182105
62	0x3e4fb353	0.2028325
63	0x3dde3c95	0.10851399
64	0xbca852b8	-0.020547256
65	0x3e3dff5c	0.18554443
66	0xbddfb3ae	-0.10922943
67	0xbc1f2240	-0.009712756
68	0x3d360aa2	0.044443734
69	0x3e322b85	0.17399414
70	0x2e14778d	3.3757486e-11
71	0x3e513c6a	0.20433202
72	0x3e682838	0.22671592
73	0xbdc32830	-0.095291495
74	0x3e298bfd	0.16557308
75	0x3e36eebc	0.17864507
76	0xbd4cc159	-0.04998908
77	0xbdcfd167	-0.10147362
78	0x3c841f4d	0.016128207
79	0x1a6884a5	4.8083625e-23
80	0x3c2e0030	0.010620162
81	0x3c11c075	0.008895983
82	0x3d0abcd3	0.033871483
83	0xbd1b1d1e	-0.037869565
84	0x3e224dfb	0.1585006
85	0x3e238ccc	0.15971678
86	0xbe0029ee	-0.12515995
87	0x3e55d12e	0.20880577
88	0x3e650393	0.22364645
89	0xbe12af4d	-0.14324684
90	0x3cc5f649	0.02416529
91	0x3ebcef16	0.36901158
92	0xbcfe37ad	-0.031032408
93	0xbe1f77f2	-0.155731
94	0x3e2898bc	0.16464514
95	0xbda7ab9e	-0.0818703
96	0x3cf02535	0.029314617
97	0x3e31175b	0.17294066
98	0xbe79a6ea	-0.24380079
99	0xbcd0947b	-0.025461426
100	0x3e27463c	0.16335386
101	0xbbb8ad91	-0.005635925
102	0x3ca1c30d	0.019746328
103	0xbe6b5e4c	-0.2298519
104	0xbc4311d1	-0.011906103
105	0xbe157169	-0.14594044
106	0xbde87694	-0.11350742
107	0xbe96a139	-0.29419878
108	0x3be2f734	0.0069264416
109	0xbd252119	-0.040314768
110	0xbb96a9cf	-0.0045978795
111	0xb9f0bf6b	-0.00045918985
112	0xbe65265f	-0.22377919
113	0x00055ef5	4.93242e-40
114	0x3e4c7aef	0.1996877
115	0xbe30f6f6	-0.17281708
116	0x3dbcec6e	0.09224783
117	0x3d8bd736	0.068281576
118	0xbcddeebf	-0.027091382
119	0x3e6b0319	0.229504
120	0x3d008a83	0.031382095
121	0xbc08ed23	-0.008357319
122	0x3e5bba1f	0.21457718
123	0x3e1137e9	0.14181484
124	0x3dc9200d	0.09820566
125	0x3cf5e6ab	0.030017218
126	0xba8e3718	-0.001085016
127	0xbd9ace76	-0.075589105
128	0xbd1c9aa3	-0.03823341
129	0x3c7ec5fe	0.015550135
130	0xb70becfe	-8.340225e-06
131	0x3d9f586c	0.07780537
132	0xbd646db5	-0.055768687
133	0x3d75cc1b	0.060009103
134	0xb4107239	-1.3452599e-07
135	0x3b856712	0.004071125
136	0xbe153da1	-0.14574291
137	0xbe89b8a8	-0.26898694
138	0xbccbc87f	-0.024875877
139	0x3df1b655	0.11802355
140	0xbdb82923	-0.08992221
141	0x3e19a857	0.15005623
142	0xbd24de5d	-0.040251125
143	0x3e6c9c45	0.23106487
144	0x3dbe403e	0.09289597
145	0xbe44fbbf	-0.19236659
146	0x3ea39b0a	0.31954223
147	0x3d826b8d	0.0636817
148	0xbc1410c1	-0.009037198
149	0x3b992d7c	0.0046746116
150	0x3c26bc9d	0.010176805
151	0xbd6eed12	-0.058331557
152	0xbd392dc5	-0.045209665
153	0xbdf12cf1	-0.1177615
154	0xbcfef2f1	-0.031121703
155	0x3e4eec0f	0.20207237
156	0x3d7a7387	0.06114533
157	0xbd1f331c	-0.0388671
158	0x3e2b9e46	0.16759595
159	0x3d855365	0.06510047
160	0x3dcf1a93	0.101124905
161	0x3d84ee9b	0.06490823
162	0x3ea32f0d	0.31871834
163	0xbb87c819	-0.0041437265
164	0xbdcf93d2	-0.10135616
165	0x3df6e065	0.120545186
166	0xbdfd7e2a	-0.123775795
167	0xbe268697	-0.1626228
168	0x3e8b8a19	0.27253798
169	0x3e3daad3	0.18522196
170	0x3e08926d	0.13337107
171	0xbe7daa05	-0.24771889
172	0xbdcbc348	-0.09949356
173	0x000557bc	4.9065e-40
174	0x3e11331b	0.14179651
175	0xbdb1f768	-0.08689767
176	0x3d51c951	0.05121738
177	0xbce1c820	-0.027561247
178	0x3d7fa463	0.06241263
179	0xbab8e9f6	-0.0014107812
180	0x26886559	9.464366e-16
181	0x3ce68c3d	0.028143043
182	0x3d1fa52a	0.038975872
183	0xbbc60c6a	-0.0060439603
184	0xbe10205e	-0.14074847
185	0x3cac4048	0.021026745
186	0xbca3a047	-0.019973887
187	0x3eab8449	0.33499363
188	0xbd66d73e	-0.056357615
189	0xbdc8790d	-0.097887136
190	0xbe38ec75	-0.18058951
191	0xbe0aa8a5	-0.13540895
192	0xbe6252aa	-0.22101846
193	0x3dc80df8	0.09768289
194	0xbd80d159	-0.0628993
195	0xbd7bac27	-0.061443474
196	0xbe7210e4	-0.23639256
197	0x3dbeb2b6	0.0931143
198	0x37c5d716	2.3584387e-05
199	0x3dc88160	0.09790301
200	0xbd702762	-0.05863131
201	0xbbb29310	-0.00544966
202	0xbc98e7e5	-0.018665263
203	0xbdbc7671	-0.092022784
204	0xbd4c901b	-0.049942117
205	0x3e52ab9a	0.20573273
206	0x3dd172ee	0.10226999
207	0x847c40da	-2.9652236e-36
208	0xbbb04c08	-0.0053801574
209	0x3d236daa	0.039899506
210	0x3bb74af4	0.005593652
211	0xbe3c5f33	-0.1839569
212	0x3e4abfea	0.19799772
213	0x3da41de1	0.080135114
214	0x3e1ca727	0.15298139
215	0x3d598128	0.05310169
216	0x3d93400c	0.0718995
217	0x3ca0c525	0.019625256
218	0x3c9a3405	0.018823633
219	0x3e0231ab	0.1271426
220	0xba915b07	-0.001108975
221	0xbe1874c4	-0.14888293
222	0x3df95559	0.12174482
223	0x3dc29a16	0.09502046
224	0xbc7d58d6	-0.015463075
225	0x3d073180	0.03300619
226	0x3e811626	0.2521221
227	0x3e0ea7c2	0.13931182
228	0xbe0ed3b7	-0.1394795
229	0xba972d69	-0.0011533919
230	0xbe4f9285	-0.20270737
231	0x3e175323	0.14777808
232	0x3d298477	0.041386094
233	0x3dbde666	0.09272461
234	0xbdabb896	-0.08384816
235	0x3c709d45	0.0146859335
236	0x3d96c591	0.073619016
237	0x3c42b1cd	0.011883211
238	0x3e0b221d	0.13587232
239	0xb9579b13	-0.00020561767
240	0xbca74fb1	-0.020423742
241	0x388ef846	6.817332e-05
242	0x3d6998e2	0.057030566
243	0xbe2aa7d5	-0.16665585
244	0xbe390942	-0.18069938
245	0x3e837dda	0.25681955
246	0x3b27ccd3	0.0025604262
247	0xbdff54f7	-0.12467378
248	0xbb364787	-0.002781363
249	0x3e065607	0.13118754
250	0xbdb47721	-0.088117845
251	0x3e5bcdf6	0.21465287
252	0xbdfe348f	-0.124123685
253	0x3bb2b557	0.0054537463
254	0xb9b90a1c	-0.00035293482
255	0x3e4c7f2c	0.19970387

features_extractor.state_extractor.2.bias f4 [128]
0	0x3c8bd6b7	0.017070157
1	0x3c8d04fe	0.017214295
2	0x3bb0c584	0.0053946394
3	0x3b90f653	0.0044238954
4	0x3caad850	0.020855099
5	0x3cb0793f	0.02154219
6	0x3bea17a7	0.007143933
7	0x3c03ff38	0.008056454
8	0x3c4663c3	0.012108746
9	0x3ad9f8e5	0.0016629962
10	0xbb49db9c	-0.0030801063
11	0x3c146fc2	0.009059848
12	0x3cd0770c	0.025447391
13	0x3b3e399d	0.002902604
14	0x3c71baad	0.01475398
15	0x3ccc3b3e	0.024930593
16	0x3b46ffed	0.0030364946
17	0x3bfa4a59	0.0076382575
18	0x3c411eb6	0.011787107
19	0xba18d3cd	-0.00058299006
20	0x3cce1e81	0.02516103
21	0x3d003021	0.0312959
22	0x80056223	-4.94382e-40
23	0x3c161d3e	0.009162245
24	0x3c1a1bb4	0.009406019
25	0xbb83689b	-0.0040102727
26	0x3c0f8988	0.008760817
27	0xbabb8fd5	-0.0014309833
28	0x3c3537b8	0.011060648
29	0x3c0d14f7	0.008610955
30	0xbba889ed	-0.005143395
31	0x3c57fca8	0.013182797
32	0x3c58a095	0.0132218795
33	0x3c315390	0.0108231455
34	0x3ca59beb	0.020215949
35	0x3c0244d5	0.007950981
36	0xbbdbe46a	-0.0067105787
37	0x3c1b97eb	0.009496669
38	0x3c8ae26a	0.016953666
39	0x3b799238	0.0038081538
40	0xbbd80618	-0.0065925233
41	0xbafe88f8	-0.0019419482
42	0x3c0ec986	0.008715039
43	0x3c90c4ea	0.017672021
44	0x3a93a98a	0.0011265737
45	0x3bd3c90f	0.006463177
46	0xbc847a46	-0.016171586
47	0x3b2ffaaa	0.0026852288
48	0x3a3d1b5c	0.00072138547
49	0x3d2be6cf	0.041968163
50	0x3c07d12a	0.008289615
51	0x3c4b1e9e	0.012397436
52	0xbb686d67	-0.00354656
53	0x3c32a3af	0.010903283
54	0xb9870c34	-0.000257583
55	0x3bd013e3	0.006350027
56	0x3d06b4c7	0.032887246
57	0x3c651743	0.013982597
58	0x3c6c1ccd	0.0144111635
59	0x3b2cf695	0.0026392092
60	0x3c66e8b9	0.014093571
61	0x3cd6f19f	0.02623826
62	0x3c1b80dc	0.009491172
63	0xbc8f55ff	-0.01749706
64	0x00000000	0.0
65	0x3c1d58cb	0.009603689
66	0xb91ff5e4	-0.00015255023
67	0x3d380647	0.04492786
68	0x3c6cca2a	0.014452497
69	0xb972ef34	-0.00023168029
70	0x3c0783ae	0.008271141
71	0x3c01d811	0.007925049
72	0x3ae6001c	0.001754764
73	0x3c591ecf	0.013251974
74	0x3cc60dc0	0.024176478
75	0xbb6f625b	-0.003652713
76	0x3c6955e3	0.014241668
77	0xb914a5ea	-0.00014176188
78	0x3ba52277	0.005039509
79	0xbc56df4a	-0.01311476
80	0x3c4e9d03	0.012610677
81	0x3c55f0f0	0.013057932
82	0xbc026db2	-0.007960724
83	0x3b239127	0.0024958344
84	0x3c5bf6c8	0.013425536
85	0x3c14cab7	0.009081534
86	0xbbe90b39	-0.0071119335
87	0x3b1d5397	0.0024006122
88	0x3b12f3ad	0.0022423074
89	0xbc0b2c7b	-0.008494492
90	0xba30bf71	-0.0006742394
91	0x39822a80	0.00024827197
92	0x3ba50ec3	0.00503716
93	0x3c0e33f9	0.008679383
94	0x3b5158a5	0.0031943705
95	0x3bfd679f	0.0077333
96	0x3caaa10e	0.02082875
97	0x39f129b1	0.00045998165
98	0x3bfe46f2	0.007759922
99	0xbc06d69c	-0.008229878
100	0x3c783135	0.015148451
101	0x3c0db727	0.008649624
102	0xbb606dce	-0.0034245136
103	0xbb834661	-0.0040061926
104	0x3c959ca9	0.018263178
105	0x3aca95ef	0.0015456061
106	0x3cfcf446	0.030878197
107	0xbc23efea	-0.01000593
108	0x3b2f67fe	0.0026764865
109	0x3bdbd209	0.0067083878
110	0x3ccb2f0d	0.024802709
111	0xbaf8e947	-0.001899042
112	0x3c38ac67	0.011271573
113	0x3bdffde5	0.0068356865
114	0x3c7afcde	0.015319077
115	0xb43d83c1	-1.7649928e-07
116	0x80055bb3	-4.92073e-40
117	0x3affdec9	0.0019521351
118	0x3ccaba3d	0.024747008
119	0xa941549b	-4.2927992e-14
120	0xbbd78001	-0.0065765386
121	0xbc8744bb	-0.016512265
122	0x3c2f2a08	0.010691173
123	0x3c1a96c0	0.009435356
124	0x3d53bf16	0.051695906
125	0xbbacf293	-0.0052779405
126	0xbc08ce49	-0.008349963
127	0x3b4f12e7	0.003159696

features_extractor.vd_extractor.0.weight f4 [128, 1]
0	0xb6156944	-2.2264003e-06
1	0x83053f11	-3.9157584e-37
2	0xba566787	-0.0008178879
3	0x3e070eef	0.1318929
4	0xa6c08443	-1.3358526e-15
5	0x3be602a0	0.007019356
6	0xa2cf9f5a	-5.6276182e-18
7	0x80321149	-4.597976e-39
8	0xb9145b40	-0.00014148373
9	0xb871caa2	-5.7647594e-05
10	0xa8af4b21	-1.9461485e-14
11	0xb084c8cc	-9.661334e-10
12	0x3e34f0e6	0.1767002
13	0x3e53954d	0.20662422
14	0x3e74c1b8	0.23902023
15	0xb5bd88cd	-1.4121412e-06
16	0x840a06b9	-1.6224909e-36
17	0x3e29daa7	0.16587315
18	0x3db5b765	0.0887287
19	0x3d258469	0.04040948
20	0x3dea4b82	0.11440183
21	0x3e19058b	0.1494352
22	0x3da757c0	0.08171034
23	0x3e53eb40	0.2069521
24	0xa50d5d27	-1.2261362e-16
25	0xa5688cf6	-2.0170552e-16
26	0x9d6d3b7d	-3.1397444e-21
27	0x3e59b203	0.21259312
28	0x3e2d7d34	0.16942292
29	0x3bbce90a	0.005765085
30	0x3e1a6b61	0.15080024
31	0x3c59f7cc	0.013303708
32	0x3e4b5b50	0.19859052
33	0xad06d5f5	-7.664526e-12
34	0xa2627e61	-3.0695616e-18
35	0xa7004fe9	-1.7806888e-15
36	0xb53c1d73	-7.007831e-07
37	0x87aa048c	-2.558143e-34
38	0xba5a0c11	-0.0008317838
39	0x3e0df150	0.13861585
40	0x3e5642ab	0.2092387
41	0xaf51265c	-1.9022067e-10
42	0x3daab45b	0.08335181
43	0xa481fb26	-5.6370294e-17
44	0x3e4e6f59	0.20159663
45	0x8e91e236	-3.5963093e-30
46	0x3d40b6bd	0.047049273
47	0xa8893f2a	-1.5237448e-14
48	0xa784e010	-3.688029e-15
49	0x3da54729	0.08070213
50	0x3e946f1c	0.2899102
51	0x3d4a7ee1	0.049437407
52	0x879f55b0	-2.3974024e-34
53	0xa6bf38ef	-1.3268719e-15
54	0x80102c27	-1.485207e-39
55	0xb77268dc	-1.44487385e-05
56	0x3d20c4a5	0.039250035
57	0x3eab08af	0.33405063
58	0xb9b5460f	-0.00034575208
59	0x3e66abdf	0.22526501
60	0x3e388ebb	0.18023197
61	0x3a06fbee	0.0005149235
62	0x3e64468f	0.22292541
63	0x3e098f5b	0.13433592
64	0x3d6b2c5c	0.05741535
65	0xb599d172	-1.1460345e-06
66	0x3dde8e7d	0.10867021
67	0xb95dc1c0	-0.0002114838
68	0x3d3289bc	0.043588385
69	0x3e3b15af	0.1826999
70	0xb9b2a8e4	-0.0003407664
71	0x3dfad23e	0.12247132
72	0xace2d25a	-6.44666e-12
73	0x9544258a	-3.9611498e-26
74	0x3dd75734	0.105146796
75	0x3dc7e425	0.09760312
76	0xb828ee3f	-4.0276205e-05
77	0x3e856d83	0.26060113
78	0x9aadafd3	-7.183518e-23
79	0x3e437dff	0.19091032
80	0xac38c364	-2.6256436e-12
81	0xa570ae35	-2.0875705e-16
82	0x3be92e74	0.0071161333
83	0x3e498715	0.19680436
84	0x3d2cd6e0	0.04219711
85	0x3c87cda5	0.016577551
86	0xa1d4cd83	-1.4420077e-18
87	0x3d8fcb00	0.07021141
88	0x8005bb0c	-5.26277e-40
89	0x3e1a99d1	0.15097739
90	0xadecca9b	-2.6920069e-11
91	0xb429e30b	-1.5821949e-07
92	0xba35a2ad	-0.00069288426
93	0x3e1faa0f	0.15592216
94	0x3e050cbf	0.12993143
95	0xaec4e8fd	-8.954435e-11
96	0xb919c8c0	-0.00014666002
97	0xa24ec6e0	-2.802349e-18
98	0xa74ac778	-2.8141264e-15
99	0x3dc116c0	0.09428167
100	0x3dfc859e	0.12330173
101	0x3dd092c9	0.10184247
102	0xba610010	-0.0008583078
103	0x3e56371a	0.20919457
104	0xb78e8574	-1.6989863e-05
105	0x3d770021	0.060302857
106	0x3d86efcf	0.065887086
107	0xb5611789	-8.385328e-07
108	0x3d667ea8	0.056273133
109	0x3e252144	0.16125971
110	0xae8e839b	-6.48079e-11
111	0xb842444c	-4.631681e-05
112	0x9a8e0b32	-5.874791e-23
113	0x3e37ea29	0.17960419
114	0x3d89cdb4	0.06728688
115	0x80234d8b	-3.24206e-39
116	0xb4616557	-2.0991625e-07
117	0x938873a7	-3.444527e-27
118	0xaf292bf8	-1.5386081e-10
119	0x3dda3468	0.10654527
120	0xb627742c	-2.495256e-06
121	0x8e9a7bff	-3.8083335e-30
122	0x3d32c677	0.043646302
123	0xb2d2bd2d	-2.4533245e-08
124	0xb8d31955	-0.000100659825
125	0xb88806b8	-6.486237e-05
126	0x8006da55	-6.29336e-40
127	0xa2d0de34	-5.661378e-18

features_extractor.vd_extractor.0.bias f4 [128]
0	0xb68ba802	-4.1620815e-06
1	0x00000000	0.0
2	0xba718670	-0.0009213453
3	0x3cc0e114	0.023544826
4	0x00000000	0.0
5	0xbb80b2a4	-0.0039275456
6	0x00000000	0.0
7	0x00000000	0.0
8	0xb92cafe7	-0.00016468727
9	0xb9aef5e1	-0.0003337106
10	0x00000000	0.0
11	0x00000000	0.0
12	0x3c54c27f	0.012985825
13	0x3c6cbe97	0.014449737
14	0x3ce6e30d	0.028184438
15	0xb820417e	-3.8207967e-05
16	0x00000000	0.0
17	0x3c77eaad	0.015131635
18	0x3cb45ac5	0.022015939
19	0x3c5dd8bd	0.013540444
20	0x3c60f0af	0.013729258
21	0x3cbd8597	0.02313499
22	0x3c383c38	0.011244826
23	0x3cbd266d	0.023089612
24	0x00000000	0.0
25	0x00000000	0.0
26	0x00000000	0.0
27	0x3cd88882	0.02643228
28	0x3cd81a46	0.026379716
29	0xbbafb737	-0.005362417
30	0x3cd33745	0.02578319
31	0xbc094675	-0.008378615
32	0x3ca48c31	0.02008638
33	0xabd96e30	-1.544936e-12
34	0x00000000	0.0
35	0x00000000	0.0
36	0xb812400c	-3.486876e-05
37	0x00000000	0.0
38	0xba94e1b6	-0.0011358771
39	0x3cb0ecf4	0.021597363
40	0x3ca8dfdc	0.020614557
41	0x00000000	0.0
42	0x3cb33ef7	0.02188061
43	0x00000000	0.0
44	0x3cbc9e54	0.023024715
45	0x00000000	0.0
46	0xbc4ece59	-0.012622439
47	0x00000000	0.0
48	0x00000000	0.0
49	0x3d0da5f9	0.034582112
50	0x3c9d8e99	0.019233035
51	0x3baa8776	0.0052041365
52	0x00000000	0.0
53	0x00000000	0.0
54	0x00000000	0.0
55	0xb8d45bf6	-0.00010126077
56	0x3d2101c0	0.03930831
57	0x3b1ada14	0.002362852
58	0xba1674ff	-0.00057394797
59	0x3caeaf51	0.021323832
60	0x3d06258d	0.032750655
61	0xba570eb7	-0.0008203792
62	0x3ca79817	0.020458264
63	0x3d16133d	0.03663944
64	0x3ccd7dfe	0.025084492
65	0xb6f28cd8	-7.2285584e-06
66	0x3d1baf84	0.03800918
67	0xba2fa64b	-0.00067005
68	0x3ceb653d	0.028734798
69	0x3cdbe380	0.026841879
70	0xb9bd96b9	-0.00036161186
71	0x3c55e999	0.013056182
72	0x00000000	0.0
73	0x00000000	0.0
74	0x3d120720	0.035651326
75	0x3ce5f436	0.02807055
76	0xb917dec4	-0.00014483469
77	0x3d022d56	0.031781517
78	0x00000000	0.0
79	0x3ceb20d3	0.028702175
80	0x00000000	0.0
81	0x00000000	0.0
82	0xbba37afa	-0.004989025
83	0x3cc3a1b0	0.02388081
84	0x3d0b3469	0.03398553
85	0x391eaeb8	0.00015133142
86	0x00000000	0.0
87	0x3cd62aa7	0.026143385
88	0x00000000	0.0
89	0x3ca25c12	0.019819293
90	0x00000000	0.0
91	0xb7913cac	-1.73136e-05
92	0xbaa8cf53	-0.001287917
93	0x3bc73ca8	0.006080229
94	0x3c6ce552	0.014458971
95	0x00000000	0.0
96	0xba08c911	-0.00052179495
97	0x00000000	0.0
98	0xb069af0e	-8.5013674e-10
99	0x3abcdc80	0.0014408976
100	0x3cbc550b	0.02298977
101	0x3a2c6ddf	0.00065776514
102	0xbabc1422	-0.0014349262
103	0x3d0ab780	0.033866405
104	0xb92d5a38	-0.00016532175
105	0x3d0ee768	0.034888655
106	0x3cefe475	0.029283741
107	0xb7cc3210	-2.4342007e-05
108	0x3ce64939	0.028111087
109	0x3ce99440	0.028513074
110	0x00000000	0.0
111	0xb9a39b4c	-0.00031205488
112	0x00000000	0.0
113	0x3cb913e0	0.022592485
114	0x3ccc48ad	0.024936998
115	0x00000000	0.0
116	0xb77e59c7	-1.5160483e-05
117	0x00000000	0.0
118	0x00000000	0.0
119	0x3caa9f75	0.020827988
120	0x00000000	0.0
121	0x00000000	0.0
122	0x3c3dcad9	0.011584007
123	0xb6c56086	-5.8822943e-06
124	0xb995ac2f	-0.0002854778
125	0xb99767ed	-0.00028878395
126	0x00000000	0.0
127	0x00000000	0.0

features_extractor.vd_extractor.2.weight f4 [128, 128]
0	0x80055926	-4.91158e-40
1	0x15c2b7c1	7.864589e-26
2	0x80055ed8	-4.93201e-40
3	0xab1af9a3	-5.505823e-13
4	0x00055939	4.91185e-40
5	0x800565a9	-4.95646e-40
6	0xaac0816f	-3.4195864e-13
7	0x80055c11	-4.92205e-40
8	0x80055861	-4.90882e-40
9	0x143a89bc	9.4177635e-27
10	0x00055787	4.90576e-40
11	0x306d2d5e	8.628457e-10
12	0x89a298d3	-3.9143797e-33
13	0x9e10a805	-7.658042e-21
14	0x8ab69f44	-1.7585872e-32
15	0x8005635b	-4.9482e-40
16	0x2b402157	6.825837e-13
17	0x32d7a269	2.510315e-08
18	0xb47539d6	-2.2838444e-07
19	0x80055adf	-4.91776e-40
20	0x18ac4b36	4.45369e-24
21	0x80055d19	-4.92575e-40
22	0x1d1bc52f	2.061602e-21
23	0x9595db8d	-6.052701e-26
24	0x8005593f	-4.91193e-40
25	0x2d8f810e	1.631453e-11
26	0x800566ac	-4.96009e-40
27	0x1ba377df	2.7043553e-22
28	0x1ad75ba2	8.9069957e-23
29	0x00055ac8	4.91744e-40
30	0x000559e0	4.91419e-40
31	0xaee6cf3b	-1.04960006e-10
32	0x2934e534	4.016683e-14
33	0x80056434	-4.95124e-40
34	0x80055b7a	-4.91993e-40
35	0x1e6423f4	1.20776544e-20
36	0x84760015	-2.8917199e-36
37	0x80055873	-4.90907e-40
38	0x0ff9dcc3	2.463833e-29
39	0x142669d5	8.40173e-27
40	0xa4c34a2d	-8.469343e-17
41	0x9b8e3e87	-2.3532337e-22
42	0x981c3a21	-2.0191875e-24
43	0x221d5a00	2.1325113e-18
44	0xb4aa8987	-3.1765032e-07
45	0x80055d03	-4.92544e-40
46	0xb01e8cea	-5.7680316e-10
47	0x2be84748	1.6504376e-12
48	0x2173fed6	8.2668875e-19
49	0x00055a5e	4.91595e-40
50	0x00055a49	4.91566e-40
51	0x07f703b5	3.7166608e-34
52	0xb1d824f8	-6.2906302e-09
53	0xb3c6cb00	-9.257019e-08
54	0x11e07cc2	3.5417856e-28
55	0x1ead9e32	1.8382516e-20
56	0x000558f0	4.91082e-40
57	0x14e613c3	2.323186e-26
58	0x00055dd0	4.92831e-40
59	0x098d8a0c	3.4074334e-33
60	0x80055aab	-4.91703e-40
61	0x8be57bb4	-8.839372e-32
62	0x9310c355	-1.8271661e-27
63	0x19d955cd	2.2471929e-23
64	0x057c1beb	1.1854111e-35
65	0x800558d1	-4.91039e-40
66	0x80055a6f	-4.91619e-40
67	0x0e513ba9	2.5789964e-30
68	0x1ec71c90	2.1081758e-20
69	0x9a49c64b	-4.1726006e-23
70	0x261e867a	5.499951e-16
71	0x00055fdd	4.93567e-40
72	0x80055dae	-4.92783e-40
73	0x3169cde3	3.4022996e-09
74	0x800557ea	-4.90715e-40
75	0xb717e2c9	-9.053104e-06
76	0x8005592f	-4.9117e-40
77	0x983455b7	-2.330773e-24
78	0x2b0819f7	4.835294e-13
79	0x9c61601b	-7.457047e-22
80	0x2aa2ab7a	2.8895967e-13
81	0x00055a91	4.91667e-40
82	0x10f34da8	9.596625e-29
83	0x0d1f9225	4.9171573e-31
84	0x000559ed	4.91437e-40
85	0x8b2aa1c8	-3.286252e-32
86	0x2029a85a	1.437056e-19
87	0xb28f222c	-1.666293e-08
88	0x89180066	-1.8296522e-33
89	0x80055c41	-4.92272e-40
90	0x13843ba5	3.33803e-27
91	0xaa12a69d	-1.302521e-13
92	0x163b82e5	1.5147043e-25
93	0xae87c01f	-6.173217e-11
94	0xa41faf8f	-3.4626333e-17
95	0x00055b97	4.92034e-40
96	0x800557d3	-4.90683e-40
97	0xaa8d2dcb	-2.5078407e-13
98	0x80056214	-4.94361e-40
99	0x1beb065a	3.8881593e-22
100	0x2d941d5a	1.6838687e-11
101	0x2a0d272d	1.2536908e-13
102	0x1ad2595a	8.699832e-23
103	0x00056299	4.94548e-40
104	0x80055b7d	-4.91997e-40
105	0x80055982	-4.91287e-40
106	0x00056bb6	4.97817e-40
107	0xa08cdcc1	-2.3863005e-19
108	0xafa01b45	-2.9123207e-10
109	0x800558bd	-4.91011e-40
110	0xb11f14c8	-2.3149358e-09
111	0x00056552	4.95524e-40
112	0x800558ee	-4.9108e-40
113	0x122083bf	5.0649488e-28
114	0x800558f5	-4.91089e-40
115	0x31739c75	3.545009e-09
116	0xaf79a643	-2.2705486e-10
117	0x80055792	-4.90592e-40
118	0x23b58b0f	1.9682953e-17
119	0x80056068	-4.93762e-40
120	0x800558e5	-4.91067e-40
121	0x00055bab	4.92062e-40
122	0x176174b7	7.2848736e-25
123	0x80055c42	-4.92273e-40
124	0x00055a8b	4.91658e-40
125	0x80055b66	-4.91965e-40
126	0x0005ea97	5.43332e-40
127	0x80055be2	-4.92139e-40
128	0x11d78f08	3.4009169e-28
129	0xa7bfd2d2	-5.324172e-15
130	0x99105b15	-7.463019e-24
131	0x3d6c2bcb	0.05765895
132	0x1f7024e0	5.085248e-20
133	0xbd029754	-0.0318826
134	0x2e3c990f	4.2882194e-11
135	0x0005d781	5.36486e-40
136	0x3b0db3ae	0.002162199
137	0x00055957	4.91227e-40
138	0x80055b0f	-4.91843e-40
139	0x00055c2f	4.92247e-40
140	0x3e39d826	0.1814886
141	0xbe8be649	-0.2732413
142	0x3e45912d	0.19293661
143	0x0e67d082	2.8573341e-30
144	0x1362b284	2.8613225e-27
145	0x3d7cf3a2	0.061755784
146	0x3c22110f	0.009891762
147	0x3c417767	0.011808253
148	0x3d902c39	0.07039685
149	0x3cd8170e	0.02637818
150	0x3e9dfca1	0.30856803
151	0x3db4a9c6	0.08821444
152	0x80055980	-4.91284e-40
153	0x3055f70b	7.784002e-10
154	0x2d3bb558	1.0669986e-11
155	0x3d0b7e56	0.03405603
156	0xbc47d8cc	-0.0121976845
157	0xbab13467	-0.0013519645
158	0xbe266284	-0.16248518
159	0xbd4b978c	-0.049705073
160	0xbda5a114	-0.08087364
161	0x00055762	4.90525e-40
162	0x000563e3	4.9501e-40
163	0x80055bf2	-4.92161e-40
164	0x80055846	-4.90844e-40
165	0x269cd8c0	1.0883425e-15
166	0x8005594d	-4.91213e-40
167	0xbe996da3	-0.2996646
168	0xbe38e89b	-0.18057482
169	0x9e377a78	-9.713265e-21
170	0x3dc11cd6	0.09429328
171	0x9d125174	-1.936505e-21
172	0x3e01f3b0	0.12690616
173	0x30e4fd3e	1.6661159e-09
174	0x3dc096b2	0.09403743
175	0x80055c9f	-4.92404e-40
176	0x000195f3	1.45627e-40
177	0x3e307e33	0.17235641
178	0x3dd4778c	0.10374364
179	0xbd8cc5df	-0.068736784
180	0x9ad9efed	-9.013672e-23
181	0x00055d7c	4.92713e-40
182	0x1c5c88d4	7.296874e-22
183	0x23f57df1	2.6616291e-17
184	0x3c7455e5	0.014913057
185	0xbd21aa3c	-0.03946899
186	0x80055a81	-4.91644e-40
187	0xbd1f89df	-0.038949843
188	0x3cfb8b6e	0.030706134
189	0x05717ade	1.1354333e-35
190	0xbd923ded	-0.07140718
191	0xbd911703	-0.07084467
192	0x3c9b5e65	0.01896591
193	0x80056030	-4.93683e-40
194	0xbe5865e3	-0.21132617
195	0xa92b42e9	-3.8027663e-14
196	0x3daa88eb	0.08326896
197	0x3e144df0	0.14482856
198	0xba0712fa	-0.0005152669
199	0xbc7f1c63	-0.015570733
200	0x800557a5	-4.90618e-40
201	0x9b25c3b2	-1.3711713e-22
202	0x3d99e2b1	0.07513941
203	0xbd1b9b34	-0.03798981
204	0x8005670d	-4.96145e-40
205	0xbded4a73	-0.11586466
206	0xb4b00031	-3.2782694e-07
207	0x3e24e74d	0.16103859
208	0x923a989b	-5.887935e-28
209	0x301f432a	5.793931e-10
210	0xb5971aa4	-1.125813e-06
211	0x3e2afcca	0.16697994
212	0xbe50dab3	-0.20395927
213	0x3d10518b	0.035234015
214	0x80055fce	-4.93546e-40
215	0xbde59da5	-0.11211709
216	0x8adebb1a	-2.1448202e-32
217	0x3d185e4c	0.037199304
218	0x80541da8	-7.72482e-39
219	0x234d84ae	1.1141168e-17
220	0x800558fa	-4.91096e-40
221	0xbd4cf440	-0.050037622
222	0xbde147a4	-0.109999925
223	0x80055ba4	-4.92052e-40
224	0x13b13063	4.4728795e-27
225	0x00055e14	4.92926e-40
226	0x800557fa	-4.90738e-40
227	0xbe2ebeca	-0.17064968
228	0x3d72a426	0.059238575
229	0xbd0aaad5	-0.033854324
230	0x80055fde	-4.93568e-40
231	0x3e971a19	0.29512098
232	0x1586b6e8	5.4410744e-26
233	0x3e4b12b2	0.1983135
234	0xbddd01ab	-0.10791334
235	0x800557c2	-4.90659e-40
236	0xbde77050	-0.11300719
237	0x3e6ea912	0.23306683
238	0x80055c44	-4.92276e-40
239	0x956b8f77	-4.7571046e-26
240	0x95823ca7	-5.2602274e-26
241	0x3d2641e0	0.040590167
242	0xbd10f753	-0.035392117
243	0x00055faa	4.93495e-40
244	0x8005634b	-4.94797e-40
245	0x834c7479	-6.0083916e-37
246	0x80055a9b	-4.9168e-40
247	0x3c6f5453	0.014607507
248	0x00055c6c	4.92332e-40
249	0x00055e27	4.92953e-40
250	0xbc8665da	-0.016405988
251	0x0005620c	4.9435e-40
252	0xa5895b29	-2.3827484e-16
253	0x00055907	4.91114e-40
254	0x2f5cf5e6	2.0096244e-10
255	0x00055d2b	4.926e-40

features_extractor.vd_extractor.2.bias f4 [128]
0	0x00000000	0.0
1	0x3c47d519	0.0121968025
2	0xb9cbca67	-0.0003886998
3	0xb618b669	-2.2755942e-06
4	0x3c64e317	0.013970158
5	0x3b8ed5eb	0.004358997
6	0xbae7ac10	-0.001767518
7	0x3cc5a431	0.024126144
8	0xbbc58dfd	-0.006028889
9	0xba8c2440	-0.0010691956
10	0x00000000	0.0
11	0x3d16d3f5	0.03682323
12	0xb9ba4489	-0.00035527747
13	0xbb3558e8	-0.00276714
14	0x00000000	0.0
15	0xb9d6d580	-0.0004097633
16	0x3c289d56	0.010291418
17	0x00000000	0.0
18	0x3ccab361	0.024743738
19	0x3c2e69f7	0.010645381
20	0x3c03e09c	0.0080491565
21	0x00000000	0.0
22	0xb9a3bbc1	-0.0003122967
23	0x00000000	0.0
24	0x3b1312e6	0.0022441684
25	0x3cddf36d	0.027093614
26	0x00000000	0.0
27	0xbb00fd69	-0.0019682294
28	0xba9b7ece	-0.0011863352
29	0x3c497b37	0.012297443
30	0x00000000	0.0
31	0x00000000	0.0
32	0x3cd9a951	0.026569994
33	0x3c4adbf6	0.012381544
34	0xbaae9e07	-0.0013322242
35	0xba2d6f36	-0.0006615998
36	0x3bcc82a8	0.0062411614
37	0x00000000	0.0
38	0x00000000	0.0
39	0x00000000	0.0
40	0x00000000	0.0
41	0xba1248d9	-0.0005580313
42	0x00000000	0.0
43	0xbb94f2fc	-0.0045455676
44	0x3d109e61	0.035307292
45	0x3d075680	0.033041477
46	0x00000000	0.0
47	0xbb4b7bfa	-0.0031049238
48	0x3c3885c1	0.011262358
49	0x3bc1fec6	0.005920264
50	0x3a799273	0.0009520419
51	0x3bc05239	0.0058691767
52	0x3d58f589	0.052968536
53	0x00000000	0.0
54	0x3d055f5d	0.03256165
55	0xb88c920d	-6.702924e-05
56	0x3c4007b6	0.011720588
57	0xbac32a9e	-0.001489002
58	0xbbf02f1f	-0.007329836
59	0x3c343443	0.010998788
60	0xb7877407	-1.6147284e-05
61	0x3b472038	0.0030384194
62	0xba4bbaf0	-0.00077716913
63	0x39b989f9	0.00035388747
64	0xbb820bef	-0.0039687078
65	0xbb05cba5	-0.002041557
66	0x3c5cc1db	0.013473953
67	0x00000000	0.0
68	0x00000000	0.0
69	0xb6050dfb	-1.9826682e-06
70	0xb8cd8814	-9.800508e-05
71	0x3c770514	0.015076894
72	0x3c18383a	0.009290749
73	0x00000000	0.0
74	0x3cf7bcda	0.030241419
75	0xbad2258e	-0.0016032921
76	0x00000000	0.0
77	0xb909ff4d	-0.00013160445
78	0x3d1fadc1	0.038984064
79	0x3d24ae66	0.04020538
80	0x38b31781	8.539763e-05
81	0x3c919fdf	0.017776428
82	0x00000000	0.0
83	0x3c9fc155	0.019501368
84	0xbb2fadfb	-0.0026806581
85	0x3c3badea	0.011455039
86	0x00000000	0.0
87	0x3d2c91ad	0.042131115
88	0x00000000	0.0
89	0x3c32b830	0.010908172
90	0xbabe2fb6	-0.0014510069
91	0xb9a267f1	-0.0003097649
92	0xbafb5ac5	-0.0019176832
93	0x3d17b610	0.037038863
94	0xbbfa659b	-0.007641507
95	0x3cbacb36	0.022801977
96	0x00000000	0.0
97	0x3d15de6d	0.036589075
98	0x3d122eee	0.035689287
99	0x3ce46dcd	0.027884388
100	0x3c8ff129	0.017571049
101	0x3c1bb9ff	0.009504794
102	0x3d209205	0.039201755
103	0x3ce03e99	0.027373599
104	0x3c999ab8	0.018750533
105	0x3c396f63	0.011318061
106	0x3c5fdec4	0.013663951
107	0xb9b2c08e	-0.0003409427
108	0x00000000	0.0
109	0x3c0d5f55	0.008628686
110	0xba764b94	-0.00093954173
111	0x3ce3ff16	0.027831595
112	0x00000000	0.0
113	0x393eb438	0.00018186949
114	0xb94db005	-0.00019615896
115	0x3c7674ea	0.015042523
116	0x00000000	0.0
117	0xba6d3918	-0.000904934
118	0xbb41d625	-0.0029577103
119	0x3c66c321	0.014084608
120	0x3cb1b995	0.021694938
121	0xba98f812	-0.001167061
122	0x3bf38c0c	0.0074324664
123	0x3c7445ac	0.014909189
124	0x3c2a69b4	0.010401178
125	0x3b9b681b	0.004742635
126	0xbb751fb0	-0.003740292
127	0x3bd2e5bd	0.0064360783

mlp_extractor.policy_net.0.weight f4 [192, 256]
0	0x80055a42	-4.91556e-40
1	0x80055844	-4.90841e-40
2	0xac0d1011	-2.0046224e-12
3	0x06ece39a	8.9107764e-35
4	0x80055a4f	-4.91574e-40
5	0x80055ddf	-4.92852e-40
6	0x800558b0	-4.90993e-40
7	0x800562e5	-4.94654e-40
8	0x80055c3a	-4.92262e-40
9	0x80055acb	-4.91748e-40
10	0xa66e7eec	-8.274485e-16
11	0x80056245	-4.9443e-40
12	0x80055b46	-4.9192e-40
13	0x000558a1	4.90972e-40
14	0x80055e48	-4.92999e-40
15	0x0fd8879d	2.1351481e-29
16	0xa98bb1b2	-6.203665e-14
17	0x000558f2	4.91085e-40
18	0x000557c8	4.90667e-40
19	0x80055e82	-4.9308e-40
20	0xa352da28	-1.1430319e-17
21	0x0005586d	4.90899e-40
22	0x000557a7	4.90621e-40
23	0x00056027	4.9367e-40
24	0xaa56a534	-1.9064335e-13
25	0x8006330b	-5.69324e-40
26	0xa3791864	-1.3503482e-17
27	0xa6b70372	-1.269911e-15
28	0x0d4adab7	6.2509324e-31
29	0x184b7d29	2.6300325e-24
30	0x12687a7b	7.335726e-28
31	0x00056192	4.94179e-40
32	0x1e14135c	7.839058e-21
33	0x80055b86	-4.9201e-40
34	0x0a8de66b	1.366448e-32
35	0x80055cac	-4.92422e-40
36	0x96005f13	-1.0369758e-25
37	0x074c0cb8	1.5350992e-34
38	0x30a1818f	1.1751115e-09
39	0x80055f44	-4.93352e-40
40	0x8810731f	-4.346875e-34
41	0x131e933e	2.0015e-27
42	0x0facdef7	1.7046392e-29
43	0x14a589af	1.6715049e-26
44	0x000564af	4.95296e-40
45	0x80055954	-4.91222e-40
46	0xa803be95	-7.313287e-15
47	0x000563d3	4.94988e-40
48	0x919691f4	-2.3755778e-28
49	0x00066861	5.88457e-40
50	0x1a032d41	2.712672e-23
51	0x800560a8	-4.93851e-40
52	0x80055bf0	-4.92158e-40
53	0x1e032e7a	6.944693e-21
54	0x8507cf12	-6.385702e-36
55	0x0005596d	4.91257e-40
56	0x8005573e	-4.90474e-40
57	0x0023d2b7	3.289833e-39
58	0x00344eb1	4.803675e-39
59	0xb18e4d50	-4.1415333e-09
60	0x800562a0	-4.94557e-40
61	0x00056034	4.93689e-40
62	0x0e23ad63	2.0174784e-30
63	0x800558fb	-4.91098e-40
64	0x9c88aae3	-9.043898e-22
65	0x08c1f387	1.1673018e-33
66	0x929eb429	-1.0015615e-27
67	0x18bd17a4	4.8879226e-24
68	0x131ab726	1.9527832e-27
69	0x8005577d	-4.90562e-40
70	0x80055caf	-4.92426e-40
71	0x13e09203	5.668953e-27
72	0xb7a6a393	-1.9864912e-05
73	0x80055946	-4.91203e-40
74	0x0a5f9f51	1.07670235e-32
75	0x80055c2c	-4.92243e-40
76	0x1a814b05	5.347435e-23
77	0x1903107f	6.775873e-24
78	0x00056146	4.94073e-40
79	0x80055cd7	-4.92482e-40
80	0xb544e176	-7.334378e-07
81	0x8005595e	-4.91236e-40
82	0x13101126	1.818381e-27
83	0x800564e9	-4.95377e-40
84	0x80055a74	-4.91626e-40
85	0x000557c8	4.90667e-40
86	0x80055f13	-4.93284e-40
87	0x80055a30	-4.9153e-40
88	0xa1e56a02	-1.5545704e-18
89	0x80055c39	-4.92261e-40
90	0x959a2d84	-6.2271916e-26
91	0x959e5212	-6.3945176e-26
92	0x152c2b6d	3.476938e-26
93	0x800559b3	-4.91355e-40
94	0xa23996c0	-2.5151982e-18
95	0x00055af1	4.91801e-40
96	0x16eefbc4	3.860986e-25
97	0x80055aa5	-4.91695e-40
98	0x80068dd9	-6.01898e-40
99	0x05b5c458	1.7093284e-35
100	0x80055b2c	-4.91884e-40
101	0x80055a06	-4.91472e-40
102	0x9448c7e5	-1.0136842e-26
103	0x00055b35	4.91896e-40
104	0x800558fc	-4.91099e-40
105	0x80055826	-4.90799e-40
106	0x00055ff8	4.93605e-40
107	0x1620d541	1.2991988e-25
108	0x80055959	-4.9123e-40
109	0x800561d1	-4.94267e-40
110	0x8004ffd0	-4.5911e-40
111	0x83a731b6	-9.826791e-37
112	0x8005f649	-5.47528e-40
113	0x069719b1	5.683764e-35
114	0x800559fc	-4.91458e-40
115	0x00055de4	4.92859e-40
116	0x00055744	4.90482e-40
117	0x0dbe2cba	1.1720422e-30
118	0x8005582d	-4.90809e-40
119	0x0d992aca	9.439654e-31
120	0x80055a18	-4.91497e-40
121	0x80055cfd	-4.92535e-40
122	0x80055f9d	-4.93477e-40
123	0x0dc6c5ea	1.2250338e-30
124	0x80055db2	-4.92789e-40
125	0x9d59ea9c	-2.8841001e-21
126	0x8004e0a1	-4.47924e-40
127	0x08c2cd40	1.1724204e-33
128	0x8e8365fe	-3.239221e-30
129	0x80055c15	-4.9221e-40
130	0x80055c07	-4.9219e-40
131	0x146f6ca7	1.2087844e-26
132	0x80055b92	-4.92027e-40
133	0x2b8fd78c	1.0220587e-12
134	0x00055d5e	4.92671e-40
135	0x000562eb	4.94663e-40
136	0x8005578b	-4.90582e-40
137	0x92f09a0a	-1.5184103e-27
138	0x0005586d	4.90899e-40
139	0x80055d40	-4.92629e-40
140	0xa19b8d39	-1.054059e-18
141	0x2f2966f2	1.5407034e-10
142	0x87f9e476	-3.7599633e-34
143	0x80055e33	-4.9297e-40
144	0x800558c3	-4.91019e-40
145	0x800560e3	-4.93934e-40
146	0x1145771a	1.5577261e-28
147	0x80055b74	-4.91985e-40
148	0x9c27d10b	-5.5525847e-22
149	0x800559a6	-4.91337e-40
150	0x9b75f042	-2.0343556e-22
151	0x80056420	-4.95096e-40
152	0x80055dcf	-4.9283e-40
153	0x04ac473c	4.0502424e-36
154	0x000564cd	4.95338e-40
155	0x800559d7	-4.91406e-40
156	0x80055c50	-4.92293e-40
157	0x26904b64	1.0012442e-15
158	0x9a1f22ba	-3.290848e-23
159	0x00055952	4.9122e-40
160	0x800557e0	-4.90701e-40
161	0x011ff121	2.937669e-38
162	0x00055a13	4.9149e-40
163	0x00055d1a	4.92576e-40
164	0x80055c8d	-4.92378e-40
165	0x00055a3a	4.91545e-40
166	0x800557f8	-4.90735e-40
167	0x000559c0	4.91374e-40
168	0x17512df0	6.7589523e-25
169	0x95335eb5	-3.6223473e-26
170	0x91456d87	-1.557431e-28
171	0x80057134	-4.99787e-40
172	0x80055aff	-4.91821e-40
173	0x102e4cd2	3.437463e-29
174	0x80055801	-4.90747e-40
175	0x00055f02	4.9326e-40
176	0x000563ad	4.94934e-40
177	0x00055daf	4.92785e-40
178	0x00055bd9	4.92126e-40
179	0x026085e1	1.6495342e-37
180	0x08cb2f6a	1.2228765e-33
181	0x80055975	-4.91269e-40
182	0x80055e8e	-4.93097e-40
183	0x800562c1	-4.94604e-40
184	0x1f22f478	3.4507054e-20
185	0x9a5b1c71	-4.5311113e-23
186	0x80055a3b	-4.91546e-40
187	0x072ecb08	1.3149971e-34
188	0x80055797	-4.90599e-40
189	0x8004cd44	-4.40977e-40
190	0x00043545	3.86451e-40
191	0x800558e0	-4.9106e-40
192	0x80055a53	-4.9158e-40
193	0x0005597e	4.91281e-40
194	0x000559bd	4.9137e-40
195	0x04b5a827	4.270732e-36
196	0x00055bbc	4.92086e-40
197	0x1dade347	4.6027718e-21
198	0x80055a90	-4.91665e-40
199	0x80055e8a	-4.93092e-40
200	0xaffd9b20	-4.6130655e-10
201	0x00055c9b	4.92398e-40
202	0x19814dfd	1.3369787e-23
203	0x80055e7a	-4.93069e-40
204	0xa28cc6f0	-3.815771e-18
205	0x80055785	-4.90574e-40
206	0x0771fd53	1.820527e-34
207	0x083ea0fe	5.736529e-34
208	0x1a1c89c1	3.237132e-23
209	0x2c39ab76	2.6385261e-12
210	0x800557a8	-4.90623e-40
211	0x072c1206	1.2945138e-34
212	0x0005575d	4.90518e-40
213	0x80055b71	-4.9198e-40
214	0x0ee5b85c	5.663039e-30
215	0x0072bf87	1.0537954e-38
216	0x00055943	4.91199e-40
217	0x1cc70285	1.3169367e-21
218	0x00055d55	4.92659e-40
219	0x800558a2	-4.90973e-40
220	0x80055767	-4.90532e-40
221	0x0005575e	4.90519e-40
222	0x00055835	4.9082e-40
223	0x8005608d	-4.93813e-40
224	0x00055859	4.9087e-40
225	0x80055c78	-4.92349e-40
226	0x80055a4c	-4.9157e-40
227	0x1280cb6d	8.128084e-28
228	0x800558aa	-4.90984e-40
229	0x80055936	-4.9118e-40
230	0x80055819	-4.90781e-40
231	0x00055be1	4.92137e-40
232	0x80056401	-4.95052e-40
233	0x8005591a	-4.91141e-40
234	0x80055861	-4.90882e-40
235	0x80055c94	-4.92388e-40
236	0x80055804	-4.90752e-40
237	0x143569bf	9.1590195e-27
238	0xacc141c3	-5.492691e-12
239	0x80055d4d	-4.92647e-40
240	0x00055bc5	4.92098e-40
241	0x80055dc0	-4.92809e-40
242	0x26731dbf	8.4347874e-16
243	0x80055f28	-4.93313e-40
244	0x896850ea	-2.796403e-33
245	0x800568c4	-4.9676e-40
246	0x80006be8	-3.871e-41
247	0x2885be09	1.484838e-14
248	0x0005612d	4.94038e-40
249	0x06cb069a	7.6369813e-35
250	0x13d72235	5.430736e-27
251	0x0be17356	8.6840386e-32
252	0x80055b77	-4.91989e-40
253	0x16a1b3f8	2.612453e-25
254	0xb0dfc2be	-1.6280735e-09
255	0x80055eb1	-4.93146e-40

mlp_extractor.policy_net.0.bias f4 [192]
0	0x8006a766	-6.11064e-40
1	0x3baef8f6	0.005339737
2	0xb845d44a	-4.716617e-05
3	0xba7f766d	-0.0009745125
4	0x3bd48389	0.006485407
5	0x3bf6b086	0.0075283675
6	0x3c1a846b	0.009430985
7	0x3c6e1c7a	0.0145331565
8	0xb7e855eb	-2.7696564e-05
9	0x3b161d55	0.0022905667
10	0xba5b7273	-0.0008371241
11	0x3c2e98ed	0.010656578
12	0x39ea0f85	0.0004464352
13	0xbb99749c	-0.0046830904
14	0xbb76bd54	-0.003764947
15	0x3cda690c	0.026661418
16	0xa50c923e	-1.2192613e-16
17	0x3c9cb6b4	0.019130088
18	0x00056b05	4.97569e-40
19	0x3bf48f3e	0.007463365
20	0x395b6d8e	0.0002092628
21	0xb6ebc8ac	-7.026907e-06
22	0xb9c968eb	-0.00038415877
23	0xaf50da8d	-1.8995135e-10
24	0x00000000	0.0
25	0x3cf470ea	0.029838998
26	0xbb65c3fa	-0.0035059438
27	0x3b7730bf	0.0037718264
28	0xbbafa1af	-0.0053598504
29	0xb9c6a7a7	-0.00037890414
30	0xbbde0893	-0.0067759245
31	0x3c8e0b83	0.017339474
32	0x3cb38e51	0.021918448
33	0x00055ba0	4.92046e-40
34	0x3bf0c0b7	0.007347192
35	0xb7619f0f	-1.3448079e-05
36	0xbb3951b2	-0.0028277454
37	0x3b74131b	0.0037242833
38	0xb811e2e2	-3.4781995e-05
39	0x3bfe79bc	0.0077659767
40	0x3c64d87e	0.013967631
41	0x3cd06082	0.025436644
42	0xbbb8e456	-0.005642454
43	0x3cca8bb4	0.024724819
44	0x00000000	0.0
45	0x3a15f75f	0.000572076
46	0xbb93d32f	-0.004511259
47	0x3b0d2aa8	0.0021540318
48	0x3a882b20	0.0010388829
49	0x3a6be5c8	0.00089987786
50	0x3c048f74	0.0080908425
51	0xb4de2099	-4.137444e-07
52	0x3c5e2d7a	0.013560647
53	0x395cc793	0.00021055182
54	0xbbcb0a2e	-0.006196282
55	0xb3c27068	-9.0542756e-08
56	0xbbcc0554	-0.006226221
57	0xbb7507ea	-0.003738875
58	0xb8bcaf20	-8.997158e-05
59	0xb9aec672	-0.0003333572
60	0xbc214b66	-0.009844637
61	0x3bdfab9a	0.0068258764
62	0xb719b9c3	-9.162762e-06
63	0xb8eca14d	-0.000112834015
64	0x3ba06e5d	0.004895969
65	0x3be02111	0.0068398793
66	0x3c6a28e4	0.014291976
67	0xbbb4b6f4	-0.005514974
68	0x3c688036	0.014190724
69	0x3c112494	0.008858819
70	0x3c65550f	0.01399733
71	0x3ca43a3c	0.0200473
72	0x3be87acd	0.007094717
73	0xb5c1fd42	-1.4453328e-06
74	0x3bc3606e	0.005962423
75	0xb9144dea	-0.00014143405
76	0xafba1af9	-3.3852368e-10
77	0x3cd521d9	0.026017116
78	0xba5a9508	-0.00083382474
79	0x3c400ee3	0.011722299
80	0x99421a35	-1.00348574e-23
81	0x3bb89597	0.005633067
82	0xb9866130	-0.00025630882
83	0xb581d61e	-9.673565e-07
84	0x80055d81	-4.9272e-40
85	0x3bbad091	0.0057011326
86	0xbaa84404	-0.0012837653
87	0xa286b01a	-3.6507228e-18
88	0xbc2c064b	-0.010499547
89	0x3b91f6a8	0.0044544525
90	0x3c42203d	0.0118485065
91	0x3c3be830	0.011468932
92	0x3c99fe94	0.01879815
93	0x00055d46	4.92638e-40
94	0x80055c10	-4.92203e-40
95	0x3c180504	0.00927854
96	0x3bd7da5f	0.006587311
97	0x80055c90	-4.92383e-40
98	0x3b7f9981	0.0039001408
99	0x3c2fa084	0.010719422
100	0x3bea9765	0.007159161
101	0x3bb6f531	0.0055834283
102	0x3cda65f9	0.026659952
103	0xbc480d62	-0.012210222
104	0x3c5e8896	0.013582369
105	0x394411b2	0.00018698609
106	0x3ca01aee	0.019544091
107	0x3c9e6310	0.019334346
108	0x80055771	-4.90546e-40
109	0x3cb12989	0.02162625
110	0x3ba9bfe5	0.0051803463
111	0x3c0fe650	0.008782938
112	0xbc16b3e3	-0.009198162
113	0xbc103bfa	-0.008803362
114	0xb75e104b	-1.3236025e-05
115	0xb9a01fca	-0.00030541263
116	0x3a75b607	0.00093731325
117	0x00056645	4.95865e-40
118	0x3d11c0f1	0.035584394
119	0xbaf1a2de	-0.0018435379
120	0xbc813d11	-0.015776189
121	0xb880936a	-6.1309736e-05
122	0xbc0b574f	-0.008504703
123	0xbbeab947	-0.0071632
124	0x3b56e305	0.0032789123
125	0x3cb75b44	0.022382386
126	0x9eb55250	-1.9198164e-20
127	0xba215be5	-0.0006155356
128	0x3c836ae9	0.01604219
129	0x3c7e9433	0.015538263
130	0xba86dec8	-0.0010289783
131	0x3b2f4a05	0.0026747
132	0x3c8c151b	0.017099908
133	0xacfa73fb	-7.1183038e-12
134	0xb276aea4	-1.4358793e-08
135	0xbba77bd6	-0.005111198
136	0xb0f131ff	-1.7549268e-09
137	0x3c82ea82	0.015980963
138	0x3cbf6646	0.023364197
139	0xbb1bee5b	-0.0023793194
140	0xba143861	-0.0005654153
141	0xbc729c18	-0.014807723
142	0x3bc32830	0.0059557185
143	0x3c1d0796	0.009584328
144	0xbbffbaaf	-0.007804237
145	0x3ad07f07	0.0015906998
146	0xb68cb44e	-4.1933154e-06
147	0xbb074d37	-0.002064539
148	0xbb92bbb0	-0.0044779405
149	0x3c7ee717	0.015558026
150	0x3cf12f89	0.029441612
151	0x3bd53b86	0.00650734
152	0x3c29e4fb	0.010369535
153	0x3c1ac1d2	0.009445624
154	0xbc418716	-0.011811992
155	0x3c03dc2a	0.008048097
156	0xb90f1207	-0.00013644258
157	0xbba5383d	-0.0050421045
158	0xb9b854a9	-0.00035158292
159	0xb6c16e4a	-5.7646876e-06
160	0x39da46ae	0.0004163286
161	0xba42c71f	-0.0007430184
162	0xb124b6d8	-2.3969076e-09
163	0xbc63fc68	-0.013915159
164	0x00000000	0.0
165	0xbac3e828	-0.0014946507
166	0x3c628e3e	0.0138278585
167	0xbb5a83fa	-0.0033342824
168	0xb8588f82	-5.1632065e-05
169	0xbc115de7	-0.008872486
170	0x3c6415c0	0.013921201
171	0x3d0043e1	0.031314734
172	0xbc0cb94b	-0.008589099
173	0xbc36e0ba	-0.011161977
174	0x3b3dfc73	0.0028989583
175	0x3ad94ca6	0.0016578629
176	0xba12488f	-0.000558027
177	0xba451ca4	-0.00075192214
178	0xbb778915	-0.0037770916
179	0x3ba694c1	0.005083651
180	0x3b78a0ef	0.003793772
181	0xba81c4ed	-0.0009900607
182	0xbab3a895	-0.0013706858
183	0x3b6722df	0.0035268588
184	0xbc32b37e	-0.010907052
185	0x3c10a9f7	0.008829585
186	0x3c0cba3d	0.008589325
187	0x3c279814	0.010229129
188	0x3c726867	0.014795399
189	0x3cb32236	0.021866899
190	0xbbcbe452	-0.0062222863
191	0xbb8888e0	-0.0041667074
