waypoint_state_413_5_2_1.onnx (onnx, 694169 bytes, 20 tensors)

log_std f4 [4]
0	0xbe9bc086	-0.3042032
1	0xbe9908e9	-0.2988961
2	0xbe8b7466	-0.27237242
3	0xbe88a037	-0.26684734

features_extractor.state_extractor.0.weight f4 [128, 16]
0	0xbea129af	-0.31477115
1	0xbe7c43bb	-0.24635212
2	0xbdd5209e	-0.10406612
3	0xbd8a0b15	-0.06740395
4	0xbc63d6e1	-0.013906212
5	0x3c53ea00	0.012934208
6	0x3cf5592c	0.029949747
7	0x3dfdc923	0.123918794
8	0xbccb0e60	-0.024787128
9	0x3de34dec	0.11098847
10	0xbdb8ef1c	-0.090299815
11	0xbd31a10f	-0.043366488
12	0xba232173	-0.0006222941
13	0x3ce097a0	0.02741605
14	0xbc4d4c8f	-0.01253046
15	0x3ca66742	0.020312909
16	0x3d4355a2	0.047689088
17	0xbe4fb92a	-0.20285478
18	0xbe249c52	-0.16075256
19	0xbc80ee99	-0.015738772
20	0x3da6e5d5	0.08149306
21	0xbc13b086	-0.009014254
22	0x3ca07180	0.019585371
23	0x3e6287d2	0.22122124
24	0x3e085d4a	0.13316837
25	0xbd27de7f	-0.040983673
26	0xbd446b46	-0.047953866
27	0xbead8b41	-0.33895305
28	0x3d650b55	0.05591901
29	0x3da2ee64	0.07955626
30	0xbcba1f21	-0.022719922
31	0x3c7e66ba	0.015527422
32	0xbd7f6b43	-0.062358152
33	0x3a2b6ee9	0.0006539659
34	0xb8d7e658	-0.00010294904
35	0xbcc47a0d	-0.02398398
36	0x3c1b2c83	0.009471062
37	0xb729bc95	-1.0117093e-05
38	0xbccdac7a	-0.025106657
39	0xb36f2bc1	-5.5686318e-08
40	0x3b4b30e4	0.0031004483
41	0xb6b56175	-5.405566e-06
42	0xbcc0a858	-0.023517773
43	0xb9ec6957	-0.00045091912
44	0x3816a4b7	3.591619e-05
45	0xaba9a762	-1.205463e-12
46	0x1e7ebac7	1.3485273e-20
47	0x1af91748	1.030216e-22
48	0xbdb14797	-0.08656233
49	0x3d06355d	0.032765735
50	0xbda0c42b	-0.07849916
51	0x3d2a5bd4	0.04159148
52	0xbe571538	-0.21004188
53	0xbd8dafac	-0.069182724
54	0x3ea06d7d	0.31333533
55	0xbe6813ba	-0.22663775
56	0xbe40ce63	-0.1882873
57	0xbdde54b2	-0.10855998
58	0xbe3572e2	-0.17719606
59	0xbd0c95e2	-0.034322627
60	0xbe5f37b9	-0.217986
61	0xbd9a8b3b	-0.07546087
62	0xbd1300b9	-0.03588936
63	0x3de8a942	0.11360408
64	0x3d793f61	0.06085146
65	0xbdc487b7	-0.09596198
66	0x3d5203af	0.051273044
67	0x3e007e0c	0.12548083
68	0x3da6fc48	0.081535876
69	0x3e873fa6	0.26415747
70	0xbdad3dee	-0.08459078
71	0x3d871b56	0.06597011
72	0xbddc805b	-0.10766669
73	0xbdbdace8	-0.09261495
74	0x3ebcf096	0.36902303
75	0x3ea4c384	0.32180417
76	0xbd2a5ae3	-0.041590583
77	0xbc9673df	-0.018365799
78	0x3b875691	0.0041301926
79	0xbdb1d73e	-0.08683632
80	0x3d4ba318	0.049716085
81	0x3d4c5e1c	0.049894437
82	0x3cd4c281	0.025971653
83	0x3e28bb9e	0.1647782
84	0x3d109ced	0.035305906
85	0xbce654ea	-0.028116662
86	0x3b966696	0.004589866
87	0xbda264fe	-0.07929419
88	0xbd8cc847	-0.06874137
89	0x3dae68b8	0.08516067
90	0x3e185c1b	0.14878885
91	0xbe095fe5	-0.13415487
92	0x3d280b18	0.041026205
93	0x3cbb4599	0.022860335
94	0xbdda918a	-0.106722906
95	0x3db342a6	0.087529466
96	0xbdb07414	-0.0861589
97	0xbd84bb13	-0.06480994
98	0x3d1efe65	0.03881683
99	0xbe345887	-0.17611896
100	0xbe3acfbb	-0.18243305
101	0x3cff90a4	0.0311969
102	0xbe2047db	-0.1565241
103	0xbdb20bef	-0.086936824
104	0x3cee5616	0.029093783
105	0xbd819ae3	-0.063283704
106	0xbc22220b	-0.009895812
107	0x3cf424b4	0.029802658
108	0x3ccf654a	0.025316853
109	0x39900018	0.0002746589
110	0x396c0302	0.00022507834
111	0x369ad256	4.614044e-06
112	0xbe0259c9	-0.12729563
113	0xbe0b3c56	-0.13597235
114	0x3c1d49a1	0.009600074
115	0xbd9b81ac	-0.07593092
116	0xbdc0ebd4	-0.09419981
117	0xbdcb7718	-0.09934825
118	0xbe258369	-0.1616341
119	0xbd6103b6	-0.05493518
120	0x3cc91568	0.02454634
121	0x3d420e74	0.047377065
122	0x3e3c44ee	0.1838567
123	0xbd04d86b	-0.032432955
124	0xbb93455e	-0.004494353
125	0x398ecb28	0.00027235714
126	0xbc30ff91	-0.010803119
127	0x3c2f76a1	0.010709436
128	0xbd69e9e6	-0.05710783
129	0x3e82c1a6	0.25538367
130	0xbd474a96	-0.048655115
131	0x3e5d5437	0.21614157
132	0xbdcbfe1d	-0.09960578
133	0xbe2f7bdf	-0.17137097
134	0xbd305ebb	-0.043059092
135	0xbd79ca58	-0.060983986
136	0x3dc3c9a3	0.095599435
137	0xbdacaca6	-0.084313676
138	0xbe34dae8	-0.17661631
139	0x3e034ac4	0.1282149
140	0x3c42e60b	0.011895667
141	0xbbd4b494	-0.006491253
142	0x3c9d4deb	0.019202193
143	0xbbe216e6	-0.0068997024
144	0x3e370347	0.17872344
145	0x3c29314d	0.010326696
146	0xbd0fc72b	-0.03510205
147	0xbe4cf5ce	-0.20015642
148	0x3d8496be	0.06474064
149	0x3dc2b763	0.095076345
150	0x3e9bccac	0.3042959
151	0x3de5da76	0.11223309
152	0x3e343374	0.17597753
153	0x3ecacadc	0.39607894
154	0xbdc5c2cf	-0.096562974
155	0xbda4f58f	-0.08054649
156	0xbe644c6f	-0.22294782
157	0xbe2511c8	-0.16120064
158	0x3da84417	0.08216112
159	0x3cbd9edd	0.023147041
160	0xbea23158	-0.3167827
161	0x3eac834c	0.33693922
162	0x3c977180	0.018486738
163	0xbe1930fb	-0.14960091
164	0x3e759506	0.23982629
165	0x3e183bf4	0.1486662
166	0x3cc7d402	0.024393085
167	0xbe3c0a0f	-0.18363212
168	0xbe4dad98	-0.20085752
169	0x3de0356e	0.10947691
170	0x3da099a3	0.07841804
171	0x3db330d4	0.087495476
172	0x3d57d0d5	0.052689392
173	0x3b132b70	0.002245631
174	0xbd8f6cca	-0.07003172
175	0x3c827033	0.015922641
176	0xbebc147b	-0.36734375
177	0xbdd893f0	-0.10575092
178	0x3d7e59b8	0.06209728
179	0xbe11cdcd	-0.14238663
180	0xbcf60aad	-0.030034387
181	0x3cc2ac93	0.02376393
182	0x3d29c7ba	0.04145024
183	0xbd94f8f8	-0.072740495
184	0xbe47baef	-0.19504903
185	0x3dae0bb6	0.084983274
186	0xbe6543d3	-0.22389154
187	0x3dcd7cf4	0.100335985
188	0xbd6e1080	-0.058121204
189	0xbba83c7e	-0.0051341644
190	0x3bb48ec1	0.0055101817
191	0x3ce3a1a9	0.027787047
192	0x3e10a2f4	0.14124662
193	0x3da856c2	0.08219673
194	0x3cf62d5c	0.030050926
195	0x3ddc80ce	0.10766755
196	0x3e17c189	0.14819922
197	0xbd69e2ce	-0.057101063
198	0x3c4ebab1	0.012617753
199	0xbdadf274	-0.0849351
200	0x3d0bb151	0.03410465
201	0xbe0d4a68	-0.13797915
202	0xbdaab188	-0.08334643
203	0x3dc0443d	0.093880154
204	0x3d8c41bc	0.06848475
205	0x3c06c3e2	0.008225413
206	0xbc1e955a	-0.009679163
207	0x3dabe4c1	0.08393241
208	0xbd4c516b	-0.049882334
209	0xbda8adfd	-0.08236311
210	0x3d1ccbf6	0.03828045
211	0xbde8eb62	-0.11373021
212	0x3ea018ff	0.3126907
213	0x3d30f2d9	0.043200348
214	0xbc28fc63	-0.01031408
215	0x3db2bf7c	0.08727929
216	0x39b2af6c	0.00034081505
217	0xbc658ea8	-0.014011063
218	0xbc23f543	-0.010007205
219	0xbd4e14ba	-0.050312735
220	0xbcf725a2	-0.030169312
221	0xbc5f783f	-0.013639509
222	0x3c906521	0.017626347
223	0xbb5251cd	-0.0032092214
224	0x3d869014	0.065704495
225	0xbe42356f	-0.18965696
226	0xbe0d2505	-0.13783653
227	0xbc986fe8	-0.018608049
228	0x3dd9b7f3	0.10630789
229	0x3d03293e	0.032021753
230	0x3d30b423	0.04314054
231	0x3e6b11da	0.22956029
232	0xbd623cbb	-0.0552337
233	0x3ddbf46b	0.107399784
234	0x3de01420	0.109413385
235	0xbeed7c4c	-0.46383893
236	0x3d5b5aee	0.053553514
237	0x3e757101	0.23968889
238	0x3dd1247d	0.10212038
239	0x3cfc91e6	0.030831289
240	0xbe2e81df	-0.1704173
241	0xbbc1d263	-0.0059149726
242	0xbe1cc7e7	-0.15310632
243	0x3e350ff7	0.17681871
244	0xbcf708df	-0.030155597
245	0x3c43e47d	0.011956331
246	0xbc6ab1f4	-0.014324654
247	0x3c024c26	0.0079527255
248	0xbd032de4	-0.032026187
249	0x3e52a396	0.20570216
250	0xbe4fc218	-0.20288885
251	0xbd209b25	-0.039210457
252	0x3deaa582	0.11457349
253	0x3d3f7f7e	0.046752445
254	0x3d711e98	0.058867067
255	0x3c8b66b4	0.017016746

features_extractor.state_extractor.0.bias f4 [128]
0	0x3c4ab7fd	0.012372968
1	0x3cd479e1	0.025937023
2	0xbbc376dc	-0.005965097
3	0x3ba15d2e	0.004924438
4	0xbcdbd9ce	-0.026837256
5	0x3c96d0e5	0.018410156
6	0x3cc9d4c9	0.024637597
7	0x3ca832fd	0.020532126
8	0x3cb3ccaf	0.021948187
9	0xbbcd915b	-0.0062734312
10	0x3c93c1ba	0.018036712
11	0x3b999bb2	0.00468775
12	0x3b337367	0.0027382018
13	0x3cf0a301	0.029374601
14	0xb9bf31f1	-0.00036467568
15	0x3d3b8733	0.045783233
16	0xbb76cd68	-0.0037659053
17	0x3c7f5489	0.01558412
18	0xbc33ece1	-0.010981769
19	0xbb35b771	-0.0027727748
20	0x3bfe2345	0.0077556693
21	0x3b9c9c8a	0.004779403
22	0x3d646b8a	0.05576662
23	0x3cdd61ee	0.027024236
24	0x3c85f04e	0.016349938
25	0x3c8f007d	0.017456288
26	0x3c8c158c	0.017100118
27	0x3d65bc49	0.056087766
28	0x3ca4b088	0.020103708
29	0x3d3c3d5f	0.045956966
30	0x3d1e89c7	0.038705613
31	0x3c0dfc16	0.008666059
32	0xbbf6352c	-0.007513663
33	0x3bce91d9	0.0063040075
34	0x3bc0aaff	0.0058797593
35	0x3cecdbcc	0.028913401
36	0xba6e3c7b	-0.0009087992
37	0x3cbffada	0.023435045
38	0x3d08ec1e	0.033428304
39	0x3c28ec0d	0.010310185
40	0x3b661e1b	0.003511316
41	0x3bc75284	0.0060828347
42	0x3d4f7e04	0.050657287
43	0x3cbc4f2e	0.022986975
44	0x3d2f9fb4	0.042876914
45	0x2ca0ebca	4.5736514e-12
46	0x39cd6f86	0.00039183738
47	0x3bb69b7b	0.005572734
48	0x3d4d8769	0.050177965
49	0x3c23bdf8	0.009994023
50	0x3c95316a	0.018212039
51	0x3b03aaa5	0.0020090726
52	0xb5e68ff4	-1.7178231e-06
53	0xbd005da6	-0.03133931
54	0x39b30ecf	0.00034152574
55	0x3c71c10d	0.0147555
56	0x3d5918bb	0.0530021
57	0x3c6d32fb	0.014477487
58	0xba818495	-0.0009881431
59	0x3ba16548	0.0049254037
60	0xbc31aa46	-0.010843819
61	0xbc87c5e2	-0.01657385
62	0x3c3eac20	0.0116377175
63	0x3c94e0cb	0.018173596
64	0x397e303f	0.000242413
65	0x3c991d4b	0.018690726
66	0x3c177080	0.009243131
67	0x3d8a7c19	0.06761951
68	0xbb9fd92e	-0.0048781848
69	0x3d0d6014	0.034515455
70	0x3d717696	0.058950983
71	0x3c7fbd21	0.015609057
72	0x3c4a4ece	0.01234789
73	0x3c8422f0	0.01612994
74	0xbc4768dd	-0.012170997
75	0x3beabb01	0.007163406
76	0x3d1bde96	0.03805407
77	0x3cc80d92	0.024420533
78	0x3c765bea	0.015036562
79	0xa532a75c	-1.5495742e-16
80	0x3c84e5e5	0.016222904
81	0x3bb9f50e	0.0056749647
82	0x3c89ad59	0.016806291
83	0xbbd02c54	-0.0063529406
84	0x3c1e8a05	0.009676461
85	0x3c7ff608	0.015622623
86	0xbbc8029a	-0.0061038258
87	0x3c3e04a8	0.01159779
88	0x3ce111d0	0.027474314
89	0x3d7aadce	0.06120091
90	0x3c78f24b	0.015194486
91	0x3d5e39e7	0.05425444
92	0xbb6d7d29	-0.0036237931
93	0xb9eb2852	-0.00044852734
94	0x3ccaf8ec	0.024776898
95	0xbc34139b	-0.010991002
96	0x3afb052c	0.0019151322
97	0x39adf7ab	0.00033181658
98	0x3c0665aa	0.00820295
99	0x3cb4f660	0.022090137
100	0x3c94f3c0	0.018182635
101	0x3d753837	0.059868064
102	0x3c02bc20	0.007979423
103	0x3c3c38f9	0.011488193
104	0x3b891df0	0.004184477
105	0x3cb1c3a8	0.021699741
106	0x3d558c42	0.052135713
107	0x395e566a	0.00021203762
108	0x3c3d2226	0.011543786
109	0x3b853dd1	0.004066207
110	0x3dc25450	0.094887376
111	0x3d907d8b	0.070551954
112	0x3be1a9be	0.00688669
113	0xb2c1df8d	-2.2569816e-08
114	0x3c60147f	0.013676762
115	0xbc179167	-0.009250975
116	0x3ba38f79	0.0049914685
117	0x3d093373	0.03349633
118	0xbc67c2d9	-0.014145576
119	0x3b5a0517	0.0033267194
120	0x3b52ee4e	0.0032185498
121	0x3c83b759	0.016078638
122	0x3c678664	0.014131162
123	0x3c81b438	0.015833005
124	0xbcbd4cb7	-0.02310787
125	0x3c3c2661	0.01148376
126	0x3b9aaf4e	0.004720605
127	0x3b776d6d	0.0037754432

features_extractor.state_extractor.2.weight f4 [128, 128]
0	0x3d86d806	0.06584172
1	0x3e2c71a1	0.16840221
2	0xbb49d38f	-0.0030796265
3	0xbe5657c0	-0.20931911
4	0xbe45fb31	-0.19334103
5	0xbe1648e5	-0.14676245
6	0x3ada1acd	0.0016640067
7	0x3d0b4b17	0.034007158
8	0x3e821bfc	0.25411975
9	0x3da12a10	0.07869351
10	0x3bbc0b96	0.005738686
11	0xbebbfa86	-0.36714572
12	0xbdaa32cb	-0.08310469
13	0xbdccd6cf	-0.10001909
14	0xbe5f31fa	-0.21796408
15	0xbd4875cb	-0.04894046
16	0xbe34fd88	-0.1767484
17	0xbe22b2de	-0.15888545
18	0xb92f7e6e	-0.00016736399
19	0x3c90c452	0.017671738
20	0xbe3ad5f6	-0.18245682
21	0xbdd11ccc	-0.10210571
22	0x3e18f8db	0.14938681
23	0xbdaa44d8	-0.08313912
24	0x3e072eea	0.1320149
25	0x3d05a14e	0.032624535
26	0x3d020400	0.031742096
27	0xbdcd27c0	-0.10017347
28	0xbd607954	-0.054803208
29	0x3ce457ee	0.02787396
30	0x3e98c640	0.29838753
31	0x3e13051f	0.14357422
32	0x3dae4c44	0.0851064
33	0x3db821ff	0.08990859
34	0x3d737a86	0.05944302
35	0x3df40ef4	0.119169146
36	0xbe12ad04	-0.14323813
37	0xbe2b723b	-0.16742794
38	0x3e4d30a9	0.20038094
39	0x3dea1694	0.11430088
40	0xbddf8256	-0.109135315
41	0x3e2f9acd	0.17148896
42	0x3df6121a	0.12015171
43	0xbda0805e	-0.07836984
44	0xbe8f07ed	-0.27935734
45	0x9279fa2d	-7.887891e-28
46	0x1b138b78	1.220462e-22
47	0xbc7307cd	-0.014833403
48	0x3e2d692e	0.16934654
49	0x3d478147	0.048707273
50	0x3e074e6e	0.13213512
51	0xbd7b7e5c	-0.061399803
52	0x80055cc1	-4.92451e-40
53	0x3decfd78	0.11571783
54	0xbbb6554a	-0.0055643665
55	0xbe56a7d9	-0.20962466
56	0xbdd37a16	-0.103260204
57	0xbd059efd	-0.032622326
58	0x13cb5dda	5.133695e-27
59	0x3cd25bfe	0.02567863
60	0x26578181	7.476862e-16
61	0x3c479c6b	0.012183289
62	0x3e87857a	0.26469022
63	0x3d216871	0.039406244
64	0xbd1a71ba	-0.037706114
65	0x3e4e4c8a	0.20146385
66	0xbd10aa3b	-0.035318594
67	0xbd9f18c7	-0.07768398
68	0x3d663db8	0.056211203
69	0x3c35458a	0.011063943
70	0x3bc725db	0.006077511
71	0x3d4adb7b	0.04952572
72	0x3e91c402	0.28469855
73	0xbde38d58	-0.111109436
74	0x3e2bc9bf	0.16776179
75	0x3d464838	0.048408717
76	0xbe35da58	-0.17759073
77	0xbe2836f1	-0.16427208
78	0x3c27a514	0.010232229
79	0x800439be	-3.88056e-40
80	0x3c70cac0	0.014696777
81	0x37979065	1.8067842e-05
82	0x3c75ded7	0.015006742
83	0xbbb89134	-0.005632544
84	0x3e6f42b8	0.23365295
85	0x3e0bfe74	0.13671285
86	0xbe25d1da	-0.16193333
87	0x3e254ea2	0.16143277
88	0x3e0762ea	0.13221326
89	0xbda313ed	-0.07962785
90	0x3d5fbd87	0.054624107
91	0x3e969bbb	0.29415688
92	0xbca7f7ff	-0.020503996
93	0xbe0b8485	-0.13624771
94	0x3e4f7de2	0.20262864
95	0xbe96b211	-0.2943273
96	0x3cee287b	0.029072037
97	0x3d88137a	0.0664434
98	0xbe94682f	-0.28985736
99	0xbceb5abd	-0.02872979
100	0x3de20902	0.11036874
101	0xbe305e9a	-0.17223588
102	0xbcc6fc81	-0.024290325
103	0xbe8eb110	-0.27869463
104	0x3dba842a	0.091072395
105	0xbe44faff	-0.19236372
106	0xbe6fc11e	-0.23413512
107	0xbec85e63	-0.3913451
108	0x3d86f725	0.06590108
109	0xbc95e89a	-0.01829939
110	0xbd71880b	-0.05896763
111	0xbe1c2da2	-0.15251783
112	0xbe9b390b	-0.30316958
113	0x00055e2c	4.9296e-40
114	0x3e329e8c	0.17443293
115	0xb9156936	-0.00014248941
116	0xbd15fbf2	-0.036617227
117	0x3d9b8f17	0.075956516
118	0x38069cfc	3.2094293e-05
119	0x3e99f6ea	0.30071193
120	0xbc2fd776	-0.010732522
121	0xbd313edc	-0.043272838
122	0x3e6ebb81	0.23313715
123	0x3e1ba07f	0.15197943
124	0xbe511a5c	-0.20420212
125	0x3bb997c6	0.0056638448
126	0xb5705b62	-8.9539947e-07
127	0xbd510497	-0.051029768
128	0xbd48d06f	-0.049026903
129	0x3b60cb74	0.0034300955
130	0xb8685c91	-5.539932e-05
131	0x3dbcf692	0.09226717
132	0xbd966e9c	-0.07345316
133	0x3d99950b	0.07499131
134	0xb967fba5	-0.00022123622
135	0x3d613a7e	0.054987423
136	0xbdc3d419	-0.09561939
137	0xbe880ba4	-0.2657138
138	0xbdba600b	-0.0910035
139	0xbe04b480	-0.1295948
140	0xbd90e090	-0.07074082
141	0xbd04ecf4	-0.03245254
142	0xbd324a1c	-0.043527707
143	0x3e87e4f8	0.26541877
144	0x3e1dca4d	0.15409203
145	0xbe2f9907	-0.17148219
146	0x296aed29	5.216414e-14
147	0x3e21adc4	0.15788943
148	0xbe2c46a9	-0.1682383
149	0x3d50442e	0.05084627
150	0x3cd226e1	0.025653305
151	0xbdb99c9a	-0.090630725
152	0xbd213db8	-0.0393655
153	0xbe46e56e	-0.19423458
154	0xba40a90e	-0.000734941
155	0x3da997b1	0.08280886
156	0x3d88ce0b	0.066799246
157	0xbc8fda64	-0.017560191
158	0x3e054466	0.13014373
159	0x3e0d94e0	0.13826323
160	0x3e01d359	0.12678279
161	0x3d9a3182	0.07528974
162	0x3e9a8d01	0.30185702
163	0x3d1c3a80	0.038141727
164	0xbdc230c0	-0.094819546
165	0x3dd84366	0.1055973
166	0xbdc171b9	-0.09445519
167	0xbe22d58d	-0.15901776
168	0x3e88c758	0.26714587
169	0x3e589e67	0.21154176
170	0x3e5e575d	0.21713014
171	0xbe45f2e3	-0.19330935
172	0xbe183a9c	-0.14866108
173	0x000559c6	4.91382e-40
174	0x1b53522f	1.7480066e-22
175	0xbdbb2814	-0.09138504
176	0x3ccc2ecf	0.024924664
177	0x3a18a763	0.00058232824
178	0x3e0bc79a	0.1365036
179	0x3cb04b2b	0.021520218
180	0x2688c640	9.490631e-16
181	0x3d912ed2	0.070890084
182	0x3d2826a0	0.04105246
183	0xbd67a7ce	-0.056556515
184	0xbe15768d	-0.14596005
185	0x3ca18eb3	0.019721365
186	0x989ef744	-4.1091717e-24
187	0x3df5c648	0.1200071
188	0xa9119ffc	-3.2335232e-14
189	0x3abb32ac	0.0014282069
190	0xbe3bea7c	-0.18351167
191	0xbe15d9cf	-0.14633869
192	0xbe6e0ae2	-0.23246339
193	0x3dfaebb9	0.12251992
194	0xbda230f5	-0.07919494
195	0xbe17d3f8	-0.14826953
196	0xbe7d469f	-0.24733971
197	0xbdd1691f	-0.102251284
198	0x3e72e813	0.23721342
199	0xbc1537c5	-0.009107535
200	0xbc440c5a	-0.0119658355
201	0x3c7e8098	0.015533589
202	0xbc9f36a2	-0.01943523
203	0xbd998726	-0.07496481
204	0xbdbef470	-0.093239665
205	0x3e0c2c1b	0.136887
206	0x3de8affe	0.11361693
207	0x825cb0d4	-1.6213795e-37
208	0x3bb69268	0.005571652
209	0x3af6be61	0.0018825048
210	0x3b05f7d0	0.0020441897
211	0xbe3cf1f0	-0.18451667
212	0x3e58c4f0	0.21168876
213	0x3dafd321	0.085851915
214	0x3e2a48b0	0.1662929
215	0x3c6f0bc7	0.01459021
216	0x3d58c668	0.05292359
217	0x3d5a4c67	0.05329552
218	0x3d2394d2	0.039936848
219	0x3daaac5e	0.08333658
220	0x3a3dccd4	0.00072402996
221	0xbe15291b	-0.14566462
222	0x3e1591dc	0.14606422
223	0x3a5206a2	0.00080118526
224	0xbcc9d0ef	-0.02463576
225	0xbb30898c	-0.0026937453
226	0x3e872b78	0.26400352
227	0x3e126ee2	0.14300111
228	0xbe139700	-0.1441307
229	0xbdf51500	-0.11966896
230	0xbe572093	-0.2100852
231	0x3e00d5db	0.1258158
232	0xbd424548	-0.047429353
233	0x3d9085ab	0.07056745
234	0xbde2a35a	-0.11066313
235	0x3be70d51	0.007051148
236	0x3de70ee8	0.1128214
237	0xbc7f2035	-0.015571644
238	0x3e01a9fb	0.12662499
239	0x3df7fb0a	0.12108429
240	0xbd19648b	-0.0374494
241	0x38893e22	6.544242e-05
242	0x3d8092bd	0.06277988
243	0xb5a432b9	-1.2233714e-06
244	0xbe30b4f4	-0.17256528
245	0x3e8af614	0.27140868
246	0x38fee357	0.00012154009
247	0xbdbb6be5	-0.091514386
248	0xbb9bf938	-0.004759934
249	0x3e133618	0.14376104
250	0xbd89327d	-0.06699083
251	0x3e8d74c7	0.27628157
252	0xbe0bf20d	-0.13666554
253	0x39f74640	0.00047163852
254	0xb37d1be6	-5.8931526e-08
255	0x3e657a22	0.22409871

features_extractor.state_extractor.2.bias f4 [128]
0	0x3ca98b0d	0.020696187
1	0x3ce46209	0.027878778
2	0x3bb353ff	0.0054726596
3	0x3c6756f0	0.014119849
4	0x3cd3d5a4	0.025858708
5	0x3ca55aba	0.020184863
6	0x3c87d87e	0.016582724
7	0x3bc66af1	0.006055229
8	0x3c077e63	0.008269879
9	0x3bbbcdfe	0.0057313433
10	0x3ca68393	0.020326411
11	0x3c4f131f	0.012638836
12	0x3ccf9495	0.025339404
13	0x3c346c70	0.011012182
14	0x3c8cf42a	0.01720627
15	0x3ca998fc	0.020702831
16	0x3b0dce34	0.00216378
17	0xbae51168	-0.0017476501
18	0x3ba65e01	0.005077124
19	0x3c154277	0.009110085
20	0x3cfa1d19	0.030531453
21	0x3d0d84b2	0.034550376
22	0x00000000	0.0
23	0x3c0c6f5f	0.008571475
24	0xbbca1b8d	-0.006167835
25	0x3b81c362	0.003960059
26	0x3c654dc0	0.013995588
27	0x3b3451be	0.0027514542
28	0x3b6a92fb	0.0035793174
29	0x37a87310	2.008074e-05
30	0xbac99c76	-0.0015381712
31	0x3c6d3683	0.014478329
32	0x3caa316f	0.020775525
33	0x3b9325de	0.004490598
34	0x3ca88044	0.020568974
35	0x3c2fe3b8	0.010735445
36	0x397f5af4	0.00024352578
37	0x3c6ac11c	0.014328267
38	0x3ce77e83	0.028258568
39	0x3c40a74e	0.011758639
40	0x3a630f58	0.0008661649
41	0x3bfb7309	0.0076736254
42	0xb98f278e	-0.00027304556
43	0x3cb62910	0.022236377
44	0x3ada9643	0.0016676862
45	0x3c8c05aa	0.017092545
46	0xbc1d97ad	-0.009618682
47	0xba3b184b	-0.0007137104
48	0xb7adbd90	-2.0711479e-05
49	0x3cff7d9e	0.031187829
50	0xb9b64de0	-0.00034771767
51	0x3c5f01c5	0.013611262
52	0x3c22656c	0.009911876
53	0x3c6203a8	0.013794817
54	0x3b85fa1d	0.0040886537
55	0x3b97cf89	0.0046328944
56	0x3b3c4dac	0.002873282
57	0x3c9768ef	0.018482653
58	0x3c5d8d10	0.013522401
59	0x3ba0bc2a	0.0049052434
60	0x3cd10d97	0.025519175
61	0x3c437ffb	0.011932368
62	0x3c036097	0.008018634
63	0x3cad5f02	0.021163467
64	0x00000000	0.0
65	0x3c26bb68	0.010176517
66	0x3c4d07e6	0.01251409
67	0x3d22c913	0.03974254
68	0x3c3374f2	0.010953175
69	0x3bd8d1f9	0.0066168276
70	0x3ba1559f	0.004923537
71	0x3c118806	0.008882528
72	0x3c0c57c2	0.008565845
73	0x3c3cf988	0.011534102
74	0x3c64f081	0.013973356
75	0x3b50b896	0.0031848303
76	0x3caebfb1	0.02133164
77	0x3c4e00a7	0.012573398
78	0xbc3265b5	-0.010888507
79	0xbc3a193f	-0.011358558
80	0x3ca6d14c	0.020363472
81	0x3c8df5e7	0.01732917
82	0x3c391dc0	0.011298597
83	0x3c3abc3a	0.011397416
84	0x3c726112	0.014793651
85	0x3b28020c	0.0025635986
86	0x3c38182e	0.011236234
87	0x3c5f3fd9	0.013626062
88	0x3b50afbe	0.0031843032
89	0xbbba0424	-0.005676763
90	0x3c323bf4	0.010878552
91	0xbbb60a2e	-0.0055554127
92	0x3b532dea	0.0032223412
93	0x3bcd96db	0.006274087
94	0xbbaced23	-0.0052772923
95	0x3c6326d3	0.013864237
96	0x3c8745cd	0.016512776
97	0x3c884455	0.016634146
98	0x3c4d3b35	0.012526323
99	0x3bc202ea	0.0059207575
100	0x3bf8b08c	0.0075894054
101	0x3c5a1080	0.013309598
102	0xbad9f05e	-0.0016627421
103	0x3b9aa138	0.004718926
104	0x3bdaef7e	0.0066813817
105	0x3af05538	0.0018335944
106	0x3c5f5c27	0.013632811
107	0xbc36931d	-0.011143473
108	0x3bb15054	0.005411187
109	0x3c4ebe4d	0.012618613
110	0x3c2bd208	0.010487087
111	0x3c9e7c3c	0.019346349
112	0x3c077ce9	0.008269527
113	0x3babb31c	0.0052398574
114	0x3ca4be9d	0.020110423
115	0xb800ee72	-3.0739648e-05
116	0x80055b3c	-4.91906e-40
117	0x3c0742f1	0.008255706
118	0x3b1c54ad	0.0023854182
119	0x361a6a52	2.3009675e-06
120	0x3c1837ce	0.009290649
121	0xbc1bf05a	-0.0095177535
122	0x3c4908a7	0.012270129
123	0x3b2b23a6	0.0026113777
124	0x3cc9cd4d	0.024634028
125	0xbb792623	-0.0038017116
126	0x3a6874e4	0.0008867516
127	0xbad58efe	-0.0016293225

features_extractor.vd_extractor.0.weight f4 [128, 1]
0	0xb8e82570	-0.00011069595
1	0x83053f11	-3.9157584e-37
2	0xba15eb17	-0.000571893
3	0x3e0d0825	0.13772638
4	0xa6c08443	-1.3358526e-15
5	0x3bce5e3d	0.006297855
6	0xa2cf9f5a	-5.6276182e-18
7	0x80321149	-4.597976e-39
8	0xb9283efb	-0.0001604519
9	0xab22e298	-5.7868424e-13
10	0xa8af4b21	-1.9461485e-14
11	0xb084c8cc	-9.661334e-10
12	0x3e31629c	0.17322773
13	0x3e5bb8fb	0.21457283
14	0x3e716aeb	0.23575942
15	0xb942953e	-0.00018556879
16	0x840a06b9	-1.6224909e-36
17	0x3e31c803	0.17361455
18	0x3db9b9c3	0.09068634
19	0x3d140324	0.036135808
20	0x3de843a5	0.11341027
21	0x3e11fdb8	0.14256942
22	0x3daa5ba5	0.08318261
23	0x3e552e93	0.20818548
24	0xa50d5d27	-1.2261362e-16
25	0xa5688cf6	-2.0170552e-16
26	0x9d6d3b7d	-3.1397444e-21
27	0x3e5189e5	0.20462759
28	0x3e2de4f6	0.16981873
29	0x3bc5490c	0.0060206708
30	0x3e19ce2e	0.15020058
31	0x3c5f1238	0.0136151835
32	0x3e43ce3b	0.1912164
33	0xb7326a3e	-1.0634363e-05
34	0xa2627e61	-3.0695616e-18
35	0xa7004fe9	-1.7806888e-15
36	0xb9c7aba5	-0.00038084123
37	0x87aa048c	-2.558143e-34
38	0xb95e2d3b	-0.0002118842
39	0x3e06769b	0.13131182
40	0x3e530148	0.20605958
41	0xaf51265c	-1.9022067e-10
42	0x3da32bfb	0.07967373
43	0xa481fb26	-5.6370294e-17
44	0x3e3f902e	0.18707344
45	0x8e91e236	-3.5963093e-30
46	0x3d6ffc36	0.058590136
47	0xa8893f2a	-1.5237448e-14
48	0xa784e010	-3.688029e-15
49	0x3d9ce55e	0.07660936
50	0x3e93e8be	0.28888506
51	0x3d61dc97	0.05514201
52	0x879f55b0	-2.3974024e-34
53	0xa6bf38ef	-1.3268719e-15
54	0x80102c27	-1.485207e-39
55	0xb2544aae	-1.2357004e-08
56	0xb9628132	-0.00021601169
57	0x3eb89fcc	0.36059415
58	0xbad87bfb	-0.0016516441
59	0x3e662065	0.22473295
60	0x3e356fbf	0.17718409
61	0x3a01c636	0.0004950495
62	0x3e6d92c2	0.23200515
63	0x3dfe1260	0.124058485
64	0x3d228892	0.039681025
65	0xb6727633	-3.612961e-06
66	0x3dcfd9db	0.101489745
67	0xb77eadf9	-1.5180086e-05
68	0x3caa8f77	0.020820362
69	0x3e379ed4	0.17931682
70	0xb8d43af0	-0.00010119926
71	0x3e091063	0.13385157
72	0xace2d25a	-6.44666e-12
73	0x9544258a	-3.9611498e-26
74	0x3d9727ab	0.07380613
75	0x3dbb7ef3	0.09155073
76	0xb87dae52	-6.048225e-05
77	0x3e7fe44b	0.2498943
78	0x9aadafd3	-7.183518e-23
79	0x3e3a27f5	0.18179305
80	0xac38c364	-2.6256436e-12
81	0xa570ae35	-2.0875705e-16
82	0x3bec8a54	0.0072186384
83	0x3e407180	0.18793297
84	0x3cfa8ce5	0.030584762
85	0x3c301518	0.010747217
86	0xa1d4cd83	-1.4420077e-18
87	0x3d3cd19a	0.04609833
88	0x8005bb0c	-5.26277e-40
89	0x3e13bbea	0.14427152
90	0xadecca9b	-2.6920069e-11
91	0xb54cd86a	-7.6310846e-07
92	0xb6d7ba76	-6.429206e-06
93	0x3e28fdf5	0.16503127
94	0x3dd929f3	0.10603704
95	0xaec4e8fd	-8.954435e-11
96	0xb981f715	-0.00024788888
97	0xa24ec6e0	-2.802349e-18
98	0xba35f603	-0.00069412607
99	0x3de2dfa5	0.11077813
100	0x3dfa30bf	0.12216329
101	0x3dd2c485	0.102913894
102	0xb934944e	-0.00017221385
103	0x3e4dadb0	0.20085788
104	0xb9a727db	-0.00031882417
105	0x3d1c91ee	0.038225107
106	0x3d86a3ba	0.06574197
107	0xb432aaac	-1.6639632e-07
108	0x3d3b8f5b	0.04579101
109	0x3e1e5f20	0.15465975
110	0xae8e839b	-6.48079e-11
111	0xae0239e2	-2.9609988e-11
112	0x9a8e0b32	-5.874791e-23
113	0x3e36a412	0.17836025
114	0x3d75f046	0.060043596
115	0x80234d8b	-3.24206e-39
116	0xae7faef2	-5.813567e-11
117	0x938873a7	-3.444527e-27
118	0xaf292bf8	-1.5386081e-10
119	0x3de6407e	0.1124277
120	0xb627742c	-2.495256e-06
121	0x8e9a7bff	-3.8083335e-30
122	0x3d18840b	0.0372353
123	0xb5b23c14	-1.3279518e-06
124	0xb93d640d	-0.00018061716
125	0xb8a0d64a	-7.669309e-05
126	0x8006da55	-6.29336e-40
127	0xa2d0de34	-5.661378e-18

features_extractor.vd_extractor.0.bias f4 [128]
0	0xb9237481	-0.00015588292
1	0x00000000	0.0
2	0xba251cee	-0.00062985613
3	0x3cf0841a	0.029359866
4	0x00000000	0.0
5	0xbb93e6a7	-0.00451358
6	0x00000000	0.0
7	0x00000000	0.0
8	0xb93b71bc	-0.00017876079
9	0xb29fc71e	-1.8600584e-08
10	0x00000000	0.0
11	0x00000000	0.0
12	0x3c1c7395	0.009549041
13	0x3cb76480	0.02238679
14	0x3ccc6cde	0.024954256
15	0xba0179e4	-0.00049391226
16	0x00000000	0.0
17	0x3cbab303	0.022790438
18	0x3cc3ec32	0.023916338
19	0x3c17ab08	0.009257086
20	0x3c5090a5	0.012729798
21	0x3c859dbd	0.016310567
22	0x3c501c6f	0.012702092
23	0x3cc700f0	0.02429244
24	0x00000000	0.0
25	0x00000000	0.0
26	0x00000000	0.0
27	0x3c9744fc	0.018465512
28	0x3cdad120	0.026711047
29	0xbba829ac	-0.005131921
30	0x3cceadcf	0.025229363
31	0xbc014a78	-0.00789129
32	0x3c5172f7	0.012783757
33	0xb897bff0	-7.235992e-05
34	0x00000000	0.0
35	0x00000000	0.0
36	0xb9cab0eb	-0.00038660257
37	0x00000000	0.0
38	0xba15196f	-0.0005687689
39	0x3c69e811	0.01427652
40	0x3c8e891b	0.017399361
41	0x00000000	0.0
42	0x3c9533b4	0.01821313
43	0x00000000	0.0
44	0x3c0d9459	0.008641326
45	0x00000000	0.0
46	0xba8e2ccb	-0.001084709
47	0x00000000	0.0
48	0x00000000	0.0
49	0x3cf9ee49	0.030509131
50	0x3c9593f4	0.018259026
51	0x3c325b09	0.010885962
52	0x00000000	0.0
53	0x00000000	0.0
54	0x00000000	0.0
55	0xb61233ea	-2.1785913e-06
56	0xba350938	-0.0006905976
57	0x3ce8d8f9	0.028423773
58	0xbb0c0784	-0.0021366784
59	0x3caa576b	0.020793637
60	0x3cf4146d	0.029794896
61	0xbae408cc	-0.0017397641
62	0x3cf1fe51	0.029540213
63	0x3cd8bed8	0.026458189
64	0x3bf1ff78	0.0073851906
65	0xb7b4a025	-2.1532245e-05
66	0x3cfcc879	0.030857312
67	0xb94a806e	-0.00019312065
68	0x3bc41fb0	0.0059852228
69	0x3cbfe0f6	0.0234227
70	0xb8df5694	-0.00010649595
71	0x3cc9eefd	0.024650091
72	0x00000000	0.0
73	0x00000000	0.0
74	0x3b91aeeb	0.0044459007
75	0x3cb3ee19	0.02196412
76	0xb93fad7d	-0.00018279809
77	0x3cac5bde	0.0210399
78	0x00000000	0.0
79	0x3ca07717	0.019588036
80	0x00000000	0.0
81	0x00000000	0.0
82	0xbb9f2778	-0.004857
83	0x3c777012	0.015102403
84	0x3cb743f5	0.022371272
85	0xbbb840be	-0.0056229522
86	0x00000000	0.0
87	0x3b07dd41	0.0020731243
88	0x00000000	0.0
89	0x3c57b441	0.0131655345
90	0x00000000	0.0
91	0xb8254156	-3.9399914e-05
92	0xb8c30db3	-9.300876e-05
93	0x3c7b59da	0.0153412465
94	0xbc13f57a	-0.009030694
95	0x00000000	0.0
96	0xb9b5a3af	-0.00034644964
97	0x00000000	0.0
98	0xba79cf84	-0.00095295184
99	0x3c91d643	0.017802363
100	0x3cb2ed90	0.021841794
101	0x3ae49f8a	0.0017442566
102	0xba272aae	-0.0006376904
103	0x3cd1eca6	0.025625538
104	0xba496f4c	-0.0007684126
105	0x3c522a8c	0.012827527
106	0x3ceeacd5	0.029135147
107	0xb7228d20	-9.688811e-06
108	0x3c909238	0.017647848
109	0x3cb3ae32	0.021933649
110	0x00000000	0.0
111	0xb42d5352	-1.6142192e-07
112	0x00000000	0.0
113	0x3caeed27	0.021353317
114	0x3c90df66	0.01768465
115	0x00000000	0.0
116	0xb4298e14	-1.5791039e-07
117	0x00000000	0.0
118	0x00000000	0.0
119	0x3cdafba1	0.026731314
120	0x00000000	0.0
121	0x00000000	0.0
122	0x3ba89288	0.005144421
123	0xb84aeae4	-4.8379312e-05
124	0xb994e20f	-0.00028397187
125	0xb98a0aec	-0.0002632955
126	0x00000000	0.0
127	0x00000000	0.0

features_extractor.vd_extractor.2.weight f4 [128, 128]
0	0x80055926	-4.91158e-40
1	0x15c2b7c1	7.864589e-26
2	0x80055ed8	-4.93201e-40
3	0xab1af9a3	-5.505823e-13
4	0x00055939	4.91185e-40
5	0x800565a9	-4.95646e-40
6	0xaac0816f	-3.4195864e-13
7	0x80055c11	-4.92205e-40
8	0x80055861	-4.90882e-40
9	0x143a89bc	9.4177635e-27
10	0x00055787	4.90576e-40
11	0x306d2d5e	8.628457e-10
12	0x89a298d3	-3.9143797e-33
13	0x9e10a805	-7.658042e-21
14	0x8ab69f44	-1.7585872e-32
15	0x8005635b	-4.9482e-40
16	0x2b402157	6.825837e-13
17	0x32d7a269	2.510315e-08
18	0xb47539d6	-2.2838444e-07
19	0x80055adf	-4.91776e-40
20	0x18ac4b36	4.45369e-24
21	0x80055d19	-4.92575e-40
22	0x1d1bc52f	2.061602e-21
23	0x9595db8d	-6.052701e-26
24	0x8005593f	-4.91193e-40
25	0x2d8f810e	1.631453e-11
26	0x800566ac	-4.96009e-40
27	0x1ba377df	2.7043553e-22
28	0x1ad75ba2	8.9069957e-23
29	0x00055ac8	4.91744e-40
30	0x000559e0	4.91419e-40
31	0xaee6cf3b	-1.04960006e-10
32	0x2934e534	4.016683e-14
33	0x80056434	-4.95124e-40
34	0x80055b7a	-4.91993e-40
35	0x1e6423f4	1.20776544e-20
36	0x84760015	-2.8917199e-36
37	0x80055873	-4.90907e-40
38	0x0ff9dcc3	2.463833e-29
39	0x142669d5	8.40173e-27
40	0xa4c34a2d	-8.469343e-17
41	0x9b8e3e87	-2.3532337e-22
42	0x981c3a21	-2.0191875e-24
43	0x221d5a00	2.1325113e-18
44	0xb4aa8987	-3.1765032e-07
45	0x80055d03	-4.92544e-40
46	0xb01e8cea	-5.7680316e-10
47	0x2be84748	1.6504376e-12
48	0x2173fed6	8.2668875e-19
49	0x00055a5e	4.91595e-40
50	0x00055a49	4.91566e-40
51	0x07f703b5	3.7166608e-34
52	0xb1d824f8	-6.2906302e-09
53	0xb3c6cb00	-9.257019e-08
54	0x11e07cc2	3.5417856e-28
55	0x1ead9e32	1.8382516e-20
56	0x000558f0	4.91082e-40
57	0x14e613c3	2.323186e-26
58	0x00055dd0	4.92831e-40
59	0x098d8a0c	3.4074334e-33
60	0x80055aab	-4.91703e-40
61	0x8be57bb4	-8.839372e-32
62	0x9310c355	-1.8271661e-27
63	0x19d955cd	2.2471929e-23
64	0x057c1beb	1.1854111e-35
65	0x800558d1	-4.91039e-40
66	0x80055a6f	-4.91619e-40
67	0x0e513ba9	2.5789964e-30
68	0x1ec71c90	2.1081758e-20
69	0x9a49c64b	-4.1726006e-23
70	0x261e867a	5.499951e-16
71	0x00055fdd	4.93567e-40
72	0x80055dae	-4.92783e-40
73	0x3169cde3	3.4022996e-09
74	0x800557ea	-4.90715e-40
75	0xb717e2c9	-9.053104e-06
76	0x8005592f	-4.9117e-40
77	0x983455b7	-2.330773e-24
78	0x2b0819f7	4.835294e-13
79	0x9c61601b	-7.457047e-22
80	0x2aa2ab7a	2.8895967e-13
81	0x00055a91	4.91667e-40
82	0x10f34da8	9.596625e-29
83	0x0d1f9225	4.9171573e-31
84	0x000559ed	4.91437e-40
85	0x8b2aa1c8	-3.286252e-32
86	0x2029a85a	1.437056e-19
87	0xb28f222c	-1.666293e-08
88	0x89180066	-1.8296522e-33
89	0x80055c41	-4.92272e-40
90	0x13843ba5	3.33803e-27
91	0xaa12a69d	-1.302521e-13
92	0x163b82e5	1.5147043e-25
93	0xae87c01f	-6.173217e-11
94	0xa41faf8f	-3.4626333e-17
95	0x00055b97	4.92034e-40
96	0x800557d3	-4.90683e-40
97	0xaa8d2dcb	-2.5078407e-13
98	0x80056214	-4.94361e-40
99	0x1beb065a	3.8881593e-22
100	0x2d941d5a	1.6838687e-11
101	0x2a0d272d	1.2536908e-13
102	0x1ad2595a	8.699832e-23
103	0x00056299	4.94548e-40
104	0x80055b7d	-4.91997e-40
105	0x80055982	-4.91287e-40
106	0x00056bb6	4.97817e-40
107	0xa08cdcc1	-2.3863005e-19
108	0xafa01b45	-2.9123207e-10
109	0x800558bd	-4.91011e-40
110	0xb11f14c8	-2.3149358e-09
111	0x00056552	4.95524e-40
112	0x800558ee	-4.9108e-40
113	0x122083bf	5.0649488e-28
114	0x800558f5	-4.91089e-40
115	0x31739c75	3.545009e-09
116	0xaf79a643	-2.2705486e-10
117	0x80055792	-4.90592e-40
118	0x23b58b0f	1.9682953e-17
119	0x80056068	-4.93762e-40
120	0x800558e5	-4.91067e-40
121	0x00055bab	4.92062e-40
122	0x176174b7	7.2848736e-25
123	0x80055c42	-4.92273e-40
124	0x00055a8b	4.91658e-40
125	0x80055b66	-4.91965e-40
126	0x0005ea97	5.43332e-40
127	0x80055be2	-4.92139e-40
128	0x36607dbf	3.3451795e-06
129	0xa7bfd2d2	-5.324172e-15
130	0x2a495bd3	1.7884244e-13
131	0x3d6bc6ad	0.05756252
132	0x1f7024e0	5.085248e-20
133	0xbbdb6d52	-0.0066963816
134	0x2e3c990f	4.2882194e-11
135	0x0005d781	5.36486e-40
136	0x3b0b2856	0.002123376
137	0x80055cd1	-4.92474e-40
138	0x80055b0f	-4.91843e-40
139	0x00055c2f	4.92247e-40
140	0x3e39f1c9	0.1815864
141	0xbe8d0c74	-0.27548563
142	0x3e45540a	0.1927034
143	0x0e67d082	2.8573341e-30
144	0x1362b284	2.8613225e-27
145	0x3d7c9117	0.061661806
146	0x3c1c3d93	0.009536165
147	0x3c3cb0e2	0.0115167815
148	0x3d8ff553	0.07029214
149	0x3ccb0307	0.024781717
150	0x3e9fe121	0.31226447
151	0x3db3f55c	0.08787033
152	0x80055980	-4.91284e-40
153	0x3055f70b	7.784002e-10
154	0x2d3bb558	1.0669986e-11
155	0x3d073191	0.033006255
156	0xbc612206	-0.013741022
157	0xb678c451	-3.706915e-06
158	0xbe297315	-0.16547807
159	0xbd3dbc7a	-0.046322323
160	0xbda93d2c	-0.08263621
161	0x00055762	4.90525e-40
162	0x000563e3	4.9501e-40
163	0x80055bf2	-4.92161e-40
164	0x394ae939	0.00019351103
165	0x269cd8c0	1.0883425e-15
166	0x8005594d	-4.91213e-40
167	0xbe9b285f	-0.30304238
168	0xbe3acc6a	-0.1824204
169	0x9e377a78	-9.713265e-21
170	0x3dbd32e7	0.092382245
171	0x9d125174	-1.936505e-21
172	0x3e00f23b	0.12592404
173	0x30e4fd3e	1.6661159e-09
174	0x3dd3c4cb	0.1034027
175	0x80055c9f	-4.92404e-40
176	0x000195f3	1.45627e-40
177	0x3e301c57	0.17198311
178	0x3dd374fd	0.10325048
179	0xbd8e54b6	-0.06949751
180	0x9ad9efed	-9.013672e-23
181	0x00055d7c	4.92713e-40
182	0x1c5c88d4	7.296874e-22
183	0xa32679f1	-9.0247e-18
184	0x80055900	-4.91105e-40
185	0xbd241819	-0.040062044
186	0x10d37fed	8.3421926e-29
187	0xbd230e4c	-0.039808556
188	0x3cf289b6	0.029606681
189	0x3bf4c281	0.0074694757
190	0xbd9595dc	-0.07303974
191	0xbd96cb67	-0.07363015
192	0x3c829e43	0.015944606
193	0x80056030	-4.93683e-40
194	0xbe5d0cf7	-0.21586977
195	0xa97ec987	-5.6574127e-14
196	0x3d9ae4c1	0.075631626
197	0x3e1413de	0.14460704
198	0xba1ddc76	-0.0006021926
199	0xbc9131b8	-0.017723903
200	0x800557a5	-4.90618e-40
201	0x9b25c3b2	-1.3711713e-22
202	0x3d90fdb2	0.070796385
203	0xbd230255	-0.039797146
204	0x8005670d	-4.96145e-40
205	0xbdf0f9a3	-0.117663644
206	0xb4b00031	-3.2782694e-07
207	0x3e241ab9	0.16025819
208	0x923a989b	-5.887935e-28
209	0x301f432a	5.793931e-10
210	0xada899d3	-1.91677e-11
211	0x3e2a9329	0.166577
212	0xbe562278	-0.20911586
213	0x3d065c18	0.03280267
214	0x80055fce	-4.93546e-40
215	0xbdf478c6	-0.11937098
216	0x8adebb1a	-2.1448202e-32
217	0x3d14c161	0.036317233
218	0x80541da8	-7.72482e-39
219	0x234d84ae	1.1141168e-17
220	0x80055a80	-4.91643e-40
221	0xbd4f102c	-0.050552532
222	0xbde56791	-0.11201394
223	0x80055ba4	-4.92052e-40
224	0xb50d24ff	-5.258043e-07
225	0x00055e14	4.92926e-40
226	0x80055954	-4.91222e-40
227	0xbe31a617	-0.17348514
228	0x3d6ac5cc	0.05731754
229	0xbd0cdd5a	-0.034390785
230	0x8005623c	-4.94417e-40
231	0x3e9710db	0.29505047
232	0xa04021c5	-1.6274206e-19
233	0x3e436ce7	0.19084512
234	0xbdfb43f8	-0.122688234
235	0x800557c2	-4.90659e-40
236	0xbdeeeb0a	-0.11665924
237	0x3e6ebe0a	0.23314682
238	0x80055c44	-4.92276e-40
239	0x956b8f77	-4.7571046e-26
240	0x95823ca7	-5.2602274e-26
241	0x3d2355ec	0.039876863
242	0xbd302dd3	-0.04301245
243	0x00055faa	4.93495e-40
244	0x8005634b	-4.94797e-40
245	0x834c7479	-6.0083916e-37
246	0x80055a9b	-4.9168e-40
247	0x3c5d8e4c	0.013522696
248	0x00055c6c	4.92332e-40
249	0x00055e27	4.92953e-40
250	0xbc8cb0ce	-0.01717415
251	0x0005620c	4.9435e-40
252	0x330e90f3	3.3193782e-08
253	0x891d15a9	-1.8908372e-33
254	0x2f5cf5e6	2.0096244e-10
255	0x00055d2b	4.926e-40

features_extractor.vd_extractor.2.bias f4 [128]
0	0x00000000	0.0
1	0x3c378aff	0.011202573
2	0x3d749ebd	0.059721697
3	0xb8aebca9	-8.332107e-05
4	0x3bcfdc0b	0.00634337
5	0x3c3b2bde	0.011424033
6	0xbb236f6a	-0.0024938234
7	0x3cc16f44	0.023612626
8	0xbc10d69f	-0.008840232
9	0xbad5b382	-0.0016304108
10	0xbaed383b	-0.0018098423
11	0x3c767834	0.015043307
12	0xba26a934	-0.00063576107
13	0xbb13f943	-0.0022578991
14	0x00000000	0.0
15	0xbac939e3	-0.0015352335
16	0xb9cc907d	-0.00039017564
17	0x00000000	0.0
18	0x3c7d1971	0.01544796
19	0x3b2ddbc5	0.0026528698
20	0x3c6a5726	0.014303004
21	0x00000000	0.0
22	0x3c9196a1	0.01777202
23	0x00000000	0.0
24	0xbb335d0d	-0.0027368695
25	0x3cbe4085	0.023224125
26	0x00000000	0.0
27	0xbba6c465	-0.00508933
28	0x3d0a7df9	0.033811543
29	0x3c387434	0.011258174
30	0x00000000	0.0
31	0x00000000	0.0
32	0x3cbf19f6	0.023327809
33	0x3cb3957c	0.021921866
34	0xbaea576a	-0.0017878835
35	0xba513fa7	-0.0007982202
36	0x3c39ae37	0.01133304
37	0x00000000	0.0
38	0xb4237633	-1.5223559e-07
39	0x00000000	0.0
40	0x00000000	0.0
41	0x3a83a4bb	0.00100436
42	0x00000000	0.0
43	0xbb52c5a3	-0.0032161258
44	0x3cd55801	0.02604294
45	0x3cac4041	0.021026732
46	0x00000000	0.0
47	0xbb5d0afe	-0.0033728476
48	0x3cb01412	0.021493945
49	0x3c4b9dd4	0.012427766
50	0xbc775c82	-0.015097739
51	0xbc087e4c	-0.008330893
52	0xba217990	-0.0006159777
53	0x00000000	0.0
54	0xba69cad7	-0.000891847
55	0xb5eaa6ac	-1.7482866e-06
56	0x3b826531	0.003979348
57	0xbab6f453	-0.0013958312
58	0xbbf12e6b	-0.00736027
59	0x3ca61150	0.020271927
60	0xb8a50f1b	-7.870627e-05
61	0x39bc9684	0.00035970297
62	0xba9b0c7c	-0.0011829282
63	0x3cf73239	0.030175315
64	0x3c9ae97e	0.018910166
65	0x3d48d861	0.04903448
66	0x3bd42934	0.0064746384
67	0x00000000	0.0
68	0x00000000	0.0
69	0xb608022a	-2.026684e-06
70	0xb9ae0dcd	-0.0003319815
71	0x3c889f69	0.016677575
72	0x3d1a37d7	0.03765091
73	0x00000000	0.0
74	0x3c8bc0c1	0.017059686
75	0xbae705a9	-0.0017625588
76	0x00000000	0.0
77	0xba2a21ab	-0.0006490002
78	0x3c5c0191	0.013428108
79	0x3ccb7dac	0.024840198
80	0xba07bedf	-0.00051782833
81	0xb94bf711	-0.00019451628
82	0x00000000	0.0
83	0x3ca71b8c	0.020398878
84	0xbb169870	-0.0022979043
85	0x3c098910	0.008394495
86	0x00000000	0.0
87	0x3c260e6d	0.010135275
88	0x00000000	0.0
89	0x3c455d2d	0.012046141
90	0xbac12803	-0.0014736656
91	0xba8c8802	-0.0010721686
92	0x3ccdf03c	0.025138967
93	0xbac78148	-0.0015221024
94	0xbbfa890c	-0.007645732
95	0x3cc7f130	0.024407
96	0x00000000	0.0
97	0x3cc50051	0.024048002
98	0x3cbbab2a	0.022908766
99	0x3c0de14c	0.008659672
100	0x3beb468e	0.0071800416
101	0x3c4b9527	0.012425697
102	0x3c15e17f	0.009148001
103	0x3c9c2e16	0.019064944
104	0x3c7afea4	0.0153195
105	0x3c747492	0.014920371
106	0x3c83f689	0.016108768
107	0xb9d4e925	-0.00040609497
108	0x00000000	0.0
109	0x3c3a7d4e	0.011382414
110	0x3d187230	0.037218273
111	0x3cc3021a	0.023804713
112	0x00000000	0.0
113	0x3c5038f7	0.012708894
114	0xb8f674c4	-0.000117519434
115	0x3c8f7674	0.017512538
116	0x00000000	0.0
117	0xb846bcd3	-4.7382735e-05
118	0x3cf5c69e	0.030001935
119	0x3c54f7c2	0.012998523
120	0x3c4c0e29	0.012454548
121	0xba4fc062	-0.00079250906
122	0x3c9a4a09	0.01883413
123	0x3c8b6516	0.017015975
124	0x3ad70aba	0.0016406395
125	0x3bd32abf	0.0064443047
126	0xbb66b714	-0.0035204338
127	0x3bdf42d8	0.0068133883

mlp_extractor.policy_net.0.weight f4 [192, 256]
0	0x00055df4	4.92882e-40
1	0x80055d18	-4.92573e-40
2	0xac0d1f8f	-2.0054824e-12
3	0x00016542	1.2816e-40
4	0x80055883	-4.9093e-40
5	0x80055e02	-4.92901e-40
6	0x00055c93	4.92387e-40
7	0x80056293	-4.94539e-40
8	0x80056067	-4.9376e-40
9	0x00055f74	4.9342e-40
10	0xa66e7eec	-8.274485e-16
11	0x0005616a	4.94123e-40
12	0x00055c5f	4.92314e-40
13	0x00055bdf	4.92135e-40
14	0x80055b1e	-4.91864e-40
15	0x8b38333b	-3.5475652e-32
16	0xa98bb965	-6.205001e-14
17	0x80055c78	-4.92349e-40
18	0x000562a6	4.94566e-40
19	0x00055f5e	4.93389e-40
20	0xa35405e8	-1.1493794e-17
21	0x0005599c	4.91323e-40
22	0x000557a7	4.90621e-40
23	0x800558fb	-4.91098e-40
24	0xaa572834	-1.9109784e-13
25	0x0005599c	4.91323e-40
26	0xa378ecae	-1.3494226e-17
27	0xa6b7f834	-1.2765451e-15
28	0x07e62b59	3.4632031e-34
29	0x177658e7	7.9599098e-25
30	0x0f57bd24	1.06367456e-29
31	0x80056361	-4.94828e-40
32	0x1e03f37e	6.985435e-21
33	0x80055dd8	-4.92842e-40
34	0x84299a65	-1.9936749e-36
35	0x80055a08	-4.91475e-40
36	0x96005f13	-1.0369758e-25
37	0x806a56ee	-9.765747e-39
38	0x30a178d4	1.1748633e-09
39	0x00055b67	4.91966e-40
40	0x8810731f	-4.346875e-34
41	0x1103fb89	1.0411588e-28
42	0x8b691a97	-4.4894172e-32
43	0x12e7d586	1.4630787e-27
44	0x80055c00	-4.92181e-40
45	0x800559f9	-4.91454e-40
46	0xa803cb3f	-7.316033e-15
47	0x800643d8	-5.75351e-40
48	0x91ab04a7	-2.698191e-28
49	0x80056b43	-4.97656e-40
50	0x19d2edc8	2.180953e-23
51	0x80055d3c	-4.92624e-40
52	0x80056aff	-4.9756e-40
53	0x1ddb7a37	5.8095185e-21
54	0x8507cf12	-6.385702e-36
55	0x00055d53	4.92656e-40
56	0x8005640b	-4.95066e-40
57	0x000557c2	4.90659e-40
58	0x0005588f	4.90946e-40
59	0xb18e4d50	-4.1415333e-09
60	0x80055821	-4.90792e-40
61	0x00055ae1	4.91779e-40
62	0x08ce563d	1.24184485e-33
63	0x000559f9	4.91454e-40
64	0x9c88aae3	-9.043898e-22
65	0x018575b0	4.902536e-38
66	0x929eb429	-1.0015615e-27
67	0x9904368f	-6.835258e-24
68	0x90b0d7e3	-6.9752386e-29
69	0x800559a5	-4.91336e-40
70	0x00055cc5	4.92457e-40
71	0x131f2cdd	2.009074e-27
72	0xb7a6a387	-1.986489e-05
73	0x00055915	4.91134e-40
74	0x033fd9e4	5.637998e-37
75	0x00055d41	4.9263e-40
76	0x9b15480e	-1.2348273e-22
77	0x189bf86e	4.031741e-24
78	0x00055aba	4.91724e-40
79	0x00055fb2	4.93506e-40
80	0xb544e1be	-7.334419e-07
81	0x800557da	-4.90693e-40
82	0x90c50b6e	-7.772041e-29
83	0x0005630e	4.94712e-40
84	0x80055eb7	-4.93155e-40
85	0x000569d6	4.97144e-40
86	0x80055b17	-4.91854e-40
87	0x80055bc0	-4.92091e-40
88	0xa1ec04b0	-1.5993223e-18
89	0x000559d5	4.91403e-40
90	0x959a2d84	-6.2271916e-26
91	0x959a2f94	-6.227517e-26
92	0x95885094	-5.505709e-26
93	0x0005579c	4.90606e-40
94	0xa239985a	-2.515283e-18
95	0x00055af1	4.91801e-40
96	0x150add18	2.804329e-26
97	0x80056195	-4.94183e-40
98	0x80056d95	-4.98488e-40
99	0x8003d2be	-3.51107e-40
100	0x00056b25	4.97614e-40
101	0x00055aa5	4.91695e-40
102	0x9448c7e5	-1.0136842e-26
103	0x80055f23	-4.93306e-40
104	0x00055b11	4.91846e-40
105	0x00055adf	4.91776e-40
106	0x00055884	4.90931e-40
107	0x152ede08	3.5314172e-26
108	0x00055cc2	4.92453e-40
109	0x000558cc	4.91032e-40
110	0x000559df	4.91417e-40
111	0x83c9ddd1	-1.1864645e-36
112	0x80055904	-4.9111e-40
113	0x800542b6	-4.83109e-40
114	0x80056526	-4.95463e-40
115	0x00055de4	4.92859e-40
116	0x00055744	4.90482e-40
117	0x08e65793	1.386321e-33
118	0x80055aed	-4.91796e-40
119	0x0d992aca	9.439654e-31
120	0x80055af6	-4.91808e-40
121	0x00055b1c	4.91861e-40
122	0x00055f5b	4.93385e-40
123	0x0dc6c5ea	1.2250338e-30
124	0x00056624	4.95819e-40
125	0x9d71e3e1	-3.2013895e-21
126	0x00055830	4.90813e-40
127	0x08c2cd40	1.1724204e-33
128	0x8e8365fe	-3.239221e-30
129	0x00055d99	4.92754e-40
130	0x80055c07	-4.9219e-40
131	0x146f6ca7	1.2087844e-26
132	0x000558c2	4.91018e-40
133	0x2b8fcb7d	1.021724e-12
134	0x00055d5e	4.92671e-40
135	0x00056dcb	4.98564e-40
136	0x00055ba5	4.92053e-40
137	0x92f09a0a	-1.5184103e-27
138	0x0005586d	4.90899e-40
139	0x80055cba	-4.92442e-40
140	0xa19b8d39	-1.054059e-18
141	0x2f2966f2	1.5407034e-10
142	0x87f9e476	-3.7599633e-34
143	0x80055e33	-4.9297e-40
144	0x80055c5d	-4.92311e-40
145	0x800560e3	-4.93934e-40
146	0x0e00e647	1.5888093e-30
147	0x00055abd	4.91728e-40
148	0x9c6df072	-7.872749e-22
149	0x800559a6	-4.91337e-40
150	0x9ba65cdf	-2.7522413e-22
151	0x80056420	-4.95096e-40
152	0x80055c97	-4.92392e-40
153	0x00055790	4.90589e-40
154	0x000564cd	4.95338e-40
155	0x000559d5	4.91403e-40
156	0x80055c50	-4.92293e-40
157	0x268fe924	9.985811e-16
158	0x9a1f22ba	-3.290848e-23
159	0x00055952	4.9122e-40
160	0x00055c7b	4.92353e-40
161	0x00055917	4.91137e-40
162	0x00055a13	4.9149e-40
163	0x00055d1a	4.92576e-40
164	0x00055b25	4.91874e-40
165	0x00055a3a	4.91545e-40
166	0x800557f8	-4.90735e-40
167	0x000559c0	4.91374e-40
168	0x17512df0	6.7589523e-25
169	0x95dcf016	-8.923608e-26
170	0x91456d87	-1.557431e-28
171	0x80057134	-4.99787e-40
172	0x80055a62	-4.91601e-40
173	0x0c04b66e	1.0223808e-31
174	0x80055801	-4.90747e-40
175	0x00055f02	4.9326e-40
176	0x000557e2	4.90704e-40
177	0x800567b3	-4.96378e-40
178	0x00055862	4.90883e-40
179	0x80055ace	-4.91752e-40
180	0x0115c6d0	2.750962e-38
181	0x80055975	-4.91269e-40
182	0x80055ddb	-4.92846e-40
183	0x800562c1	-4.94604e-40
184	0x1f16f45d	3.1965868e-20
185	0x9a5b1c71	-4.5311113e-23
186	0x80055a3b	-4.91546e-40
187	0x80186976	-2.241884e-39
188	0x80055797	-4.90599e-40
189	0x00055b2b	4.91882e-40
190	0x00043545	3.86451e-40
191	0x00055976	4.9127e-40
192	0x00055b83	4.92006e-40
193	0x0005597e	4.91281e-40
194	0x000563a2	4.94919e-40
195	0x04b5a827	4.270732e-36
196	0x00055bbc	4.92086e-40
197	0x1dade347	4.6027718e-21
198	0x80055a90	-4.91665e-40
199	0x00055e86	4.93086e-40
200	0xaffda413	-4.6137014e-10
201	0x00055c9b	4.92398e-40
202	0x18b33e1d	4.6333134e-24
203	0x80055e7a	-4.93069e-40
204	0xa28cc6f0	-3.815771e-18
205	0x80055785	-4.90574e-40
206	0x0010f9fa	1.559043e-39
207	0x806f7ac3	-1.0237779e-38
208	0x1a1c89c1	3.237132e-23
209	0x2c399460	2.6372446e-12
210	0x800557a8	-4.90623e-40
211	0x00181753	2.212419e-39
212	0x0005575d	4.90518e-40
213	0x00055e0c	4.92915e-40
214	0x0ee5b85c	5.663039e-30
215	0x80055800	-4.90746e-40
216	0x00055943	4.91199e-40
217	0x1ca726ca	1.106116e-21
218	0x00055d55	4.92659e-40
219	0x800558a2	-4.90973e-40
220	0x80055767	-4.90532e-40
221	0x000561e5	4.94295e-40
222	0x00055835	4.9082e-40
223	0x80055ea0	-4.93123e-40
224	0x00055859	4.9087e-40
225	0x000558fd	4.911e-40
226	0x00055fa6	4.9349e-40
227	0x8f25ca51	-8.174093e-30
228	0x80055d9a	-4.92755e-40
229	0x80055962	-4.91242e-40
230	0x00055e27	4.92953e-40
231	0x80056a9d	-4.97423e-40
232	0x00055d20	4.92584e-40
233	0x00055f49	4.9336e-40
234	0x000558f6	4.9109e-40
235	0x80055c94	-4.92388e-40
236	0x80055804	-4.90752e-40
237	0x9294ab48	-9.382337e-28
238	0xacc141c3	-5.492691e-12
239	0x80055c31	-4.9225e-40
240	0x00055bc5	4.92098e-40
241	0x00055822	4.90794e-40
242	0x26731dbf	8.4347874e-16
243	0x80055efa	-4.93249e-40
244	0x896850ea	-2.796403e-33
245	0x800568c4	-4.9676e-40
246	0x80006be8	-3.871e-41
247	0x28857cfb	1.4820168e-14
248	0x00055dce	4.92828e-40
249	0x06cb069a	7.6369813e-35
250	0x921667ed	-4.7459753e-28
251	0x06361f44	3.4253366e-35
252	0x800561c2	-4.94246e-40
253	0x971caf59	-5.062764e-25
254	0xb0dfc2be	-1.6280735e-09
255	0x0005580e	4.90766e-40

mlp_extractor.policy_net.0.bias f4 [192]
0	0x00000000	0.0
1	0x3bbf46ff	0.005837321
2	0x00055d00	4.9254e-40
3	0x3a1ed3de	0.00060587924
4	0x000558d2	4.9104e-40
5	0x3b6dccbc	0.0036285361
6	0x3c1d8ecf	0.009616568
7	0x3c30d86a	0.010793785
8	0x38c4bc0e	9.381036e-05
9	0x3cdfc65b	0.027316263
10	0x3b91dc8c	0.00445134
11	0x3913bb76	0.00014088847
12	0x3ca0efc8	0.019645587
13	0xb9e38aab	-0.0004340013
14	0x3c023fea	0.007949809
15	0x3c94a3f8	0.018144593
16	0x8f296b57	-8.353016e-30
17	0x3ca210cb	0.019783398
18	0x80055a1d	-4.91504e-40
19	0x3cf11bf5	0.029432276
20	0x3b53d18b	0.0032320942
21	0xb5acb70a	-1.286827e-06
22	0x38d8f836	0.000103459155
23	0xb715b2d7	-8.9227315e-06
24	0x00000000	0.0
25	0x3bc7c17e	0.006096064
26	0xbbddd2d7	-0.006769519
27	0x3c37ce57	0.011218629
28	0x3c082f72	0.008312093
29	0x3bf33557	0.00742213
30	0xbaa323cd	-0.0012446583
31	0xbaca886f	-0.0015452037
32	0x3cc55855	0.024089972
33	0x00055958	4.91228e-40
34	0x3c0d7e92	0.008636134
35	0x3c27b9c6	0.010237163
36	0x3ce83027	0.028343273
37	0x3bd0fe60	0.00637798
38	0xb766893d	-1.3741022e-05
39	0x3ccc34c4	0.024927504
40	0x3c1b21dd	0.009468523
41	0xbb0ff899	-0.0021968244
42	0xbba20ed1	-0.004945614
43	0x3c45261c	0.012033012
44	0x00000000	0.0
45	0x3bad0912	0.0052806223
46	0xbb75128b	-0.0037395086
47	0x3b02e6e3	0.0019974045
48	0x3c967908	0.01836826
49	0x3727658f	9.977622e-06
50	0x3b24eb81	0.0025164785
51	0x3c32947a	0.010899657
52	0x3bff5f61	0.0077933525
53	0xba344f24	-0.0006878248
54	0x3bb99fde	0.0056648096
55	0x38a099d7	7.6580494e-05
56	0x3b70cac3	0.003674195
57	0x3bd4a17a	0.006488976
58	0xbc17d5c1	-0.0092672715
59	0x3aea6ce6	0.0017885237
60	0xbc9c1130	-0.019051164
61	0x3b715569	0.003682459
62	0x3ae6a1f6	0.0017595876
63	0x3af1a810	0.0018436927
64	0x3cce6339	0.025193797
65	0x3c273984	0.010206584
66	0x3c59dcae	0.013297243
67	0x3c5654fd	0.013081786
68	0x3c207b78	0.009795062
69	0xbaf0975a	-0.0018355653
70	0x3c58ed7c	0.013240214
71	0x3cb4ab75	0.022054413
72	0x3c4fdd05	0.0126869725
73	0xba0740b0	-0.00051594805
74	0x3c572455	0.013131221
75	0x0101ce88	2.3841737e-38
76	0x3b9dc078	0.004814204
77	0xbb8c40cc	-0.0042801853
78	0x3bf41433	0.007448697
79	0xb844f3f1	-4.695723e-05
80	0xba4f255a	-0.0007901989
81	0x3b64e6c1	0.003492758
82	0xb8b1adc7	-8.472386e-05
83	0xb9a9eda2	-0.00032411242
84	0x80055d38	-4.92618e-40
85	0x3c1cd8d5	0.009573181
86	0xbc5fec76	-0.0136672165
87	0xa85c3f54	-1.2226185e-14
88	0x3af9c32d	0.0019055359
89	0x3b828149	0.003982697
90	0x3cc47300	0.023980618
91	0x3d0b7db2	0.03405542
92	0x3d177fdd	0.036987174
93	0x3c056452	0.008141594
94	0x80056d30	-4.98347e-40
95	0x3cfb45f1	0.030673
96	0xa902dda9	-2.9058058e-14
97	0x80057367	-5.00576e-40
98	0xb8ef179e	-0.00011400807
99	0x3ccf53eb	0.02530857
100	0x3c05a26e	0.008156402
101	0xbbde8067	-0.006790209
102	0xbb558aa5	-0.003258386
103	0xb98c7a70	-0.00026794104
104	0x3cfe88d8	0.031071112
105	0x3bdadcb0	0.00667914
106	0x3d1629ad	0.03666084
107	0x3c9b9b0a	0.018994827
108	0x80055916	-4.91135e-40
109	0x3b919df6	0.0044438792
110	0xbb7223d9	-0.0036947636
111	0xbae15a22	-0.0017192999
112	0x3c2cd2e5	0.010548328
113	0xbab13c72	-0.0013522042
114	0xb8af5585	-8.3605795e-05
115	0x3b2a11e5	0.0025950607
116	0x3c0044b8	0.007828884
117	0x00056da5	4.9851e-40
118	0x3c347af1	0.01101564
119	0x3c99fbeb	0.018796882
120	0x3a62780e	0.00086391054
121	0xbba4f31d	-0.005033864
122	0x3ba5a000	0.005054474
123	0xbb103ed0	-0.0022010095
124	0xbb95fcd2	-0.0045772577
125	0xbb2f9791	-0.0026793221
126	0xb2706e5b	-1.39949305e-08
127	0x3bf58ce0	0.0074936002
128	0x3c8c7065	0.017143438
129	0xb09a6895	-1.1234699e-09
130	0x3c9e80a1	0.019348444
131	0x392c691a	0.00016442352
132	0xbb52b2a8	-0.0032149944
133	0xb871d288	-5.765495e-05
134	0x3cb1ead9	0.02171843
135	0x3b8ed9dc	0.004359467
136	0xb858f0fa	-5.172284e-05
137	0x3bbd1817	0.005770694
138	0x3c15c160	0.0091403425
139	0x3c7a2ee7	0.015269971
140	0xb8941de1	-7.062755e-05
141	0xbb8f692a	-0.00437655
142	0xbc3643a2	-0.011124523
143	0x388297da	6.2271676e-05
144	0xbb1d4c90	-0.0024001934
145	0x3b89f9c4	0.0042106826
146	0xb7c08f1c	-2.2954824e-05
147	0x3b5fe2dc	0.0034162318
148	0x3b946b4b	0.004529392
149	0x3c6be552	0.014397936
150	0x3d1919d9	0.037378166
151	0x3c3f7d51	0.011687593
152	0x3c38d3b6	0.011280945
153	0x3bf09b3e	0.007342725
154	0xbb16e650	-0.002302546
155	0x3c28aa6d	0.010294539
156	0x3c475e02	0.012168409
157	0x3c48e07b	0.012260552
158	0x80055b8b	-4.92017e-40
159	0x3ba79618	0.005114328
160	0x3c17b51d	0.009259489
161	0xbb2eba10	-0.0026661195
162	0xb7083afc	-8.119965e-06
163	0x3c17e24b	0.009270261
164	0x00000000	0.0
165	0xb9be5530	-0.00036303094
166	0x3cc57ef6	0.024108391
167	0xbc33b341	-0.01096803
168	0x3c734058	0.014846884
169	0x3c21de72	0.009879695
170	0x3ba47e4e	0.0050199395
171	0xbc34e992	-0.011042016
172	0x3c044708	0.008073576
173	0xbc8da76a	-0.017291743
174	0x3a75fbfa	0.0009383556
175	0xbb19eb8b	-0.0023486342
176	0x3c4cf5d8	0.012509786
177	0xba098a7b	-0.00052467705
178	0xbaa43686	-0.0012528456
179	0x3c4be33f	0.012444316
180	0x3cb1565b	0.021647623
181	0xbb98f659	-0.004668039
182	0xb78f668a	-1.7094677e-05
183	0xb5ca9d9c	-1.5096043e-06
184	0x3bfeb976	0.0077735735
185	0xbb820070	-0.0039673373
186	0xb9fb2412	-0.00047901325
187	0x3ca8b1e5	0.02059264
188	0xba359d02	-0.0006927998
189	0x3c826ce2	0.01592106
190	0xbbb6c372	-0.005577498
191	0x3ab5b8dc	0.0013864296
