waypoint_state_413_low_velocity_dynamic_1.onnx (onnx, 694169 bytes, 20 tensors)

log_std f4 [4]
00000000: 1ec3 8cbe 06ef 86be a522 83be 3bab 6dbe
-0.27492613 -0.26354235 -0.2561237 -0.2320985

features_extractor.state_extractor.0.weight f4 [128, 16]
00000000: e7ff 1dbe 231c eabd 493b e8bd 431f a4bc
00000010: 6d3f 12bd b20b 703d 910b 193c 2575 653e
00000020: 9a60 51bc 5d69 843e 7e5c b13d 0a3c 3ebc
00000030: d087 5a3d b35e bc3a bcea 64bd d34e db3c
00000040: 4d41 0e3e 78b4 ffbd e1ec 45be baf2 33bc
00000050: 9202 f03d 50a6 893c b9b8 0ebc f90f 7a3e
00000060: 6527 3d3e 0ab0 cbbd bcaf bebd a063 aebe
00000070: eb61 083d 83b6 413c 0ca2 4c3d 3b52 cc3c
00000080: 85b7 9fbd 163c 1d3b 8a37 f6ba d41c 11bd
00000090: 764c 5f3b 53d8 b8b9 7aad 05bd d5ea adb5
000000a0: 6fe3 bc3b a63c 30b8 c8dc 04bd 96c6 19bb
000000b0: 07a8 da39 cc99 95aa dc95 7c25 ba34 031d
000000c0: b925 debd f9bc 3b3d 0e83 0fbe a26f 343d
000000d0: 9c57 55be 144a e3bd ce6d 9d3e e286 99be
000000e0: 82fe 04be e44f 22bd ba3c 08be 8c32 ce3b
000000f0: 0432 95be 7918 08be 5370 8fbd fe3f f43d
00000100: 703a 413d 377c 2a3d f190 b13d 6a9a e23d
00000110: bcc8 9e3d 79bc a73e d2ba e8bd 7bdf 09be
00000120: b94e 0fbc 1c69 85bd 2d1a 963e 70da b93e
00000130: 1d48 22bd c8dc e53d 50c9 e43b 001b 42bd
00000140: a110 4c3b 1f64 143e 745a 73ba 941e 1a3e
00000150: ab0d 8d3d 9f36 12bd cdde 703a 14c7 a5bd
00000160: a2b3 19bd 5ffe 383e 0366 333e d8d9 72bd
00000170: ff1e 383c 62cf b53d c39e c3bd e170 413d
00000180: 68e8 4fbd 536b 48bd c6ef c33c 80a6 e1bd
00000190: 74f3 c5bd e856 8b3c 9f8e 0dbe 07b5 e3bc
000001a0: 417b 803b 4068 5cbd 4175 57bc 71df a43c
000001b0: 12c3 333c fc1d 3933 fef1 9034 f98e 2532
000001c0: f271 f0bd 72ce 18be 5f09 7d3c 4eb5 8abd
000001d0: 7f58 91bd e5c3 ecbd 2e5b 29be 3220 9bbd
000001e0: fb5f a13c d00f 833c 6f6b 333e 07ec 0cbd
000001f0: 70bf e93b 7a54 2035 99cc 07bc 602e 063b
00000200: a476 963c 822c 933e 3115 bf3c 7f05 733e
00000210: 134e 593c 685b 04be 31f7 2abd a4b7 9ebd
00000220: d49a f53d a466 b0bd 910f 46be 518d 2d3e
00000230: 409e ac3c 49b6 3dbc dbe3 c7bc ad4e f33b
00000240: bd5e b93d bb3c 66bd cb4c 83bb 1042 55be
00000250: a4aa c53c 600c 0f3e 954c a53e 1053 3e3e
00000260: 6910 f73c aa58 593e 5dad 0cbe 47ea f0bd
00000270: 040e adbd fcb6 c63c f8b0 f8bc ce98 9ebc
00000280: de38 24be c1df 8b3d 8ba9 28bd 9b3e 14be
00000290: ab93 763c 68cb 0d3e e78e a7bc bb88 1ebe
000002a0: f490 36bd 6ce6 043e 3a74 7cbd 7d2d 2b3d
000002b0: a951 2e3d 5f57 683c d37e 18bc 4cd3 b03b
000002c0: fa4d 08be 8895 05be bce7 f63b c6d4 9fbb
000002d0: 99c4 583d 59ee 733d baf8 2a3d 1f53 d33c
000002e0: 833a 02bc efde 323e f609 49bd be7b c23d
000002f0: 951c 103d 0c3b 16bd b05b 353c 04b2 913d
00000300: 9bf7 ea3d 97c2 923e 9d32 583d e8c8 d23d
00000310: 7de4 323e bb6a 87bd f81d cd3c d908 c9bd
00000320: 0705 c4bd f39a ccbd 1603 91bd 36fd b23d
00000330: cf5d 6c3a 0862 313d ceb0 c3bc 9b38 183d
00000340: 686f b9bd 947b b6be 8d57 7b3c 5c0f 8bbd
00000350: 9f6d 823e 393a 203d 9fcb 6bbc a6bc 793e
00000360: 8802 9bbd a0e7 a63d 80a0 da3c 9ca3 3abe
00000370: d069 4d3c 2b1b cf3b e188 883c 4e54 1c3c
00000380: 6de2 9f3d cb63 89be e765 1abe fe6f 9ebb
00000390: 6c54 d03d eb05 9a3b c6e6 803d 4f7f 8c3e
000003a0: ede7 00be 5963 903d bb7e 3c3e 00ad bbbe
000003b0: 8a3d 913d 1796 7f3e 3a99 753d c389 7ebc
000003c0: 1823 12be 2e39 0b3d ec85 10be 32b9 2d3e
000003d0: 046f 683d e0ab 093b 7960 dbbb 984d 85bd
000003e0: 2de1 6fbd 0104 713e 88e5 23be 78a8 8c3d
000003f0: b01e 003e 8af7 943d 6177 473d 3449 ad3c
-0.1542965 -0.11431148 -0.11339433 -0.020034438 -0.03570502 0.058604904 0.009341137 0.22407968
-0.012779379 0.25861636 0.086602196 -0.011610994 0.053352177 0.0014371484 -0.055887923 0.026770985
0.13892098 -0.124855936 -0.19328643 -0.0109831635 0.1171924 0.016802937 -0.0087110335 0.24420156
0.18472059 -0.09945686 -0.093108624 -0.34060383 0.033296507 0.011823299 0.049959227 0.024941554
-0.077986754 0.0023992113 -0.0018784862 -0.035427883 0.0034072674 -0.0003525639 -0.032636143 -1.295785e-06
0.005764417 -4.2018153e-05 -0.032437116 -0.0023464314 0.0004170539 -2.6574435e-13 2.190829e-16 1.7364965e-21
-0.10847039 0.045834515 -0.14014837 0.044051774 -0.20834202 -0.11098114 0.30747837 -0.2998572
-0.12987712 -0.03962697 -0.13304415 0.0062926468 -0.2913972 -0.13290586 -0.07003846 0.11926268
0.04717487 0.041622367 0.086702235 0.110646084 0.07753131 0.3276098 -0.11363758 -0.13464157
-0.008746796 -0.06514189 0.29316846 0.36299467 -0.039619554 0.11223751 0.006982006 -0.04738903
0.0031137841 0.14491318 -0.0009283193 0.15050727 0.068873726 -0.035696622 0.00091884733 -0.08094612
-0.037524827 0.18065785 0.17519383 -0.059289783 0.011237859 0.08877446 -0.09551766 0.04722679
-0.05075875 -0.048930477 0.023918044 -0.110180855 -0.096655756 0.017009214 -0.13823937 -0.027796282
0.003920943 -0.053810358 -0.013150514 0.020126076 0.010971801 4.310094e-08 2.6998163e-07 9.636772e-09
-0.11740483 -0.14922503 0.015444129 -0.067728624 -0.070969574 -0.115608014 -0.16538689 -0.075745
0.019699087 0.01599875 0.17521451 -0.03440478 0.007133417 5.9727574e-07 -0.008288526 0.002047442
0.01836712 0.28744894 0.023325535 0.23732565 0.013263243 -0.12925494 -0.041739646 -0.077498704
0.11992422 -0.08613327 -0.19341876 0.16948439 0.021071553 -0.011579105 -0.024400642 0.0074251504
0.09051273 -0.05621026 -0.004006957 -0.20825982 0.02412922 0.13969564 0.3228499 0.18586373
0.030159192 0.21225229 -0.13738008 -0.11763435 -0.08449939 0.024257176 -0.030357823 -0.019359972
-0.16037318 0.06829787 -0.041177314 -0.14477007 0.015049855 0.13847125 -0.020453883 -0.15481846
-0.04457183 0.12978524 -0.06163428 0.041791428 0.042558346 0.014180987 -0.009307581 0.0053962823
-0.13310996 -0.13045323 0.007534949 -0.0048776595 0.052921865 0.059553478 0.04174111 0.025796471
-0.007948521 0.17467855 -0.049081765 0.09496258 0.035183508 -0.036677405 0.011069223 0.07114032
0.11473008 0.28664085 0.052782644 0.10292226 0.17469974 -0.06612154 0.025038704 -0.09816141
-0.095712714 -0.09990492 -0.07080667 0.087397024 0.0009016664 0.04330638 -0.023888018 0.03716336
-0.09054452 -0.35641158 0.015340698 -0.06790039 0.2547426 0.039118025 -0.014391809 0.2438837
-0.07568842 0.08149648 0.02668786 -0.18226475 0.012537435 0.0063203773 0.016666831 0.009541584
0.07806859 -0.26833948 -0.15077935 -0.004835128 0.10172352 0.0047004125 0.062940165 0.2744088
-0.12588473 0.07050199 0.18407719 -0.36655426 0.07091816 0.24959598 0.05996058 -0.015535775
-0.142712 0.033990078 -0.14113587 0.16965178 0.056746498 0.0021006986 -0.00669485 -0.065089405
-0.058564354 0.23536684 -0.16005528 0.0686807 0.12511706 0.07273777 0.048697833 0.02115307

features_extractor.state_extractor.0.bias f4 [128]
00000000: 0cf2 2bbc 1768 41bb 98cd 19bc 422a 773a
00000010: 17a0 62bd eae3 5f3c 0513 2a3c 4626 6e3c
00000020: 199a c33c 2989 473c 226a d0bc 43a0 863b
00000030: 5542 803c f63b cf3c b21d 983c 20ec 583d
00000040: 8f09 403d 68ae 193c 4ca2 003d 7268 2f3c
00000050: 993e 313d ba44 543c d8c9 093d 424f 32bc
00000060: 81e8 783c a2ba 3cbb 1b3b 823c 25ef 503d
00000070: 1921 d0bb 9cb4 1a3d 0192 8f3d 1020 313d
00000080: ac44 293a 078e 9f3c c7e9 a13c 2edc 013d
00000090: 8c77 743b c44e 8a3c 9f4d 983c a8b8 543c
000000a0: f0d3 9fbb 1aa5 08bc f0cb 5a3d 2a45 b53c
000000b0: 1524 433d 0eb2 192b 11fe 9b3d 3be6 063c
000000c0: 0281 3139 68ce ee3c 45e1 953c e20a d33b
000000d0: e238 9738 8711 c43c 2f80 4d3c ac61 cc3c
000000e0: 5f17 0ebd 1f3a 813c 9eb7 783c 39f9 9c3d
000000f0: e80a be3b ff76 d93c 24ab 4dbb f4d2 b7bc
00000100: 1703 06bb 9c46 443c 2dd1 cc3b e4f0 a23d
00000110: 5d91 1dbc 8daf de3c 5968 d0bb 3e1b 123d
00000120: 0faa e03a ff79 5c3c 4b8e 603c f7f4 afba
00000130: ac75 10bd 2971 0e3d 52a7 0d3c 6a66 96ba
00000140: 2657 a73c 3e9f 08bc 6f9d aa3c 36e1 613c
00000150: 3e32 77bc 2cb4 353c a92a 853b f99c 3d3b
00000160: 4ca2 853d ed0c 3a3d 890d 0e3c 7497 6d3d
00000170: 1df5 7f3b c90d 2f3c f55d 133c 4e8a 46bc
00000180: 37dd 8439 006e 21bc f57d eb3c 1eed cf3c
00000190: 6ca0 ef3b bf30 15bb e36b f13c bed7 963c
000001a0: be25 0c3c be82 e03c 429e 6c3d b785 973c
000001b0: d87e a53c 5f95 e3bc 351a e93d b801 62bc
000001c0: c186 e03b 2e2c 9b3a 98af bfbb de89 803c
000001d0: bb6d ba3c e2d4 1e3d 0177 353d 8bef 4d3c
000001e0: 3a3a 8a3c 3878 3d3c f2eb 3b3c ee23 1b3c
000001f0: cd90 1ebc 6ed4 873c ab83 823c 510a c33c
-0.01049472 -0.0029511505 -0.009387396 0.0009428599 -0.055328455 0.013665179 0.010380511 0.014535492
0.02387719 0.012178698 -0.025441233 0.00410846 0.01565663 0.025297146 0.018568847 0.05295956
0.046884116 0.009379961 0.03140478 0.010706054 0.04327259 0.012955839 0.03363976 -0.010883154
0.015192152 -0.0028797765 0.015897324 0.051009316 -0.006351602 0.0377699 0.0701027 0.043243468
0.0006457071 0.019476904 0.019764794 0.03170412 0.00373027 0.016883262 0.0185917 0.012983479
-0.00487756 -0.0083401445 0.053417146 0.022127707 0.047641832 5.460362e-13 0.07616819 0.008233602
0.00016928095 0.029151157 0.018295893 0.0064405063 7.210836e-05 0.023934139 0.012542768 0.024948917
-0.034690257 0.015774785 0.0151804965 0.07664723 0.00579964 0.026546 -0.0031382525 -0.022439457
-0.002044862 0.011979725 0.0062505216 0.079561025 -0.009617177 0.027183319 -0.0063600955 0.03567051
0.0017140525 0.0134568205 0.0137058 -0.0013424446 -0.03526847 0.034775887 0.008645849 -0.0011474614
0.020427298 -0.008338748 0.020827023 0.013786605 -0.015087662 0.01109032 0.0040639234 0.0028932674
0.06525096 0.045422483 0.008670219 0.058005765 0.003905601 0.010684439 0.008994569 -0.012117935
0.0002534182 -0.009852886 0.028746584 0.025381621 0.007312825 -0.002276465 0.02947039 0.01841342
0.00855392 0.027406093 0.057768114 0.018496377 0.020202085 -0.027781187 0.11381952 -0.013794355
0.0068520014 0.0011838728 -0.00584979 0.01569074 0.022757402 0.03877724 0.044302944 0.0125693185
0.016873468 0.011564307 0.011469828 0.0094690155 -0.009678078 0.016580787 0.015931925 0.02380863

features_extractor.state_extractor.2.weight f4 [128, 128]
00000000: 528c 7abd 7676 5b3e ea6f d7bb 6259 80be
00000010: 3f4e 6d3b 42b8 70bd 4a9f d036 bb61 003d
00000020: fc72 613e b4da 633d 59fe 3bbd 1f4e 49be
00000030: e722 1dbb bb1f 883c f9ae 1bbe 7865 75be
00000040: c24c 823d a087 52be c0da 233c ebfb 99bc
00000050: 0949 2abe 1ca8 d4bd cb20 2bbc bed5 aa3d
00000060: daa9 0f3e 60a5 4e3d 2118 c53c 8695 32bc
00000070: 7b0b 2cbd d489 c83d 4af5 7c3e 8751 b73d
00000080: 1dec 29bd ed84 c13d 6352 a13d f1dc cabc
00000090: cb16 efbd 6867 2ebe 8681 4c3e 5c63 e53d
000000a0: 09c6 c2bc 82c3 6d3d df97 923d a2f6 f0bd
000000b0: 35f5 85bd 0799 5091 fede 513d c26d 133d
000000c0: 7388 0c2e 0acd 213e 5662 403d bcd4 d5bc
000000d0: 8efa 4aab 8348 b6bc 94c1 61bd 9940 75be
000000e0: 9515 c1bc 8c36 34bd 3757 53b3 2fc7 963c
000000f0: bdf5 b7b9 18f0 fb3b a99f 333e 39e0 dc3d
00000100: a2e9 20bd 6702 243e 6e2d 03be c9bc 94bd
00000110: 94f6 db3c 6150 5f3d 3c67 910d 16a6 fe3d
00000120: 05a5 3d3e e619 d4bd f758 133e b5d9 493e
00000130: f495 07bd e2ac c0bd ae44 83bb 3416 a218
00000140: 5387 303c dd10 143b dda3 023d cec3 44bd
00000150: f40a e53d e0c2 293e 7813 09be 5910 353e
00000160: 4992 653e f7d1 19be fb93 a03b e138 9a3e
00000170: d7ec 53bd 3166 30be 0ece 1d3e 4e68 c4bd
00000180: 4884 483c bc59 2c3e 7544 80be 76ef f1bc
00000190: 5c1b 193e c7f3 943d 0d46 343c 291e 6abe
000001a0: cc80 18bc f1d0 0abe 6bb0 c5bd 8739 94be
000001b0: 5b68 b2bb 6467 3cbd 3503 4a3c 3515 c4b7
000001c0: e3d9 66be 018e 0a99 253c 343e 1067 b7bd
000001d0: b1a7 b33d 61c2 663b 065e bcbc eb11 5d3e
000001e0: 479d b03c 790f adbc f567 493e b6cf 3e3e
000001f0: f688 1f3e ed97 bc3c 6159 05bb 30a5 febd
00000200: 467c 65bd 23dc 613d 2923 cfad d935 8d3d
00000210: 97d4 1cbd 227e c8bc a6ab 8197 f865 3e3c
00000220: a557 66be 7f56 89be bcbc bdbb 4a4e 913d
00000230: f671 43be a69c b83d 87c3 8abd 6bd4 273e
00000240: da3e 9a3d 7f43 5ebe d112 833e f84c 2e3d
00000250: feb3 df3a 8ef9 10bd b52f 863c 28a3 abbc
00000260: 9bd3 88bd 5087 c63c af38 943d 575c 8f3d
00000270: 5ef2 963d c27c 00bd a879 083e 483b 8a3e
00000280: b278 d33b aebf 0e3d 83f0 933e 7884 cf3d
00000290: 1b9e 5fbd a7cb 353e 3b2b 9bbd d655 2abe
000002a0: 8b9b 273e 0c49 753e f8cb 6c3d a41b a5be
000002b0: 5fe4 8ebd 045c 0500 e869 e03d cd66 afbd
000002c0: 4c63 9081 5612 363d 5424 543e 76bc 0cbd
000002d0: 40c6 8826 8bfc 1cbe 7089 0e3d b47b 303d
000002e0: e7a8 13bc a35c 0dbd 2351 2490 7ed3 883e
000002f0: af47 c43b 8a3c 133e fb63 5abd 9766 4fba
00000300: 7d34 43be 7006 133e 2822 4dbd 82d3 cb3d
00000310: 2116 e1bd e783 2d3e 8145 5424 b869 12bc
00000320: 7e8a df3c d7ca 9ebd 3f7b cfbc 3714 593d
00000330: da04 db3b eb8b 4a3e ef14 a83d d4ce 5c82
00000340: c61f 2339 c72d 5c33 7f2b 4237 531d 5abe
00000350: ae77 8b3e c608 273d 9f18 b73d 79cc 803d
00000360: f31f fc3b c9c3 9abc 3d0e 573b 3457 0e3e
00000370: 03b5 fd3a fdf4 22be a31e 603e b5bf 1a3e
00000380: f2e3 adbd 216c 913c 8aee 613e 57ca 3d3d
00000390: 0692 e4bd ddfd e03d 0ffb 48be 4f3a f83d
000003a0: fc49 523d 85ad 2bbd 4b54 24be 103f debd
000003b0: 8ad8 cdbc b6ac 633a c4a2 283e 9b05 65a9
000003c0: 6115 263d 6555 8e38 96bc e63d 5c37 c43b
000003d0: 4e78 34bd 695b 893e cb83 ce3d d760 45be
000003e0: 1907 4ebd c359 023e dc7a f0bd 87d2 793d
000003f0: 7f55 a6bd 124f 4734 72e5 f4ab 5e79 803e
-0.061168976 0.21431908 -0.0065746205 -0.25068194 0.0036209968 -0.058769472 6.2174267e-06 0.031343203
0.2201652 0.055628493 -0.04589686 -0.19658707 -0.0023977102 0.016616693 -0.15203466 -0.23964489
0.06362297 -0.2055955 0.0100008845 -0.018796882 -0.16629423 -0.10383627 -0.01044483 0.08341549
0.14029637 0.050450683 0.024059357 -0.010899907 -0.042003136 0.09791914 0.24702945 0.08951097
-0.04148494 0.09449182 0.07877042 -0.024763556 -0.11674269 -0.17031634 0.19971284 0.11200592
-0.023776071 0.05804778 0.07157873 -0.117657915 -0.0654091 -1.6455462e-28 0.051238053 0.035993345
3.1953506e-11 0.15800872 0.04696878 -0.026102416 -7.211253e-13 -0.022251373 -0.05511625 -0.23950423
-0.023569861 -0.043997332 -4.9206587e-08 0.018405525 -0.0003508757 0.0076885335 0.17541374 0.107849546
-0.03928531 0.16016541 -0.12810299 -0.072625704 0.026850976 0.054520015 8.961168e-31 0.12434022
0.18519981 -0.10356502 0.14389406 0.19711955 -0.03310199 -0.09407975 -0.00400599 4.1898438e-24
0.010774451 0.002259306 0.031894553 -0.048038296 0.1118373 0.16578245 -0.13386333 0.17682017
0.22419085 -0.15021501 0.004900453 0.3012152 -0.05173954 -0.17226483 0.15410635 -0.09590207
0.01223857 0.16831106 -0.2505223 -0.02953313 0.14951843 0.07273059 0.0110030295 -0.22863068
-0.009308051 -0.13556267 -0.0965279 -0.2895014 -0.005444569 -0.04599704 0.012329866 -2.3374896e-05
-0.22544055 -7.16311e-24 0.17601068 -0.089552045 0.08772219 0.0035211074 -0.022994053 0.21588866
0.02155937 -0.021125542 0.19668563 0.18633923 0.1557959 0.023021663 -0.0020347463 -0.12433851
-0.05602672 0.05514158 -2.354879e-11 0.06895036 -0.03828868 -0.024474207 -8.37976e-25 0.011620991
-0.22494371 -0.26823804 -0.005790321 0.070950106 -0.19086441 0.09014253 -0.06775575 0.16389625
0.07531519 -0.21705435 0.25600293 0.042553872 0.0017067192 -0.035394244 0.01638017 -0.020951822
-0.066809855 0.024234444 0.07237374 0.07000034 0.073704466 -0.03136898 0.13327658 0.26998353
0.006453597 0.03485077 0.28894433 0.10132688 -0.05459414 0.17753468 -0.07576605 -0.16634306
0.16367929 0.23953646 0.057811707 -0.3224765 -0.06977152 4.92186e-40 0.109577 -0.085645296
-5.303973e-38 0.04445108 0.20716983 -0.034359418 9.490631e-16 -0.15330712 0.03479904 0.043086722
-0.009012437 -0.034512173 -3.2405803e-29 0.26723856 0.0059899907 0.14378563 -0.053318005 -0.00079117104
-0.19062991 0.14357924 -0.050081402 0.09952451 -0.10990549 0.16944848 4.6029044e-17 -0.008936338
0.027287718 -0.077535324 -0.025327323 0.052997794 0.006683928 0.19779937 0.08207118 -1.6222404e-37
0.00015556728 5.1264376e-08 1.1573428e-05 -0.21300249 0.27239746 0.04077985 0.08940243 0.06289
0.0076942383 -0.018892186 0.0032814883 0.13900453 0.0019356314 -0.15913768 0.21886687 0.15112193
-0.08490743 0.017751755 0.22063652 0.046335544 -0.11160664 0.109859206 -0.19627021 0.121204965
0.05134009 -0.041913528 -0.1604778 -0.10851872 -0.025127668 0.0008685099 0.1646834 -5.0853076e-14
0.040547732 6.7869936e-05 0.11266439 0.0059880447 -0.044060044 0.26827553 0.10083731 -0.19275223
-0.050299738 0.12729554 -0.117421836 0.06099179 -0.08121776 1.8562085e-07 -1.7400927e-12 0.25092596

features_extractor.state_extractor.2.bias f4 [128]
00000000: b63d 393b 175d 653b d403 183c fb5e 54bc
00000010: d107 8e3c fea3 8b3c 569b 953b 79ff b13b
00000020: 61b0 143b 2163 d03a 6fba ee3c 8575 693c
00000030: 0712 fb3c a863 043c 2ec5 463c ae5e ab3c
00000040: 6826 da39 685f 3f3c 5a2e 783c fa63 883a
00000050: b7ea d93c d653 073d a75f 0500 90fc c53b
00000060: c0c7 703c 9bad d1ba 6907 a43b 1833 d6ba
00000070: f5fa 573c b4f8 353c 1aae 3abc 5d8d 963c
00000080: 7e18 a13b ccb7 8f3c 2bd0 823c 658c 873b
00000090: e9fd 69bb ca9d 413c b2f5 883c b624 88ba
000000a0: d50f 0b3b dfe1 3ebb 8d84 2f3b 048d 963c
000000b0: 3ec1 c539 4f98 a23b 9a07 95bc c4c4 633b
000000c0: d0cf 2c3b ad1c 293d 1970 6d3b 798c 173c
000000d0: 2a37 553b 188c 2c3c a08a bf3c 99d1 593c
000000e0: 4c8c c33c e03c a63c 0c10 8b3c a2a5 613c
000000f0: 5742 5e3c a25c d73c a172 223c 9124 96bc
00000100: 0000 0000 156e 1a3c b19f 0d3c 7096 02bc
00000110: a19a 243c 91dd 8a3b 1216 5b3b b1f9 c63b
00000120: 9ccf d23b 0377 c63c 5268 f03c b3dd 22bb
00000130: 8753 2c3c cb43 3a3b 33f9 b93b 2b2b 7dbc
00000140: 72ab 7f3c 77c8 3f3c 5088 d2ba 3160 f73b
00000150: cbe6 413c 8de6 093c 8e7a c4ba 430d 54bb
00000160: fab9 8f3b 5f4e 7bba ad9e f83b 9123 2aba
00000170: 5e9b ff3b ed67 153c 65d1 9f3b 9af8 433c
00000180: dd1d 703c 5f67 883b 10c6 143b b26a 60b9
00000190: 0230 de3c 409d 1f3c fea5 983c 22bb 8b3a
000001a0: b1ae c33c d0d1 ebbb 76e1 eb3c f237 11bc
000001b0: dbd1 ae3b 0336 283a 99a2 7c3c f2d3 2d39
000001c0: 52f7 233c 0638 deba 661f 843c 2a7a 043b
000001d0: 0000 0000 26f2 e8bb 54ef a23c 6f53 293d
000001e0: 3e6e 0cba a0be 4ebc fa3f 093c 3c60 c73c
000001f0: 6d3f ea3c 6044 f7bb b9c2 2cbc ff2a 1d3b
0.0028265542 0.0034998113 0.009278256 -0.012962098 0.017337712 0.017045971 0.0045656366 0.005432066
0.0022688138 0.0015898683 0.029141633 0.01424921 0.030648245 0.0080804005 0.012131972 0.02091917
0.00041608815 0.0116804615 0.01514777 0.0010405772 0.026601179 0.033038937 4.93491e-40 0.0060420707
0.014696062 -0.0015997173 0.005005766 -0.0016342131 0.013182391 0.011106659 -0.011394048 0.018377954
0.00491625 0.017543696 0.015968403 0.0041366094 -0.003570432 0.011817405 0.01671872 -0.0010386917
0.0021219153 -0.002912633 0.0026781887 0.018377788 0.00037718745 0.0049620043 -0.018192101 0.0034754733
0.0026368983 0.041287113 0.0036230145 0.0092498 0.00325341 0.010531448 0.023381531 0.013294601
0.02387061 0.0202927 0.016975425 0.0137724 0.013565621 0.026289288 0.009915025 -0.018327983
0.0 0.00942566 0.00864403 -0.007970437 0.010046632 0.0042378386 0.0033429903 0.006072246
0.0064334404 0.024226671 0.029346619 -0.0024851381 0.010517961 0.0028421755 0.005675459 -0.015452187
0.015604841 0.011705509 -0.0016062353 0.0075493087 0.0118348105 0.008416784 -0.0014990137 -0.0032356537
0.004386184 -0.00095865683 0.007587275 -0.0006490285 0.0078005036 0.009119016 0.0048772567 0.011961127
0.014655557 0.0041627134 0.0022701062 -0.00021402052 0.027122501 0.009742081 0.018633839 0.0010660628
0.02388701 -0.0071966425 0.028794032 -0.008863436 0.0053350753 0.000641674 0.015419626 0.00016577521
0.010007696 -0.0016953952 0.016128253 0.0020214417 0.0 -0.0071089445 0.019889511 0.041339334
-0.00053570035 -0.012618691 0.00837707 0.02433788 0.028594697 -0.0075459927 -0.010544472 0.0023981926

features_extractor.vd_extractor.0.weight f4 [128, 1]
00000000: 0d1f 86b8 113f 0583 7644 13ba fc42 023e
00000010: 4384 c0a6 bd94 e13b 5a9f cfa2 4911 3280
00000020: a5cf 3aba 7744 74b7 214b afa8 ccc8 84b0
00000030: b7e4 2f3e 7a94 553e 548c 773e 3e39 6fb9
00000040: b906 0a84 9c03 2f3e 31bc b03d e974 613d
00000050: 3a25 eb3d 0ce5 133e 6ecc a43d 491b 513e
00000060: 275d 0da5 f68c 68a5 7d3b 6d9d 41bd 563e
00000070: ba3f 283e 015a bd3b ade9 1b3e b948 5b3c
00000080: c2e9 4f3e c145 13ba 617e 62a2 e94f 00a7
00000090: f87c 79b9 8c04 aa87 b784 f9b9 8315 053e
000000a0: 477c 593e 5c26 51af 4355 ac3d 26fb 81a4
000000b0: 957c 4d3e 36e2 918e 937b 713d 2a3f 89a8
000000c0: 10e0 84a7 1632 a73d 723f 953e 70fa 4c3d
000000d0: b055 9f87 ef38 bfa6 272c 1080 af1c acb3
000000e0: 95a5 a0ba bc04 b83e 056b 053b daf8 713e
000000f0: 9975 393e b2e5 0d3a 3139 6c3e 1ce2 003e
00000100: d50d 753d b765 86b9 5104 d53d 72e2 23b9
00000110: c212 403d f645 403e 4d82 32b9 03f2 dc3d
00000120: 5ad2 e2ac 8a25 4495 42e4 ab3d 0825 e03d
00000130: fca9 46b0 ae68 843e d3af ad9a 5836 413e
00000140: 64c3 38ac 35ae 70a5 7cb9 e73b 5a1a 473e
00000150: 97bf 233d 6178 9b3c 83cd d4a1 9983 8a3d
00000160: 0cbb 0580 5e6a 1a3e 9bca ecad c87e 69b9
00000170: c575 8db2 11c7 3a3e 0b5e fe3d fde8 c4ae
00000180: 85d6 c1b7 e0c6 4ea2 84b2 bbb9 8c21 f93d
00000190: eca4 fb3d 5a94 d13d f8a4 42ba 1037 533e
000001a0: b1d5 2bb8 04bc 833d 00d4 623d 783c aeb9
000001b0: ff31 5e3d 0425 273e 9b83 8eae ad80 03b8
000001c0: 320b 8e9a 0165 383e d582 6b3d 8b4d 2380
000001d0: 1210 8aad a773 8893 f82b 29af 748e d23d
000001e0: 2c74 27b6 ff7b 9a8e 7e78 583d 8709 aeb6
000001f0: ff9b a6b8 66b5 27b9 55da 0680 34de d0a2
-6.3954016e-05 -3.9157584e-37 -0.00056178065 0.12720865 -1.3358526e-15 0.006884186 -5.6276182e-18 -4.597976e-39
-0.00071262784 -1.4559474e-05 -1.9461485e-14 -9.661334e-10 0.17177092 0.2085742 0.24174625 -0.0002281414
-1.6224909e-36 0.1709122 0.08629645 0.055043135 0.1148171 0.14442843 0.08046804 0.20420565
-1.2261362e-16 -2.0170552e-16 -3.1397444e-21 0.20970632 0.1643056 0.0057785516 0.15225859 0.013384038
0.20304015 -0.0005617999 -3.0695616e-18 -1.7806888e-15 -0.00023793045 -2.558143e-34 -0.0004759186 0.12996487
0.21238814 -1.9022067e-10 0.084147 -5.6370294e-17 0.20067056 -3.5963093e-30 0.05895574 -1.5237448e-14
-3.688029e-15 0.0816385 0.29149967 0.050043523 -2.3974024e-34 -1.3268719e-15 -1.485207e-39 -8.014592e-08
-0.0012256379 0.35941112 0.0020357978 0.23630086 0.18111266 0.00054129504 0.23068692 0.12586254
0.059827644 -0.00025634255 0.10401214 -0.00015629249 0.04689289 0.18776688 -0.00017023944 0.107883476
-6.44666e-12 -3.9611498e-26 0.08393146 0.10944563 -7.227354e-10 0.25861114 -7.183518e-23 0.18868387
-2.6256436e-12 -2.0875705e-16 0.007071672 0.19443646 0.039977636 0.0189783 -1.4420077e-18 0.067633815
-5.26277e-40 0.15079638 -2.6920069e-11 -0.00022267841 -1.6468116e-08 0.1824 0.12420281 -8.954435e-11
-2.3107286e-05 -2.802349e-18 -0.00035800424 0.12164602 0.12287316 0.10233374 -0.0007425095 0.20626473
-4.0968593e-05 0.064323455 0.05537796 -0.0003323292 0.0542469 0.16322714 -6.48079e-11 -3.1352673e-05
-5.874791e-23 0.1800728 0.057497818 -3.24206e-39 -1.569592e-11 -3.444527e-27 -1.5386081e-10 0.10281077
-2.495256e-06 -3.8083335e-30 0.052849285 -5.186713e-06 -7.944553e-05 -0.00015993937 -6.29336e-40 -5.661378e-18

features_extractor.vd_extractor.0.bias f4 [128]
00000000: e79e 00b9 0000 0000 b2e3 47ba 91f9 9a3c
00000010: 0000 0000 1710 8abb 0000 0000 0000 0000
00000020: c0cc 73ba 373b 36b9 0000 0000 0000 0000
00000030: fd54 093c b1b3 863c 4f3e fd3c 00df 0fba
00000040: 0000 0000 49d3 a43c f65e a03c f3ac e63c
00000050: 34cf 673c 4fdd 943c 926d 243c c81b a73c
00000060: 0000 0000 0000 0000 0000 0000 9501 c13c
00000070: fedf ae3c f138 aebb 390c df3c f6cb 08bc
00000080: d4c2 c83c edf3 4dba 0000 0000 0000 0000
00000090: beff d8b9 0000 0000 79ba 60ba aa9f 543c
000000a0: 8781 c23c 0000 0000 c19e b93c 0000 0000
000000b0: ad4f b53c 0000 0000 29bd 46ba 0000 0000
000000c0: 0000 0000 3e79 113d 4ea7 ab3c cc45 bf3b
000000d0: 0000 0000 0000 0000 0000 0000 4c0d e1b6
000000e0: b53e bdba 9401 df3c 05f5 053b 7c83 043d
000000f0: 4bb9 093d 0d4f 6cba 448a e73c 0fbd e63c
00000100: 2e35 e13c 2bbf 8cb9 2681 083d 5193 8fb9
00000110: 9b2e 033d e698 023d b3be f3b9 f76d b8ba
00000120: 0000 0000 0000 0000 7054 6d3c d419 233d
00000130: 8f93 7ab0 e142 f33c 0000 0000 a50b d93c
00000140: 0000 0000 0000 0000 8e90 a4bb 56bf b03c
00000150: bd1f 023d 4163 293b 0000 0000 f904 c13c
00000160: 0000 0000 89c1 a03c 0000 0000 c972 22ba
00000170: 26e5 afb6 3fe4 043d c876 103c 0000 0000
00000180: 1b52 1cb9 0000 0000 d61d 33ba 5a7f ea3c
00000190: 097a b83c e133 a13a 08db aeba 89b0 fd3c
000001a0: fa77 88b9 8462 1f3d 57d4 993c ce82 27ba
000001b0: bbba d53c 4270 f93c 0000 0000 11a3 f8b7
000001c0: 0000 0000 d7f5 bc3c b9fb 773c 0000 0000
000001d0: 2c08 9fb3 0000 0000 0000 0000 865a 8c3c
000001e0: 0000 0000 0000 0000 9909 aa3c df80 c5b8
000001f0: fa04 84b9 46d0 f0b9 0000 0000 0000 0000
-0.00012266227 0.0 -0.0007625177 0.01891783 0.0 -0.004213344 0.0 0.0
-0.00093002245 -0.00017378932 0.0 0.0 0.008382079 0.016443105 0.0309135 -0.00054882467
0.0 0.02012028 0.01957653 0.02815864 0.014148522 0.018171934 0.010035889 0.02039899
0.0 0.0 0.0 0.023560325 0.021347042 -0.0053168465 0.027227508 -0.008349409
0.024506964 -0.0007856477 0.0 0.0 -0.00041389273 0.0 -0.00085727085 0.01297752
0.023743404 0.0 0.022658708 0.0 0.022132719 0.0 -0.00075812876 0.0
0.0 0.035516016 0.0209538 0.005837178 0.0 0.0 0.0 -6.7070705e-06
-0.0014438244 0.027222432 0.0020440232 0.032351956 0.033623975 -0.0009014465 0.028264172 0.028166322
0.027491178 -0.00026845312 0.03332629 -0.00027384845 0.03202687 0.031884097 -0.00046490654 -0.0014070858
0.0 0.0 0.0144854635 0.039819553 -9.1159164e-10 0.029694976 0.0 0.02649481
0.0 0.0 -0.005022115 0.021575611 0.03176855 0.0025846513 0.0 0.023561941
0.0 0.019623535 0.0 -0.0006196914 -5.242083e-06 0.032444235 0.008817382 0.0
-0.00014907906 0.0 -0.0006832754 0.02862518 0.022519128 0.0012298786 -0.0013340423 0.030967968
-0.0002602933 0.03891231 0.01877801 -0.0006390036 0.026090017 0.030449037 0.0 -2.9639838e-05
0.0 0.023066444 0.015135699 0.0 -7.405501e-08 0.0 0.0 0.017133009
0.0 0.0 0.02075653 -9.417696e-05 -0.0002518071 -0.00045931543 0.0 0.0

features_extractor.vd_extractor.2.weight f4 [128, 128]
00000000: 2659 0580 c1b7 c215 d85e 0580 a3f9 1aab
00000010: 3959 0500 a965 0580 6f81 c0aa 115c 0580
00000020: 6158 0580 bc89 3a14 8757 0500 5e2d 6d30
00000030: d398 a289 05a8 109e 449f b68a 5b63 0580
00000040: 5721 402b 69a2 d732 d639 75b4 df5a 0580
00000050: 364b ac18 195d 0580 2fc5 1b1d 8ddb 9595
00000060: 3f59 0580 0e81 8f2d ac66 0580 df77 a31b
00000070: a25b d71a c85a 0500 e059 0500 3bcf e6ae
00000080: 34e5 3429 3464 0580 7a5b 0580 f423 641e
00000090: 1500 7684 7358 0580 c3dc f90f d569 2614
000000a0: 2d4a c3a4 873e 8e9b 213a 1c98 005a 1d22
000000b0: 8789 aab4 035d 0580 ea8c 1eb0 4847 e82b
000000c0: d6fe 7321 5e5a 0500 495a 0500 b503 f707
000000d0: f824 d8b1 00cb c6b3 c27c e011 329e ad1e
000000e0: f058 0500 c313 e614 d05d 0500 0c8a 8d09
000000f0: ab5a 0580 b47b e58b 55c3 1093 cd55 d919
00000100: eb1b 7c05 d158 0580 6f5a 0580 a93b 510e
00000110: 901c c71e 4bc6 499a 7a86 1e26 dd5f 0500
00000120: ae5d 0580 e3cd 6931 ea57 0580 c9e2 17b7
00000130: 2f59 0580 b755 3498 f719 082b 1b60 619c
00000140: 7aab a22a 915a 0500 a84d f310 2592 1f0d
00000150: ed59 0500 c8a1 2a8b 5aa8 2920 2c22 8fb2
00000160: 6600 1889 415c 0580 a53b 8413 9da6 12aa
00000170: e582 3b16 1fc0 87ae 8faf 1fa4 975b 0500
00000180: d357 0580 cb2d 8daa 1462 0580 5a06 eb1b
00000190: 5a1d 942d 2d27 0d2a 5a59 d21a 9962 0500
000001a0: 7d5b 0580 8259 0580 b66b 0500 c1dc 8ca0
000001b0: 451b a0af bd58 0580 c814 1fb1 5265 0500
000001c0: ee58 0580 bf83 2012 f558 0580 759c 7331
000001d0: 43a6 79af 9257 0580 0f8b b523 6860 0580
000001e0: e558 0580 ab5b 0500 b774 6117 425c 0580
000001f0: 8b5a 0500 665b 0580 97ea 0500 e25b 0580
00000200: 6482 8bb6 d2d2 bfa7 155b 1099 5ceb 753d
00000210: e024 701f 16da f5bc 0f99 3c2e 81d7 0500
00000220: aa51 093b d15c 0580 0f5b 0580 2f5c 0500
00000230: 7504 3c3e 82f7 89be 35a3 483e 82d0 670e
00000240: 84b2 6213 a72b 853d 97b9 493c 467e 8f3c
00000250: 7dc9 953d dcb1 ea3c b930 9e3e 3e32 ba3d
00000260: 8059 0580 0bf7 5530 58b5 3b2d 5605 173d
00000270: a277 1bbc 41f1 9fba c455 22be 4d7a 52bd
00000280: 8e26 9ebd 76be 2236 e363 0500 f25b 0580
00000290: 048b 8b9b c0d8 9c26 4d59 0580 ef2f 97be
000002a0: 9826 35be 787a 379e dd78 c53d 7451 129d
000002b0: 68a6 043e 3efd e430 c2ee d63d 9f5c 0580
000002c0: f395 0100 9ab2 323e f6e4 da3d 3de6 85bd
000002d0: edef d99a 7c5d 0500 d488 5c1c 782a 0090
000002e0: 15d7 af96 f148 11bd d817 b739 b0bd 0fbd
000002f0: fdbf 0b3d 64c8 5b05 f24e 8abd 4c61 8bbd
00000300: 4a5e b73c 3b02 7237 afb6 54be d3d7 3ba9
00000310: aeee b23d 94cd 173e 7d58 0500 1ab1 71bc
00000320: a557 0580 b2c3 259b ca4d 983d 44ad 05bd
00000330: 0d67 0580 c633 e6bd 3100 b0b4 f86f 273e
00000340: 9b98 3a92 2a43 1f30 6cd6 d5b5 b179 2d3e
00000350: 5ec2 4bbe d6e2 173d ce5f 0580 7bb8 dfbd
00000360: 1abb de8a 1721 243d a81d 5480 a246 4f23
00000370: 275b 0580 b486 34bd bdf7 dabd a45b 0580
00000380: ae2a 6519 145e 0500 bc58 0580 2f6e 29be
00000390: d0b6 7d3d 1165 fbbc de5f 0580 0e28 983e
000003a0: e8b6 8615 fa43 4e3e 890a d2bd d4e2 311a
000003b0: bbbf e0bd 775f 713e 445c 0580 c9a3 33b4
000003c0: a73c 8295 79c4 323d d87b 09bd aa5f 0500
000003d0: 4b63 0580 7974 4c83 9b5a 0580 9bff 893c
000003e0: 6c5c 0500 275e 0500 92c4 42bc 9461 0580
000003f0: 295b 89a5 0759 0500 e6f5 5c2f 2b5d 0500
-4.91158e-40 7.864589e-26 -4.93201e-40 -5.505823e-13 4.91185e-40 -4.95646e-40 -3.4195864e-13 -4.92205e-40
-4.90882e-40 9.4177635e-27 4.90576e-40 8.628457e-10 -3.9143797e-33 -7.658042e-21 -1.7585872e-32 -4.9482e-40
6.825837e-13 2.510315e-08 -2.2838444e-07 -4.91776e-40 4.45369e-24 -4.92575e-40 2.061602e-21 -6.052701e-26
-4.91193e-40 1.631453e-11 -4.96009e-40 2.7043553e-22 8.9069957e-23 4.91744e-40 4.91419e-40 -1.04960006e-10
4.016683e-14 -4.95124e-40 -4.91993e-40 1.20776544e-20 -2.8917199e-36 -4.90907e-40 2.463833e-29 8.40173e-27
-8.469343e-17 -2.3532337e-22 -2.0191875e-24 2.1325113e-18 -3.1765032e-07 -4.92544e-40 -5.7680316e-10 1.6504376e-12
8.2668875e-19 4.91595e-40 4.91566e-40 3.7166608e-34 -6.2906302e-09 -9.257019e-08 3.5417856e-28 1.8382516e-20
4.91082e-40 2.323186e-26 4.92831e-40 3.4074334e-33 -4.91703e-40 -8.839372e-32 -1.8271661e-27 2.2471929e-23
1.1854111e-35 -4.91039e-40 -4.91619e-40 2.5789964e-30 2.1081758e-20 -4.1726006e-23 5.499951e-16 4.93567e-40
-4.92783e-40 3.4022996e-09 -4.90715e-40 -9.053104e-06 -4.9117e-40 -2.330773e-24 4.835294e-13 -7.457047e-22
2.8895967e-13 4.91667e-40 9.596625e-29 4.9171573e-31 4.91437e-40 -3.286252e-32 1.437056e-19 -1.666293e-08
-1.8296522e-33 -4.92272e-40 3.33803e-27 -1.302521e-13 1.5147043e-25 -6.173217e-11 -3.4626333e-17 4.92034e-40
-4.90683e-40 -2.5078407e-13 -4.94361e-40 3.8881593e-22 1.6838687e-11 1.2536908e-13 8.699832e-23 4.94548e-40
-4.91997e-40 -4.91287e-40 4.97817e-40 -2.3863005e-19 -2.9123207e-10 -4.91011e-40 -2.3149358e-09 4.95524e-40
-4.9108e-40 5.0649488e-28 -4.91089e-40 3.545009e-09 -2.2705486e-10 -4.90592e-40 1.9682953e-17 -4.93762e-40
-4.91067e-40 4.92062e-40 7.2848736e-25 -4.92273e-40 4.91658e-40 -4.91965e-40 5.43332e-40 -4.92139e-40
-4.1577023e-06 -5.324172e-15 -7.463019e-24 0.06003891 5.085248e-20 -0.030011218 4.2882194e-11 5.36486e-40
0.0020953217 -4.92474e-40 -4.91843e-40 4.92247e-40 0.18361075 -0.26946646 0.19593509 2.8573341e-30
2.8613225e-27 0.06502467 0.0123123145 0.017516267 0.073138215 0.028649263 0.30896547 0.09091614
-4.91284e-40 7.784002e-10 1.0669986e-11 0.036870323 -0.009488972 -0.0012202637 -0.1585303 -0.051386166
-0.077221975 2.4250744e-06 4.9501e-40 -4.92161e-40 -2.3085458e-22 1.0883425e-15 -4.91213e-40 -0.29528758
-0.17690504 -9.713265e-21 0.096421935 -1.936505e-21 0.12954104 1.6661159e-09 0.10494758 -4.92404e-40
1.45627e-40 0.17450944 0.10688202 -0.06538055 -9.013672e-23 4.92713e-40 7.296874e-22 -2.5276266e-29
-2.840851e-25 -0.035469953 0.00034922245 -0.03509301 0.03411864 1.03341365e-35 -0.06753339 -0.06805667
0.022383828 1.4424843e-05 -0.20772813 -4.170954e-14 0.08736931 0.14824516 4.90921e-40 -0.014751697
-4.90618e-40 -1.3711713e-22 0.07436712 -0.032635942 -4.96145e-40 -0.11240344 -3.2782694e-07 0.16351306
-5.887935e-28 5.793931e-10 -1.5932142e-06 0.16940953 -0.19898364 0.037081562 -4.93546e-40 -0.10923859
-2.1448202e-32 0.04007062 -7.72482e-39 1.12364496e-17 -4.91877e-40 -0.044073775 -0.106917836 -4.92052e-40
1.1847642e-23 4.92926e-40 -4.9101e-40 -0.16545938 0.06194192 -0.03068784 -4.93568e-40 0.2971806
5.4410744e-26 0.20143119 -0.10255916 3.6785972e-23 -0.1097407 0.23571573 -4.92276e-40 -1.6730259e-07
-5.2602274e-26 0.043644402 -0.033565372 4.93495e-40 -4.94797e-40 -6.0083916e-37 -4.9168e-40 0.016845515
4.92332e-40 4.92953e-40 -0.011887686 -4.94182e-40 -2.3827484e-16 4.91114e-40 2.0096244e-10 4.926e-40

features_extractor.vd_extractor.2.bias f4 [128]
00000000: 0000 0000 c2a3 7d3c bbe3 0cba 660e 95b3
00000010: d877 063c 316d f83c e70c 1eba c5cc b63c
00000020: 9002 bf3c 2701 103d 0000 0000 22f7 033d
00000030: 0000 0000 0056 19bb 0000 0000 2395 37ba
00000040: 327c 84bb 0000 0000 6281 a43c 6d03 0e3b
00000050: bd29 103c 0000 0000 98e6 8b3b 0000 0000
00000060: 6e32 293c abf0 8e3c 0000 0000 1f40 aebb
00000070: 0000 0000 259c d33c 0000 0000 0000 0000
00000080: e8c0 c03c e1c3 ebba 89a9 853d 7338 2eb8
00000090: 08e6 773c 0000 0000 61d1 adb2 0000 0000
000000a0: 0000 0000 87e5 6a3b 0000 0000 6e77 7cbb
000000b0: 819c 143d 5052 063d 0000 0000 3a8b fd3c
000000c0: f5eb ba3c 4151 b23a da44 2c3c 6d08 a3bb
000000d0: 5238 353d 0000 0000 7910 793d 00fe cab8
000000e0: cb0a 403c 1194 143d 4b72 08bc 2aa2 f33b
000000f0: f9c8 90b6 aacf b33b aa24 c1b9 9205 c33b
00000100: 8f86 e93c b0cb 57ba 2ae1 853c 0000 0000
00000110: 0000 0000 e788 34b8 9b33 64ba 0696 983c
00000120: b665 943c 0000 0000 da65 a73c c566 d2ba
00000130: 0000 0000 3484 71b0 50a7 9a3c 8b21 c43c
00000140: 9e54 28ba 4e89 df3c 0000 0000 b34e 923c
00000150: 8031 08bb 212c 073c 0000 0000 5a2a 183d
00000160: 0000 0000 3bc4 233c 0f29 19bb b4e7 67b9
00000170: b5a9 ffba f03f 0b3d b3b8 0abc d1cd bf3c
00000180: 0000 0000 b1ae 1d3d 2586 ec3c bdae bf3c
00000190: 59c3 e13b 0e62 f93b 5453 1f3d a914 bb3c
000001a0: 9aee c43c 6643 05bb 49bd b43c a424 07ba
000001b0: 0000 0000 bf15 2c3c 199a c9ba 5c81 003d
000001c0: 0000 0000 49f3 1abc ae72 46b9 9e17 9a3c
000001d0: 0000 0000 8add 40b9 70b5 51bb 62eb 293c
000001e0: f8b3 b83c 0e22 66ba 0b5f de3c 99da 623c
000001f0: f615 0d3c 88cb f83b 5d85 aebb 8212 3e3c
0.0 0.015480937 -0.00053745107 -6.940972e-08 0.008207284 0.030325504 -0.0006029144 0.022314439
0.023316652 0.03515735 0.0 0.032218106 0.0 -0.0023397207 0.0 -0.0007003119
-0.0040431255 0.0 0.020081226 0.0021669522 0.008799014 0.0 0.0042694323 0.0
0.010326965 0.017448744 0.0 -0.0053177024 0.0 0.025831291 0.0 0.0
0.023529485 -0.0017987454 0.06526477 -4.1537405e-05 0.015130527 0.0 -2.0235065e-08 0.0
0.0 0.0035842375 0.0 -0.0038523334 0.036282066 0.032793343 0.0 0.030950177
0.022817591 0.0013604538 0.010514462 -0.0049753697 0.044243164 0.0 0.060806725 -9.679422e-05
0.011721323 0.03627402 -0.008328031 0.007435103 -4.3149307e-06 0.005487402 -0.00036839145 0.005951592
0.028506545 -0.0008231951 0.016342718 0.0 0.0 -4.3042844e-05 -0.00087051996 0.018626224
0.018114906 0.0 0.020434309 -0.0016052356 0.0 -8.786316e-10 0.018878609 0.023941776
-0.00064213003 0.027287152 0.0 0.017859792 -0.0020781457 0.008250267 0.0 0.037149765
0.0 0.009995515 -0.002337042 -0.00022116193 -0.0019505533 0.033996522 -0.008466887 0.02341357
0.0 0.038496677 0.028872559 0.023398751 0.0068897423 0.007610566 0.038897827 0.022837
0.024039555 -0.0020334362 0.022062914 -0.0005155301 0.0 0.010503232 -0.0015381008 0.031373367
0.0 -0.009457418 -0.00018925473 0.01881009 0.0 -0.00018393077 -0.0031999014 0.010371061
0.022546753 -0.0008778878 0.02714493 0.013846063 0.008611193 0.007592622 -0.0053259567 0.011601092

mlp_extractor.policy_net.0.weight f4 [192, 256]
00000000: f45d 0500 185d 0580 8f1f 0dac 4265 0100
00000010: 8358 0580 025e 0580 935c 0500 9362 0580
00000020: 6760 0580 745f 0500 ec7e 6ea6 6a61 0500
00000030: 5f5c 0500 df5b 0500 1e5b 0580 3b33 388b
00000040: 65b9 8ba9 785c 0580 a662 0500 5e5f 0500
00000050: e805 54a3 9c59 0500 a757 0500 fb58 0580
00000060: 3428 57aa 9c59 0500 aeec 78a3 34f8 b7a6
00000070: 592b e607 e758 7617 24bd 570f 6163 0580
00000080: 7ef3 031e d85d 0580 659a 2984 085a 0580
00000090: 135f 0096 ee56 6a80 d478 a130 675b 0500
000000a0: 1f73 1088 89fb 0311 971a 698b 86d5 e712
000000b0: 005c 0580 f959 0580 3fcb 03a8 d843 0680
000000c0: a704 ab91 436b 0580 c8ed d219 3c5d 0580
000000d0: ff6a 0580 377a db1d 12cf 0785 535d 0500
000000e0: 0b64 0580 c257 0500 8f58 0500 504d 8eb1
000000f0: 2158 0580 e15a 0500 3d56 ce08 f959 0500
00000100: e3aa 889c b075 8501 29b4 9e92 8f36 0499
00000110: e3d7 b090 a559 0580 c55c 0500 dd2c 1f13
00000120: 87a3 a6b7 1559 0500 e4d9 3f03 415d 0500
00000130: 0e48 159b 6ef8 9b18 ba5a 0500 b25f 0500
00000140: bee1 44b5 da57 0580 6e0b c590 0e63 0500
00000150: b75e 0580 d669 0500 175b 0580 c05b 0580
00000160: b004 eca1 d559 0500 842d 9a95 942f 9a95
00000170: 9450 8895 9c57 0500 5a98 39a2 f15a 0500
00000180: 18dd 0a15 9561 0580 956d 0580 bed2 0380
00000190: 256b 0500 a55a 0500 e5c7 4894 235f 0580
000001a0: 115b 0500 df5a 0500 8458 0500 08de 2e15
000001b0: c25c 0500 cc58 0500 df59 0500 d1dd c983
000001c0: 0459 0580 b642 0580 2665 0580 e45d 0500
000001d0: 4457 0500 9357 e608 ed5a 0580 ca2a 990d
000001e0: f65a 0580 1c5b 0500 5b5f 0500 eac5 c60d
000001f0: 2466 0500 e1e3 719d 3058 0500 40cd c208
00000200: fe65 838e 995d 0500 075c 0580 a76c 6f14
00000210: c258 0500 7dcb 8f2b 5e5d 0500 cb6d 0500
00000220: a55b 0500 0a9a f092 6d58 0500 ba5c 0580
00000230: 398d 9ba1 f266 292f 76e4 f987 335e 0580
00000240: 5d5c 0580 e360 0580 47e6 000e bd5a 0500
00000250: 72f0 6d9c a659 0580 df5c a69b 2064 0580
00000260: 975c 0580 9057 0500 cd64 0500 d559 0500
00000270: 505c 0580 24e9 8f26 ba22 1f9a 5259 0500
00000280: 7b5c 0500 1759 0500 135a 0500 1a5d 0500
00000290: 255b 0500 3a5a 0500 f857 0580 c059 0500
000002a0: f02d 5117 16f0 dc95 876d 4591 3471 0580
000002b0: 625a 0580 6eb6 040c 0158 0580 025f 0500
000002c0: e257 0500 b367 0580 6258 0500 ce5a 0580
000002d0: d0c6 1501 7559 0580 db5d 0580 c162 0580
000002e0: 5df4 161f 711c 5b9a 3b5a 0580 7669 1880
000002f0: 9757 0580 2b5b 0500 4535 0400 7659 0500
00000300: 835b 0500 7e59 0500 a263 0500 27a8 b504
00000310: bc5b 0500 47e3 ad1d 905a 0580 865e 0500
00000320: 13a4 fdaf 9b5c 0500 1d3e b318 7a5e 0580
00000330: f0c6 8ca2 8557 0580 faf9 1000 c37a 6f80
00000340: c189 1c1a 6094 392c a857 0580 5317 1800
00000350: 5d57 0500 0c5e 0500 5cb8 e50e 0058 0580
00000360: 4359 0500 ca26 a71c 555d 0500 a258 0580
00000370: 6757 0580 e561 0500 3558 0500 a05e 0580
00000380: 5958 0500 fd58 0500 a65f 0500 51ca 258f
00000390: 9a5d 0580 6259 0580 275e 0500 9d6a 0580
000003a0: 205d 0500 495f 0500 f658 0500 945c 0580
000003b0: 0458 0580 48ab 9492 c341 c1ac 315c 0580
000003c0: c55b 0500 2258 0500 bf1d 7326 fa5e 0580
000003d0: ea50 6889 c468 0580 e86b 0080 fb7c 8528
000003e0: ce5d 0500 9a06 cb06 ed67 1692 441f 3606
000003f0: c261 0580 59af 1c97 bec2 dfb0 0e58 0500
4.92882e-40 -4.92573e-40 -2.0054824e-12 1.2816e-40 -4.9093e-40 -4.92901e-40 4.92387e-40 -4.94539e-40
-4.9376e-40 4.9342e-40 -8.274485e-16 4.94123e-40 4.92314e-40 4.92135e-40 -4.91864e-40 -3.5475652e-32
-6.205001e-14 -4.92349e-40 4.94566e-40 4.93389e-40 -1.1493794e-17 4.91323e-40 4.90621e-40 -4.91098e-40
-1.9109784e-13 4.91323e-40 -1.3494226e-17 -1.2765451e-15 3.4632031e-34 7.9599098e-25 1.06367456e-29 -4.94828e-40
6.985435e-21 -4.92842e-40 -1.9936749e-36 -4.91475e-40 -1.0369758e-25 -9.765747e-39 1.1748633e-09 4.91966e-40
-4.346875e-34 1.0411588e-28 -4.4894172e-32 1.4630787e-27 -4.92181e-40 -4.91454e-40 -7.316033e-15 -5.75351e-40
-2.698191e-28 -4.97656e-40 2.180953e-23 -4.92624e-40 -4.9756e-40 5.8095185e-21 -6.385702e-36 4.92656e-40
-4.95066e-40 4.90659e-40 4.90946e-40 -4.1415333e-09 -4.90792e-40 4.91779e-40 1.24184485e-33 4.91454e-40
-9.043898e-22 4.902536e-38 -1.0015615e-27 -6.835258e-24 -6.9752386e-29 -4.91336e-40 4.92457e-40 2.009074e-27
-1.986489e-05 4.91134e-40 5.637998e-37 4.9263e-40 -1.2348273e-22 4.031741e-24 4.91724e-40 4.93506e-40
-7.334419e-07 -4.90693e-40 -7.772041e-29 4.94712e-40 -4.93155e-40 4.97144e-40 -4.91854e-40 -4.92091e-40
-1.5993223e-18 4.91403e-40 -6.2271916e-26 -6.227517e-26 -5.505709e-26 4.90606e-40 -2.515283e-18 4.91801e-40
2.804329e-26 -4.94183e-40 -4.98488e-40 -3.51107e-40 4.97614e-40 4.91695e-40 -1.0136842e-26 -4.93306e-40
4.91846e-40 4.91776e-40 4.90931e-40 3.5314172e-26 4.92453e-40 4.91032e-40 4.91417e-40 -1.1864645e-36
-4.9111e-40 -4.83109e-40 -4.95463e-40 4.92859e-40 4.90482e-40 1.386321e-33 -4.91796e-40 9.439654e-31
-4.91808e-40 4.91861e-40 4.93385e-40 1.2250338e-30 4.95819e-40 -3.2013895e-21 4.90813e-40 1.1724204e-33
-3.239221e-30 4.92754e-40 -4.9219e-40 1.2087844e-26 4.91018e-40 1.021724e-12 4.92671e-40 4.98564e-40
4.92053e-40 -1.5184103e-27 4.90899e-40 -4.92442e-40 -1.054059e-18 1.5407034e-10 -3.7599633e-34 -4.9297e-40
-4.92311e-40 -4.93934e-40 1.5888093e-30 4.91728e-40 -7.872749e-22 -4.91337e-40 -2.7522413e-22 -4.95096e-40
-4.92392e-40 4.90589e-40 4.95338e-40 4.91403e-40 -4.92293e-40 9.985811e-16 -3.290848e-23 4.9122e-40
4.92353e-40 4.91137e-40 4.9149e-40 4.92576e-40 4.91874e-40 4.91545e-40 -4.90735e-40 4.91374e-40
6.7589523e-25 -8.923608e-26 -1.557431e-28 -4.99787e-40 -4.91601e-40 1.0223808e-31 -4.90747e-40 4.9326e-40
4.90704e-40 -4.96378e-40 4.90883e-40 -4.91752e-40 2.750962e-38 -4.91269e-40 -4.92846e-40 -4.94604e-40
3.1965868e-20 -4.5311113e-23 -4.91546e-40 -2.241884e-39 -4.90599e-40 4.91882e-40 3.86451e-40 4.9127e-40
4.92006e-40 4.91281e-40 4.94919e-40 4.270732e-36 4.92086e-40 4.6027718e-21 -4.91665e-40 4.93086e-40
-4.6137014e-10 4.92398e-40 4.6333134e-24 -4.93069e-40 -3.815771e-18 -4.90574e-40 1.559043e-39 -1.0237779e-38
3.237132e-23 2.6372446e-12 -4.90623e-40 2.212419e-39 4.90518e-40 4.92915e-40 5.663039e-30 -4.90746e-40
4.91199e-40 1.106116e-21 4.92659e-40 -4.90973e-40 -4.90532e-40 4.94295e-40 4.9082e-40 -4.93123e-40
4.9087e-40 4.911e-40 4.9349e-40 -8.174093e-30 -4.92755e-40 -4.91242e-40 4.92953e-40 -4.97423e-40
4.92584e-40 4.9336e-40 4.9109e-40 -4.92388e-40 -4.90752e-40 -9.382337e-28 -5.492691e-12 -4.9225e-40
4.92098e-40 4.90794e-40 8.4347874e-16 -4.93249e-40 -2.796403e-33 -4.9676e-40 -3.871e-41 1.4820168e-14
4.92828e-40 7.6369813e-35 -4.7459753e-28 3.4253366e-35 -4.94246e-40 -5.062764e-25 -1.6280735e-09 4.90766e-40

mlp_extractor.policy_net.0.bias f4 [192]
00000000: 0000 0000 bfc1 f33b ed2a d9b1 df4a 8abb
00000010: 471b fc3b 276e 803b 3a3e 293c c607 233b
00000020: a8b5 b1b8 ea7b 2eba 8e3c 17bb 0ef4 813c
00000030: 249d f9ba 3135 ceb5 163b 9fbb 265b cb3c
00000040: e508 82b8 c205 523c bf68 0500 4220 713b
00000050: a606 93b6 620b 003c 4a06 ddb9 ec12 59b3
00000060: 0000 0000 154b 763a 09cd 69bb f0bb cd3c
00000070: baaf 9abb 7c18 143c b03c c1bb b4bc 023d
00000080: 84f8 da3c bd58 0500 49f5 fe39 e565 40bb
00000090: c324 f6b5 3611 983b 5f6d 293c f5aa 443c
000000a0: 5cf8 373c d400 913c 07fc 3bbb 1ab2 6bbb
000000b0: 0000 0000 10b8 713c ccc4 433c fff6 84b8
000000c0: b40c cf3a 28e1 1a3a b5bd 0bbc c556 b0b9
000000d0: a15d 203c 55c8 b13b 9a75 a7ba 2099 a1b8
000000e0: 9c0b 0cbc 1b74 e63a 04a6 3dba 035e 9dba
000000f0: 3ef4 64bc 3ddc 603c 03df 9f3b 20c7 bab9
00000100: cb9a be3c 9a63 1f3c 558c 533c 7664 09bc
00000110: 4840 223c be2b 163c 3245 e33b dbe7 933c
00000120: 770f 923b cb81 a5b2 6e8e 973c 4a7e 353c
00000130: 405a 0580 fcd8 b13b 70da 81b8 ef6e b7b8
00000140: 2955 5f97 45cb ec3c 80c6 473c f04f 08b9
00000150: b360 0500 9a4b eeba 8d5d 043b bc30 afa6
00000160: b747 4ebc 3e4b 323b da89 8b3c b552 853c
00000170: 9781 ef3c 2044 0b3c 823f 36b1 a2a8 c2b7
00000180: ef6b 903b 2467 0580 8348 81bb 86a3 c73c
00000190: 32b9 b83b e2d5 643b 982d 133d 2a79 01bc
000001a0: de0d 533c 7ddf 893a 0819 823b a54b 643c
000001b0: 1659 0580 b7ef 143b 90f2 54bc 0bf3 44b6
000001c0: 90dd cbba 5b07 d7b9 8896 0bb8 9cb2 90bb
000001d0: 54df e83b 1d61 0580 606b b43b 65be 8b3b
000001e0: 1fd4 fabb bc99 ce3c a186 01bc 8676 98bb
000001f0: 1b2e e73c ce34 d23b e167 c03c a719 9b3c
00000200: afae aa3c 70d4 adb8 ff6d e939 ea66 213b
00000210: 0be7 343b 08f2 70b8 5558 0500 8bd9 103b
00000220: 115b 0580 3cc0 bcbb 1452 863c 9855 b73c
00000230: d035 50a3 44fe 4fbc 802e 663a 04ed 233c
00000240: db7c 81b7 7d47 9f3c f064 05bb 43c9 773b
00000250: b32d 47bb 111d 833c 7b3d 87bb 5824 a73c
00000260: 99dd 0c3c 98a2 c03a 0576 a03a e2b2 803c
00000270: 7861 1db8 8dce dd3c 0299 033d 80df c43b
00000280: 1df4 0a3b a5f8 953b bf02 97b9 78ee 12b6
00000290: 0000 0000 51bc 16bc 9c60 133d 462c 1bbc
000002a0: fc71 0d3c 5860 903b e1b9 a03c f4a0 bf3c
000002b0: 55ef e5bb 7a17 1939 b1ca bb39 1403 433c
000002c0: ba13 d3b9 c90d 48b9 b03d b9bb 893f 393c
000002d0: 87ac c43b 9813 033c 5e4c e83c b91a bd3b
000002e0: 5a80 fa3b 1c37 173c 96a3 6f3a 21a1 db3b
000002f0: 015e 473c 663b 893b 3e68 91bb c4e3 4c3c
0.0 0.007438868 -6.3204113e-09 -0.004220351 0.0076936814 0.003919381 0.010329777 0.002487646
-8.473854e-05 -0.0006656038 -0.0023076865 0.015863445 -0.0019044024 -1.5363677e-06 -0.0048593385 0.024823736
-6.20054e-05 0.012818756 4.96753e-40 0.0036792909 -4.3817154e-06 0.007815214 -0.0004215709 -5.054146e-08
0.0 0.00093953434 -0.003567519 0.02511403 -0.0047206553 0.009039041 -0.005897127 0.031918243
0.02672983 4.91011e-40 0.00048629407 -0.002935761 -1.8339127e-06 0.0046407236 0.0103410175 0.01200365
0.011228647 0.01770059 -0.0028684156 -0.003596431 0.0 0.014753357 0.0119487755 -6.340257e-05
0.0015796633 0.00059081847 -0.008529116 -0.00033633984 0.009787948 0.005425493 -0.0012776137 -7.7056e-05
-0.00854769 0.001758221 -0.0007234516 -0.0012006167 -0.0139742475 0.013724384 0.00487888 -0.00035625044
0.02326717 0.009728337 0.012911876 -0.008385768 0.009903021 0.009165702 0.006935739 0.018054893
0.00445741 -1.9267551e-08 0.018500533 0.011077473 -4.91553e-40 0.005427478 -6.1918865e-05 -8.746783e-05
-7.2162673e-25 0.02890552 0.012193322 -0.0001299975 4.93867e-40 -0.001818049 0.0020197362 -1.2156274e-15
-0.01259034 0.0027205492 0.017033506 0.01627479 0.029236598 0.008500129 -2.6520586e-09 -2.3205128e-05
0.004407398 -4.96177e-40 -0.0039454116 0.024369966 0.0056373114 0.0034917523 0.035932153 -0.007902423
0.012881724 0.0010518875 0.003970269 0.013934051 -4.91135e-40 0.002272589 -0.0129972845 -2.9347746e-06
-0.0015553702 -0.00041013476 -3.3280376e-05 -0.004415823 0.007106701 -4.94015e-40 0.005505964 0.00426464
-0.0076546813 0.02521979 -0.007905633 -0.004652801 0.028220227 0.006414986 0.023487033 0.01893313
0.020835249 -8.2888524e-05 0.00044523177 0.0024627992 0.0027603533 -5.7445868e-05 4.90865e-40 0.0022102322
-4.91846e-40 -0.005760221 0.01639656 0.022379681 -1.1287098e-17 -0.012694899 0.0008780733 0.010005239
-1.5436139e-05 0.019443268 -0.0020354353 0.003780917 -0.003039223 0.01600507 -0.004127202 0.020403072
0.008597755 0.0014696894 0.0012242204 0.015710298 -3.752249e-05 0.02707603 0.03212834 0.0060080886
0.0021202632 0.00457676 -0.0002880301 -2.1894502e-06 0.0 -0.009200172 0.035980806 -0.009471005
0.008633133 0.0044060163 0.019619884 0.023392178 -0.007017056 0.00014599963 0.00035818436 0.011902589
-0.00040259754 -0.00019078622 -0.0056531057 0.011306652 0.006002012 0.008000277 0.028356727 0.005771008
0.007644695 0.009229448 0.00091415027 0.0067025577 0.012168408 0.004187989 -0.0044374755 0.012505475
