waypoint_state_v0.onnx (onnx, 959272 bytes, 24 tensors)

log_std f4 [4]
00000000: 8b1d 203a 1b6f 0a3a c461 0a3a 5ad9 193a
0.0006107918 0.0005280838 0.00052788504 0.0005868875

features_extractor.state_extractor.0.weight f4 [128, 16]
00000000: 9f86 dc3c 2d75 7fbd f8b9 f63d e1ec 793e
00000010: 0460 17be 485b 7cb9 63ae b3bd 3c8d 5f3d
00000020: 73c9 e53d 8003 81bc ee8f 10be c3d5 acbd
00000030: d48e 0fbd 9fb1 c83d 0326 11bd 0ac1 1dbe
00000040: 9317 353b 1c0b 3a3a 3e9e 643d 7e87 353d
00000050: b446 573e 497e 64bd c3b1 83bb 3cfb 87bd
00000060: d23b 16be 34d5 85be 80a4 72be 6853 4bbd
00000070: 9bb6 003d 0738 ad3d 2b75 133e 78d9 ef3d
00000080: 25d6 7c3e 4649 7dbe a930 55bd b158 db3d
00000090: f03e 75bd 1425 b73c 7ee5 abbd 509d 17be
000000a0: 21b4 1abd 1984 52be fd1e 2e3e 9c19 663c
000000b0: dcb7 cfbc 45df 8cbc b17a d5bc d511 4a3e
000000c0: 9733 6d3c 0ba7 5ebc 67db 1a3e 588b a93e
000000d0: 8042 5c3e 7892 5b3e 2523 373d e771 11be
000000e0: 60b7 d53d eefd 743d 92bd be3c 22c7 6a3d
000000f0: 9efc 9dbc 5cc0 ccbe d898 dc3d 405c 793d
00000100: 014f 0bbe 800c 863e 0e84 203e 24b8 bc3c
00000110: cf13 2f3b 3e80 a73e 6784 023e 1ec1 5dbe
00000120: 3ba7 0dbe cf18 9a3d 79c7 503c 5c28 063d
00000130: 488b 873e 8c56 bd3d a17b a9be 4603 b93b
00000140: 41f6 c93d 97d8 623e 3b8f d33c 6752 543d
00000150: 4867 a3be 4112 8a3e 88f9 dc3d f480 3cbe
00000160: 0891 10bd 96f0 623d 880f 81bd d045 a4bc
00000170: 1abe 21bd c7b4 3dbe 4952 a2bc 7835 123e
00000180: 5227 043e 8eba 273e 4e47 8f3d 6582 acbd
00000190: 794b ab3d 8b0b 983b a61d 3e3e 391c c5bb
000001a0: 0160 f6bc d801 9e3d 1f13 5c3c 54ef 77be
000001b0: d547 6e3c f36c aa3c ef0d 1e3e fe91 09bd
000001c0: 7e41 48be 38cf b7bd 8b0e 35be 4427 b0bd
000001d0: 4bfa bd3c 1be0 30bd d809 f73d fd03 30be
000001e0: 4e83 933d fea1 1dbc 8196 d6bd 420b af3d
000001f0: bbf9 d83d 0753 6c3d 808f 8d3b e13f 253e
00000200: 4b34 65be 5723 ab3b 8458 0d3d 0ab2 4e3e
00000210: 20d5 ca3d 556f 2c3e b01e 73bd 941d 1cbe
00000220: cd93 b0bd e33f da3d b881 92bd 027f b0bb
00000230: f6ea bfbc 50e2 1f3c 1ee7 243d ce24 773c
00000240: ae8f ae3d fa80 71bd f51b 003e 29a8 d23d
00000250: eed8 9bbd b597 d13c 91f9 0cbd b650 55be
00000260: 49ca 3fbd 6003 143d 85aa 193e d2c6 0d3d
00000270: a0f0 47bd fb78 c83d ba15 23bc a6f4 a4bd
00000280: 5e0f c6ba 743c 9cbd 9a9e 10bd 3bc8 c5bd
00000290: 7ba1 ec3d cb5f 1abe e536 f23d 5fce e3bd
000002a0: 6cb9 473e 7d4d 3f3e c08e c2bd af71 fe3d
000002b0: 73a6 c2bb 0a66 47bc ce45 7c3d 73b8 013d
000002c0: e0a4 babd 3429 45be 7f74 14be 350e 80bd
000002d0: 22aa cbbc 5081 acbd e6f3 c2bd 5aae 2c3c
000002e0: 6771 fb3d 249a 30bd aeff 82bc 2098 683e
000002f0: d74a 313e d210 9f3d dcdb 7cbe 825b a73c
00000300: fee7 453e 4b38 413e 80f0 f7bc 0d19 013e
00000310: e5d6 ac3d 1f16 2c3c 38cb 2bbd 0712 9ebd
00000320: b9fa 1ebe a9d2 b3bd 2e10 ad3d a561 123e
00000330: 98e4 3bbd 91fc 673d 339d 2dbe 7d32 f1bd
00000340: 6408 5bbd 8d05 eebc 6add 303e 44ed 8f3d
00000350: 93aa 97bc c6ff b7bd 9a5e 9b3c 5d31 7b3d
00000360: ec45 983d f26f b5bd ce79 f53d a997 d3ba
00000370: 64f2 bdbd 1405 0b3e c53f ef3d 8aa9 b7be
00000380: 458d 65ba 7ad1 f5bb d68a 27bd 2771 103c
00000390: 2c63 013e 0601 30be df72 d63d e2fe 793d
000003a0: 4a1b a7bd 68f9 28bc 8bde 4a3e 65b3 cf3d
000003b0: 1720 093e 02a6 7bbe 297e 3a3d acb4 4cbc
000003c0: c67f 4fbe dc7f 833e f04a f1bd e916 543e
000003d0: 066a 42be 54c4 ad3c bba0 0cbe 8781 953e
000003e0: 16c1 4b3d 15c4 393c 637e 113e 844c 56bc
000003f0: 292e b33d 793e d4bd 687a 0fbe 2dfc b03d
0.026919661 -0.062367607 0.120471895 0.24406768 -0.14782721 -0.00024066598 -0.08773496 0.05457805
0.11220064 -0.01574874 -0.14117405 -0.08439209 -0.03504832 0.097995035 -0.03543664 -0.1540567
0.002763246 0.00070969923 0.055814974 0.04431867 0.21023065 -0.055784497 -0.0040189936 -0.06639716
-0.14671257 -0.26139224 -0.23695564 -0.04964009 0.031424146 0.08457952 0.14400165 0.11711401
0.24691065 -0.24734983 -0.05204836 0.10710276 -0.059874475 0.022356547 -0.083933815 -0.14806104
-0.03776944 -0.20558204 0.17004009 0.014044192 -0.025356226 -0.017196307 -0.02605948 0.19733365
0.014477632 -0.013589631 0.15122758 0.33114123 0.21509743 0.21442592 0.04471125 -0.14203607
0.10435367 0.05981248 0.023283754 0.057318814 -0.019285496 -0.3999051 0.1077134 0.060878992
-0.13604356 0.26181412 0.15675375 0.023037024 0.0026714688 0.3271503 0.1274582 -0.216557
-0.13833325 0.07524263 0.0127428705 0.032753333 0.2647345 0.09245023 -0.33102134 0.005646142
0.09861422 0.22152935 0.025825134 0.051836397 -0.31914735 0.26967052 0.10789782 -0.18408567
-0.035294563 0.055405222 -0.063017905 -0.02005282 -0.039487936 -0.18525992 -0.019814627 0.14278209
0.12905625 0.16379759 0.06996022 -0.08423308 0.08364005 0.004640048 0.18565997 -0.0060153273
-0.030075075 0.077151954 0.013432293 -0.2421239 0.014543493 0.020803904 0.15435003 -0.033586495
-0.19556233 -0.08975071 -0.17681329 -0.08601239 0.023190638 -0.043182474 0.120624244 -0.17189021
0.07202779 -0.0096211415 -0.10477925 0.08547069 0.10594507 0.05769637 0.004320085 0.16137649
-0.2238323 0.0052227187 0.034508243 0.20185104 0.099039316 0.16839345 -0.059355438 -0.15245658
-0.08621941 0.10656717 -0.07153648 -0.0053862343 -0.023427468 0.009758547 0.040259473 0.0150844585
0.085234985 -0.058960892 0.12510665 0.1028598 -0.076097354 0.025585035 -0.034417693 -0.2083157
-0.046823774 0.03613603 0.15006454 0.034613438 -0.048813462 0.097887 -0.0099539105 -0.080544755
-0.0015110781 -0.07628718 -0.035307504 -0.096573316 0.115542375 -0.15075605 0.118268766 -0.111233465
0.19504327 0.18681903 -0.09499884 0.12424027 -0.0059402524 -0.012170324 0.06159001 0.031670045
-0.09113479 -0.19253999 -0.14497565 -0.0625271 -0.0248614 -0.08423102 -0.09519176 0.0105396155
0.12277489 -0.04311575 -0.015991058 0.22714281 0.17313705 0.0776688 -0.24693245 0.020429377
0.19326779 0.1886913 -0.030266047 0.12607212 0.084394254 0.010503321 -0.04194185 -0.07718282
-0.1552533 -0.087804146 0.08450352 0.14295061 -0.0458723 0.05663735 -0.16954498 -0.11777208
-0.0534748 -0.029055381 0.17271963 0.07027677 -0.018513953 -0.08984332 0.018966008 0.061326373
0.074352115 -0.088592425 0.11986123 -0.0016143221 -0.09274748 0.13576156 0.11682085 -0.35871536
-0.00087567075 -0.007501778 -0.04090389 0.00881604 0.12635487 -0.1718789 0.10471129 0.06103409
-0.08159502 -0.010313369 0.19811456 0.10141639 0.13391148 -0.24575046 0.045530472 -0.012494247
-0.20263585 0.25683486 -0.11781871 0.20711865 -0.18985757 0.02121178 -0.13733189 0.29200384
0.049744688 0.0113382535 0.14208369 -0.013079766 0.08749039 -0.10363478 -0.14011538 0.08641849

features_extractor.state_extractor.0.bias f4 [128]
00000000: 8687 21ba 1b53 21ba 7946 3c39 483d 22ba
00000010: 3c98 1fba d227 06ba 38ce 223a 2de3 18ba
00000020: be9e 243a 5cd1 2eb9 87ac 20ba 9b30 3039
00000030: 61ea 243a 3245 1eb9 5a82 253a 424f 053a
00000040: 6cb5 16ba 67e8 213a fada 1e3a f95b 223a
00000050: 53ba 1f3a f2ec 22ba 9023 1aba aec0 1e3a
00000060: b560 22ba 3ad6 223a 9c93 1eba 2479 20ba
00000070: d279 1bba f647 223a cd27 243a 08e2 1dba
00000080: e643 1eba 5cde 1f3a a055 0bba 996f 25ba
00000090: 013a 17ba d064 213a 2ec5 1cba 53b6 223a
000000a0: 1fe7 22ba ffdb 223a 6b36 f5b9 bc77 04ba
000000b0: 4d6f 1bba 6b60 20ba 0dc4 1fba ab5c 20ba
000000c0: e7df 08ba 932b 21ba 3530 0b3a 3134 193a
000000d0: 0bf2 21ba 8dcd 193a 3e0a 213a 4115 243a
000000e0: f67b 213a fcc1 223a 967d 7139 5488 24ba
000000f0: 515d 1b3a 05f6 8bb8 aeb7 243a a27f 7039
00000100: 8f73 18ba 8ec5 1d3a e717 253a f0b1 1a3a
00000110: 564f 21ba 2270 24ba 1107 193a 2ed9 23ba
00000120: 9f6e 1aba b893 223a 2c6f 213a e1f7 233a
00000130: df2a 1f3a f96a 22ba 1312 20ba 0679 22ba
00000140: cea3 88b9 6d2b 1bba 6876 22ba 26d6 1bba
00000150: 741a 21ba 1a61 21ba e0d5 21ba afcc 23ba
00000160: 1ff1 1e3a 278b 23ba d52e 1dba 26c4 20ba
00000170: 3b92 213a 3d7c 243a be9c 1f3a 036d 1eba
00000180: b259 213a 554a 213a 1007 1fba e9a5 1f3a
00000190: 6262 213a 07c1 b0b9 663d 243a eae5 20ba
000001a0: c0b5 a5b9 c736 1eba f1b5 243a 4cd3 213a
000001b0: 2e51 233a 8e40 21ba 92e8 213a f53c 1eba
000001c0: 6693 233a 66aa 07ba c987 21ba 6a75 253a
000001d0: be29 1d3a f3f9 1aba 1d79 1eba 7ebe 1f3a
000001e0: d845 8739 0e26 23ba 44fc 173a f45a 23ba
000001f0: dad3 f8b9 e884 21ba 971f 233a 052c 19ba
-0.0006161857 -0.0006154046 0.0001795533 -0.0006188941 -0.00060880533 -0.0005117628 0.00062105386 -0.00058321917
0.0006279758 -0.00016671926 -0.0006129224 0.00016802775 0.00062910287 -0.00015093831 0.00063136744 0.00050853577
-0.000574908 0.0006176293 0.0006059852 0.00061935146 0.0006093133 -0.0006215117 -0.0005879933 0.0006055933
-0.000619422 0.0006211732 -0.0006049217 -0.0006121567 -0.00059309334 0.00061905326 0.00062620343 -0.0006022756
-0.00060373393 0.0006098503 -0.00053151883 -0.000631088 -0.0005768836 0.0006156685 -0.000598031 0.0006206978
-0.00062142493 0.00062125915 -0.00046770586 -0.0005053242 -0.0005929366 -0.0006117883 -0.00060945825 -0.0006117324
-0.00052213523 -0.00061481557 0.00053096126 0.0005844264 -0.000617773 0.0005867116 0.0006143189 0.00062592706
0.0006160134 0.00062087155 0.00023030335 -0.0006276418 0.0005926686 -6.673861e-05 0.0006283474 0.0002293573
-0.00058155594 0.00060185126 0.0006297812 0.00059011485 -0.00061534846 -0.00062728126 0.000583754 -0.0006250319
-0.00058911176 0.00062018214 0.00061582285 0.00062548934 0.0006071757 -0.000619575 -0.0006106209 -0.00061978435
-0.00026061985 -0.00059192517 -0.00061974535 -0.00059446914 -0.00061456044 -0.0006156132 -0.00061735325 -0.0006248457
0.00060631515 -0.0006238692 -0.0005996053 -0.0006132744 0.00061634526 0.00062746165 0.0006088725 -0.00060434657
0.0006155028 0.0006152739 -0.0006066421 0.0006090091 0.0006156323 -0.00033713153 0.00062652526 -0.00061377755
-0.00031606667 -0.0006035384 0.0006283215 0.0006173148 0.0006230053 -0.0006151282 0.0006176318 -0.0006036305
0.00062399206 -0.00051752327 -0.0006161896 0.00063117465 0.0005995295 -0.0005911879 -0.0006045269 0.0006093754
0.00025801244 -0.0006223627 0.00057977834 -0.00062315096 -0.00047460088 -0.0006161467 0.0006222664 -0.0005843046

features_extractor.state_extractor.2.weight f4 [128, 128]
00000000: 04ae 9f3c 1f26 fbbd c82b af3c d97a 0d3e
00000010: e172 353c de09 0dbd 3c0f 36be e598 d7bc
00000020: 4549 9bbd 7f76 143e 0ce5 bfbd 5992 aa3d
00000030: b61e 83bd ff86 11be c2ed 8d3e 27e6 84be
00000040: 563f b4bd 266f 9dbc c89b b7ba 5fbc 26be
00000050: 9dd3 d9bd a3d7 503e fe0d 403d 7dcd 403d
00000060: 8a49 cdbd 3a97 7e3d 858b 353c 7462 7c3d
00000070: ec73 ef3d 9cce 853d fa76 98bd 7a73 563d
00000080: 8037 313d 0387 413e aa20 c73d ddd3 10be
00000090: 53f0 5dbd 5c90 0abd 27ca cf3d bdf3 f1bc
000000a0: 0010 053e a0ba 0cbe 798d ee3d 348a 363a
000000b0: 1875 a23c 9381 efbd def4 dbbd f6ae 2fbe
000000c0: 8444 7d3e d511 02bd 83be 74bb 3e18 f53c
000000d0: 2083 3f3d 3fc8 aa3d 84f7 19bd 02ae 993c
000000e0: 46ac 27be b222 2bbe 205a cf3d 1692 02be
000000f0: f2b1 10be 5832 133e cc67 033e 9b63 a13d
00000100: 16d8 343e 5089 80bd ae68 c0bc f9cf 81be
00000110: c065 d83d 6f20 2e3e d51b 893e f534 01be
00000120: 8518 d9bd 0990 cc3d 23fd 333e 4acf 093d
00000130: b7d8 a03e 42ad 0c3e 672a 0bbe 3c4e 8b3d
00000140: 896b 843d b173 87bc 2418 0bbe dfa0 c2bc
00000150: 9a4a 863c 1f8e ff3c 95c0 58be 608f fbbd
00000160: 3ef6 d73d f6fd 463e 1a91 c93d eb85 073e
00000170: 6003 223d d953 9ebe cf7e 943d 9002 09bd
00000180: 8887 a03c 0083 ec3c cb14 a03c f774 0bbd
00000190: 1981 0abb cc48 80be eb77 5ebe 8f47 523d
000001a0: 8407 cb3d 10e9 d63d 48c6 313e acc8 e0bc
000001b0: 4006 e7bc aa5e 23be a24b c9bb d9d6 c0bd
000001c0: 62a6 8c3e 11f3 aa3e e202 e1bc f131 343e
000001d0: e019 68bc c815 f9bd 1834 c4bd b610 77bc
000001e0: 97a0 42bc b38b a33d 59c6 e2bc 6e84 33bc
000001f0: b4dc 493d 1aae eb3c 44a2 3ebd d638 34be
00000200: ae22 9f3d ac0b e6bc 221d eabd 2b0b d7bd
00000210: df7a 62bd 8324 00be a3b9 643c e1f4 ca3e
00000220: 2a1a 0b3e 7a1a 2a3c 07de fabd f6b0 403d
00000230: 8ca5 5dbd 49c8 64bd 2e16 8ebb 2daf 863c
00000240: fcb6 fdbd bd0c bebd 0701 97be 444e bdbc
00000250: 395b 11be 471a 1d3c 56e0 70bb f83c a73d
00000260: 13e9 e0bd aa51 efbc f269 abbe d148 1a3e
00000270: 3478 03be e6b4 093c b94c 97bd 7377 ec3c
00000280: dab0 eb3c 1bb7 9d3d 2101 183e 9d72 84be
00000290: d604 423c 9032 b7bd 28cc 7b3d 7d47 a4bd
000002a0: a4d1 febc a9ad fb3b 6a24 013e 63d6 023c
000002b0: b661 bd3d e1b1 423e 163d 3a3d 1749 4dbd
000002c0: 0e0e 62be 3b46 353e 1ce6 c43d f811 5cbd
000002d0: 5d62 21be de07 34be a5eb 8cbe cc83 e5bd
000002e0: 7699 87bd 3b91 c03c ee15 e0bd a1dd 89bd
000002f0: 02fa 983e cfb7 ff3c cfa2 0bbe 3e09 14be
00000300: cc48 383e 712e a6bd f298 283d aca1 9d3d
00000310: 13c4 59bb f264 48bd b207 0c3e b92b 92bd
00000320: c3a6 b3bd 865c b53d 044b 97bd 01cb 42be
00000330: 055b e3bd 59da c93d 9965 073d 96a0 d33d
00000340: 8092 91bd ff18 8c3c 8119 263d 47ec 00be
00000350: 361a 14bd 5be0 a7bd 0cbc 1e3e efaf e8bd
00000360: c44e 2bbc 1e43 703c 76e7 19be 5a12 f6bc
00000370: dd5b 1c3d 3d7c 0d3e 83eb 013e e73a a5bd
00000380: 28c2 cebd 1a51 5f3d aaa4 1d3e 4efa c03d
00000390: 2bfe a8bd 0acd 17bd 643a 3d3d 301e 0abe
000003a0: 4579 4abd bb2a 5b3d aceb 8fbd 857e 633d
000003b0: b4d6 97be 2603 403d d5b9 b5bd b144 83bc
000003c0: 5d2a 463d 4e1f b2bc e127 f4bd d306 f53d
000003d0: bd28 20be b3fb 58be dade 8dbd d502 633e
000003e0: 6b5b a53e 8b3a 733e ffe7 663b 4d41 393e
000003f0: a7e0 5b3d 4104 843b 6420 35be f93e 11bd
0.019492157 -0.122631304 0.021383181 0.13816394 0.011074753 -0.03443324 -0.17779249 -0.026318023
-0.075823344 0.14498328 -0.09369859 0.08328695 -0.06402342 -0.14211653 0.27720457 -0.25956842
-0.08801143 -0.019218039 -0.0014008218 -0.16282795 -0.10636065 0.20394759 0.046888344 0.04707097
-0.10023792 0.06215594 0.011080627 0.06161733 0.11692032 0.06533548 -0.07444568 0.05235622
0.04326582 0.18899159 0.09723027 -0.1414332 -0.05418427 -0.033829078 0.101459794 -0.029535169
0.12994385 -0.13743067 0.116480775 0.0006963343 0.019831225 -0.11694636 -0.10740064 -0.17156586
0.24733168 -0.031755287 -0.0037345 0.029918786 0.04675591 0.08338975 -0.037589565 0.018759731
-0.16374311 -0.16712454 0.10124612 -0.1275104 -0.14130381 0.14374673 0.12832564 0.07880326
0.17660555 -0.0627619 -0.023487415 -0.25353983 0.10566282 0.1700456 0.26779047 -0.12617858
-0.1060038 0.0998841 0.17577033 0.033644952 0.3141534 0.13737968 -0.13590394 0.068020314
0.06465823 -0.016534658 -0.13583428 -0.02375835 0.016392995 0.031195698 -0.21167214 -0.12283206
0.10545014 0.19432816 0.09842129 0.1323468 0.039554 -0.30923346 0.07250749 -0.03344971
0.019595876 0.02887106 0.019541165 -0.034047093 -0.0021134077 -0.2505554 -0.21725433 0.051337775
0.09913543 0.10493672 0.17360795 -0.027439438 -0.028201222 -0.1595408 -0.0061430493 -0.09415979
0.2747069 0.3338857 -0.027467195 0.17597176 -0.014166325 -0.121623576 -0.095802486 -0.015079668
-0.011879108 0.0798563 -0.02768247 -0.010956867 0.049282745 0.028769542 -0.046541467 -0.17599806
0.077702865 -0.028081737 -0.11431338 -0.10500177 -0.05529296 -0.12513928 0.013960275 0.39639953
0.135842 0.010382289 -0.122493796 0.047043763 -0.054112956 -0.05585507 -0.00433614 0.016440952
-0.12388417 -0.092797734 -0.2949297 -0.023108609 -0.14194955 0.009588785 -0.0036754808 0.08165926
-0.109819554 -0.029213745 -0.33479267 0.1506684 -0.12838823 0.008404946 -0.073876806 0.028865552
0.028770853 0.0770094 0.1484418 -0.25868693 0.011841973 -0.08945191 0.061473995 -0.08021448
-0.031105824 0.007680614 0.12611547 0.007985684 0.092471525 0.19013168 0.045468412 -0.050118532
-0.22075674 0.17702572 0.096142024 -0.053728074 -0.15760179 -0.17581126 -0.27523533 -0.11206779
-0.06621067 0.023506751 -0.10941683 -0.067317255 0.2987824 0.031215576 -0.13636325 -0.1445665
0.1799652 -0.08114327 0.041161485 0.07696852 -0.0033228442 -0.048924394 0.1367481 -0.07137246
-0.08772042 0.08855538 -0.07387355 -0.19022752 -0.11101345 0.098561 0.033055875 0.10333364
-0.07108021 0.017101763 0.040551666 -0.12590133 -0.03615781 -0.08197089 0.15501422 -0.11361682
-0.010455791 0.0146644395 -0.15029702 -0.030038048 0.038173545 0.13816924 0.12687497 -0.08067875
-0.10095626 0.054520704 0.15394846 0.09422742 -0.08251604 -0.037060775 0.046198264 -0.13488078
-0.049432058 0.053507548 -0.07027373 0.05554058 -0.29655993 0.046878003 -0.08873335 -0.016023966
0.048380245 -0.021743443 -0.11921669 0.11964192 -0.1564054 -0.21189766 -0.06927271 0.22169049
0.3229631 0.23752801 0.0035233495 0.18091317 0.053681042 0.0040288274 -0.17688137 -0.035460446

features_extractor.state_extractor.2.bias f4 [128]
00000000: ec9e a6b6 746e 20ba 821f 243a 04e1 20ba
00000010: 9fc9 22ba 528c 21ba 5954 23ba 908d 1aba
00000020: f802 23ba d1af 233a ce1e 21ba cc55 233a
00000030: 2133 20ba c5cd 223a 43ac 213a 695c 1eba
00000040: 7196 203a d63c 1f3a c5d8 5039 188f 253a
00000050: ab3a 20ba d3a2 13ba 4cf6 1e3a ed34 beb9
00000060: fff4 1eba dd87 253a 3a1c 22ba 9713 52b9
00000070: 12fb 203a aed3 223a 0000 0000 592d 1cba
00000080: fec3 21ba 45fe 17ba 2e36 233a b842 1e3a
00000090: 74ad 20ba 10aa 233a 04f2 22ba 1bea 233a
000000a0: 154c dab9 0000 0000 f4ec 203a e459 243a
000000b0: f8cd 203a 6a92 243a 6fb9 ccb9 6778 21ba
000000c0: 5139 21ba 3f43 223a 3e40 23ba c097 0dba
000000d0: 3ebf 013a 9435 1aba de06 03ba cc48 9338
000000e0: 2c00 21ba cb20 223a 5e25 1dba 32f4 233a
000000f0: b73a 163a 5baa 21ba b13c 24ba afef 213a
00000100: d208 1c3a a851 1fba 6449 21ba ad41 1bba
00000110: b5bf 21ba 9b8d 233a 324f 243a 3e71 213a
00000120: 34ea 21ba 26c1 1e3a 390d 233a 786f 0bba
00000130: c00d 82b8 c996 20ba 91d5 22ba 6627 1bba
00000140: c4d6 23ba 7cc9 213a ba42 24ba 7c1a 21ba
00000150: 2dc9 20ba 1226 1fba e779 1fba 77e7 22ba
00000160: de7e 213a f965 20ba ce17 203a 6b71 22ba
00000170: abc1 21ba 6fba 1fba 8fb8 b439 c5f9 20ba
00000180: 0ea8 253a 9225 00ba 92b1 1f3a aaa8 13ba
00000190: 21cf 1aba 0000 0000 afa4 1e3a cba5 20ba
000001a0: 58cb 19ba 2299 1eba 0ea3 1aba b6e8 223a
000001b0: 26e7 243a 114f 20ba a1e1 1cba a3b4 ae38
000001c0: 5ac4 233a c1a6 20ba af9a 22ba 5f46 203a
000001d0: 43da 1fba 0000 0000 5c41 22ba 66f2 233a
000001e0: 0ab4 d7b8 883d 243a 01d9 1fba 85c9 213a
000001f0: 0000 0000 e4c1 1fba e3e1 213a 5074 223a
-4.9656865e-06 -0.00061199744 0.00062607985 -0.00061370456 -0.00062098535 -0.0006162572 -0.00062305253 -0.0005895728
-0.0006218399 0.0006244155 -0.0006146253 0.0006230741 -0.00061111344 0.00062104716 0.00061673316 -0.0006040992
0.0006125933 0.0006074434 0.00019917179 0.0006315573 -0.0006112258 -0.00056318677 0.0006063923 -0.00036279057
-0.0006063729 0.00063144957 -0.00061840157 -0.00020034458 0.0006140928 0.00062113523 0.0 -0.0005957685
-0.0006170868 -0.0005798082 0.000622603 0.00060371635 -0.0006129362 0.0006243298 -0.00062158727 0.0006252841
-0.00041636886 0.0 0.00061388244 0.0006269498 0.00061342074 0.0006277921 -0.0003904807 -0.0006159604
-0.00061502034 0.000618983 -0.00062275294 -0.00054013357 0.0004949457 -0.00058826176 -0.00049982767 7.023066e-05
-0.0006141688 0.0006184696 -0.0005994643 0.00062543445 0.0005730795 -0.00061670475 -0.0006265147 0.0006177378
0.0005952242 -0.00060775364 -0.00061525987 -0.0005922567 -0.0006170229 0.00062390574 0.00062679045 0.0006158537
-0.00061765616 0.0006056003 0.0006219927 -0.00053190393 -6.201444e-05 -0.00061259844 -0.00062116334 -0.00059186516
-0.0006249959 0.0006171686 -0.00062660465 -0.0006145609 -0.0006133493 -0.00060710416 -0.00060835335 -0.00062143005
0.0006160567 -0.0006118711 0.0006107063 -0.000619671 -0.00061705214 -0.00060931494 0.00034469782 -0.0006140734
0.00063192926 -0.0004888411 0.00060918287 -0.0005632738 -0.00059054984 0.0 0.00060517614 -0.00061282207
-0.00058667874 -0.000605004 -0.0005898931 0.0006214486 0.00062905473 -0.00061152974 -0.0005984549 8.330613e-05
0.0006247215 -0.0006128364 -0.0006202859 0.0006114002 -0.0006097892 0.0 -0.0006189549 0.0006254077
-0.00010285534 0.00062652724 -0.0006097705 0.00061716913 0.0 -0.00060942606 0.00061753223 0.00061971415

features_extractor.vd_extractor.0.weight f4 [128, 1]
00000000: 2ea6 493a 591f 4cbe fe84 4c3d 324a bc3c
00000010: 02df 513e 7c2a dfbd 03bd f63d 0af5 4a3c
00000020: e511 29be 1527 87be c043 59be 5fbd 89bc
00000030: d023 693d 090f 8dbe b707 333e 94ac 1f3e
00000040: fec9 b5bd a866 5bbc 911a 02bd ba17 c6be
00000050: 1bc2 0f3d 8d65 a0bd 80a1 3e3c 86d7 1f3e
00000060: 654c 653d 1b60 4b3e fc6d 70bc 0477 86bc
00000070: a7aa 8b3d 469d be3d 03ba 693e 2a05 5bbd
00000080: 02fd 2cbe 4369 59bd a110 4cbd 5c35 3ebe
00000090: c84b e53d ada8 ec3b 990f dfbd 619f 5d3d
000000a0: 81df 14be f0b5 753d 504b c2bd 2bc8 8fbd
000000b0: 6292 4dbd acdd fd3d cf89 d63d 2622 833e
000000c0: eafa dbbc 3e9c b13d 391b 4dbe 86ae e13d
000000d0: b1dd d1bd c028 6c3d c9d3 833d 207a 44be
000000e0: b9c1 c53d e831 26be 2834 e6be 6f70 eabc
000000f0: 0180 a2bc 35a5 25be 4e90 6bbd dc6f c9bd
00000100: 5f7b e6bd ba8f 12bb cbb3 0dbe 8b4c f03d
00000110: 1f75 d13d 3d38 eebd 0d1e 54bc 040f d5bc
00000120: 8740 97bc 85e2 de3c 17e8 013e 8da5 39bd
00000130: acd0 acbd 3f07 bebd 89b6 323e 3b6c 92bd
00000140: c615 813d 3ff7 cdbd e8f8 363e 52ea d63d
00000150: 2d8c 57be 02b3 063e 518a 26be d003 2c3e
00000160: b32f c43d 6dbe d73c 010b d8bd 3b6c aa3c
00000170: 393a 7dbd 9bf0 b43d 5138 a43d 5a7d 68bd
00000180: a218 5b3d f6fa ec3c a85f d2bc 7885 b2bd
00000190: 4b07 923b 6afc 33bd 02b9 f2bd a847 80bd
000001a0: 62d6 2e3e 6790 5e3d 26a3 083e 4aed 223c
000001b0: ea46 243e 2384 94bc cfc2 aebb 60c2 a6bd
000001c0: 7094 113e 492a a93b c956 333d 0c9c 93bd
000001d0: 8346 953d e553 2a3d 4eab 143b 7dd3 833c
000001e0: 768b 83bd 0eb6 cfbd 1035 793e 3a0b e0bd
000001f0: e193 233e d344 663e 7001 443d 095d b73d
0.0007692304 -0.19933833 0.04993152 0.022984598 0.20495227 -0.10896775 0.1204777 0.012387523
-0.16510732 -0.26397005 -0.21217251 -0.016813932 0.05691892 -0.27550533 0.17483412 0.15593177
-0.088764176 -0.013391174 -0.031763617 -0.38689977 0.035097223 -0.07831869 0.011635184 0.1560956
0.05598106 0.1986088 -0.01467466 -0.016414173 0.06819659 0.09307341 0.22824864 -0.05347172
-0.1689339 -0.0530789 -0.049820546 -0.18575042 0.11196095 0.007222256 -0.10891647 0.054107074
-0.14538385 0.059987962 -0.09487021 -0.07020601 -0.05018843 0.12395796 0.10475504 0.2561199
-0.026853044 0.08672379 -0.20029916 0.11019616 -0.102473624 0.05765605 0.06436879 -0.19187212
0.0965609 -0.16229975 -0.44961667 -0.028618066 -0.019836428 -0.16176303 -0.057510667 -0.098357886
-0.11254 -0.00223635 -0.13838117 0.117333494 0.10227417 -0.1163182 -0.012946618 -0.026008137
-0.018463386 0.027207622 0.12686191 -0.045323897 -0.084382385 -0.09278726 0.17452444 -0.071495496
0.06302981 -0.10056924 0.17868388 0.10493912 -0.21049567 0.13154224 -0.16263701 0.1679833
0.095794104 0.02633592 -0.10548974 0.020803561 -0.061823104 0.08834954 0.08018554 -0.05676017
0.05349029 0.028928261 -0.025680378 -0.087168634 0.004456436 -0.043941893 -0.11851694 -0.06263667
0.17073968 0.05433693 0.13343486 0.009944269 0.16042677 -0.018129414 -0.0053332816 -0.08142543
0.1421678 0.0051625115 0.043783937 -0.07207498 0.0728884 0.041583914 0.0022685113 0.016092056
-0.064230844 -0.10142146 0.24336648 -0.10939641 0.1597438 0.22487192 0.047852933 0.08953292

features_extractor.vd_extractor.0.bias f4 [128]
00000000: ed31 203a 0000 0000 4b0d 213a 8989 20ba
00000010: b880 0aba 0000 0000 c53a 21ba 9166 0fba
00000020: 0000 0000 0000 0000 0000 0000 0000 0000
00000030: 3c9c ebb8 0000 0000 6ca0 21ba a4b8 223a
00000040: 0000 0000 0000 0000 0000 0000 0000 0000
00000050: ed74 22ba 0000 0000 0d6a 253a 94f5 213a
00000060: de50 a3b5 d36b 1fba 0000 0000 0000 0000
00000070: 7ee4 243a 3ce8 24ba 97f4 1fba 0000 0000
00000080: 0000 0000 0000 0000 0000 0000 0000 0000
00000090: 6933 1e3a 609b 21ba 0000 0000 4e71 213a
000000a0: 0000 0000 825c 0d3a 0000 0000 0000 0000
000000b0: 0000 0000 c721 20ba 0c23 9238 b4db 23ba
000000c0: 0000 0000 0794 1fba 0000 0000 91b7 1fba
000000d0: 0000 0000 7032 213a 5ddf 24ba 0000 0000
000000e0: 1c50 213a 0000 0000 0000 0000 0000 0000
000000f0: 0000 0000 0000 0000 0000 0000 0000 0000
00000100: 0000 0000 0000 0000 0000 0000 f98e 223a
00000110: 977e d2b9 0000 0000 0000 0000 0000 0000
00000120: 0000 0000 5c3d 08ba af3e 21ba 0000 0000
00000130: 0000 0000 0000 0000 3103 20ba 0000 0000
00000140: 77d7 213a 0000 0000 3919 0d39 0644 21ba
00000150: 0000 0000 82bd 1f3a 0000 0000 12ed 0ab9
00000160: 3d14 21ba 6705 223a 0000 0000 5d05 21ba
00000170: 0000 0000 8da5 20ba 02f7 1fba 0000 0000
00000180: 7b20 243a d2eb 213a 0000 0000 0000 0000
00000190: 8f43 1cba 0000 0000 0000 0000 0000 0000
000001a0: ac96 1aba 7a09 21ba 656d 21ba 9090 21ba
000001b0: 5478 d639 0000 0000 0000 0000 0000 0000
000001c0: f215 233a 8d8b 203a e4ef 17ba 0000 0000
000001d0: 2b90 213a 3127 24ba 92a8 223a 7d7d 21ba
000001e0: 0000 0000 0000 0000 ef53 20ba 0000 0000
000001f0: 6319 21ba bcd1 243a 6a16 21ba ad3f 223a
0.0006110955 0.0 0.00061436434 -0.000612401 -0.0005283463 0.0 -0.000615042 -0.00054703007
0.0 0.0 0.0 0.0 -0.00011234774 0.0 -0.00061655673 0.0006207323
0.0 0.0 0.0 0.0 -0.0006197233 0.0 0.0006310053 0.00061782566
-1.2167982e-06 -0.0006081436 0.0 0.0 0.00062901515 -0.0006290709 -0.00061018154 0.0
0.0 0.0 0.0 0.0 0.00060348824 -0.0006164815 0.0 0.00061585463
0.0 0.0005392508 0.0 0.0 0.0 -0.0006108549 6.9683505e-05 -0.0006250695
0.0 -0.00060874264 0.0 -0.0006092722 0.0 0.00061491784 -0.0006289387 0.0
0.00061536 0.0 0.0 0.0 0.0 0.0 0.0 0.0
0.0 0.0 0.0 0.0006201114 -0.00040148638 0.0 0.0 0.0
0.0 -0.00051971315 -0.0006151003 0.0 0.0 0.0 -0.0006103991 0.0
0.00061737694 0.0 0.00013456204 -0.0006151799 0.0 0.00060936075 0.0 -0.00013249021
-0.00061446783 0.00061806146 0.0 -0.0006142462 0.0 -0.00061281846 -0.00061021757 0.0
0.00062609435 0.00061768026 0.0 0.0 -0.0005960995 0.0 0.0 0.0
-0.00058970856 -0.0006143075 -0.00061579637 -0.0006163204 0.00040906912 0.0 0.0 0.0
0.00062212266 0.00061243103 -0.00057959394 0.0 0.00061631453 -0.00062619435 0.00062049285 -0.0006160362
0.0 0.0 -0.00061160227 0.0 -0.00061454455 0.00062873564 -0.00061450026 0.0006189298

features_extractor.vd_extractor.2.weight f4 [128, 128]
00000000: d650 30be fcab 483e df5e 963d 0b27 88bd
00000010: 410e 903e 7ee2 153d 7660 73bd 969f 42be
00000020: ea74 1ebd d8b3 573d d5d2 35be 8578 483b
00000030: 2478 edbd fda0 4bbd ced5 113d a747 ecbc
00000040: b6c2 893e 6043 acbd 3a9d 8fbc c4fb 973c
00000050: f959 c2bd 6fe7 01be dca1 a83d 64fa e83c
00000060: 66b6 c13d 6c1f 92bc cb7d 053e 155c b2bd
00000070: d8de 533e 3cdb 753c 241c a63d bdb1 383e
00000080: e25d ccbc 7e99 f3bd 251a 33be c97b 313e
00000090: 865d 263d 6451 483d f237 d43d 003b 0c3e
000000a0: 6d7d 2d3b 9895 49be e48f 5cbd c24c 9b3d
000000b0: 18db 4fbd d573 38be c806 cdbc 328c 03be
000000c0: f2c0 543e d45a 14be 889a 5a3e 6b9c 473d
000000d0: f75a 443e c6ca 82be 0c6f 8bbc 22af 1ebd
000000e0: 771b d13d efc1 10bd 4bee 71be 482e 093d
000000f0: 4465 f4bc 7b3f b0bd e45c 943d ed89 1fbd
00000100: c48d e6bd 9b6a b33d bb12 8cbb 8035 e5bc
00000110: bff5 80bd 91a7 703e 6116 963d d77f d1bd
00000120: 6f95 283d c4bf 3c3d 37e8 c8bd e3fa c33d
00000130: 9ee6 6bbe 1207 9bbb 3e2c 91be ab02 58be
00000140: c2af 87be 4de3 2abd d842 6e3e ec05 a23c
00000150: 99fb 41bd 7e5c 37bd 1f75 ae3d 28c3 c7bd
00000160: 8ccb b03d 3177 c23d b5f9 203e 7412 afbe
00000170: 361f 4d3c dc89 a93c a232 613d 68ee 55ba
00000180: 87b5 a4bd 0ae9 813e 84f6 7fbd d4fc 01be
00000190: ecd8 5abe d8e3 fd3d cefd 35ba be20 8abd
000001a0: 40dd 5e3c 72de f23c abc5 01bd b747 3d3d
000001b0: f7f3 593c 2c1b 513d 5576 c83d e79c 65be
000001c0: f6d7 9bbd 6f66 2a3d fa94 8ebd 9897 24be
000001d0: 65e1 f5bb 8f61 8a3b d095 12be bb7b 2fbd
000001e0: a810 b13d ffa9 10bd 26ed 223d 535e 813e
000001f0: 2f10 32bd 6649 06be 128c 863d 2734 bdbd
00000200: 0ffc bfb9 9ec2 fcbd e7f0 5d3e 3cd8 2a3d
00000210: 5027 9e3d a33c 10be 7c93 f4bd 373a b73d
00000220: 8e2e 593e 6a95 dfbd bd6f e8bc 2143 9dbe
00000230: 5a56 223e 62cc ca3d af88 283d a69e 233d
00000240: fe50 993d 635f 333e e24c ed3d d3f7 8fbb
00000250: 9215 adbd d4b0 22bd 7366 683e f2d1 dabd
00000260: 8e2a 28bb db16 48be 0768 b53b ecd8 333e
00000270: 37e9 1f3d f98d bc3d 4eb4 8fbd 017f 703d
00000280: 7e09 1f3d cc7c b3bc b5cc 293e e5e9 913d
00000290: 9d24 c9bd 387f 55bd 8a14 0ebd 34b7 fcbd
000002a0: 2646 03bd 207d 9abd 241d 15be b91a 2ebe
000002b0: 6dcd e2bd b2a0 293d b044 ccbc 6871 fdbc
000002c0: 40c9 e83d 55f5 7bbd 93e6 4c3d cb7d b43c
000002d0: e48b c03c 2dff 443e 68bd 1bbe d7fc 963c
000002e0: d3ff e4bd 187f a33d b8a5 f8bd e76b b6ba
000002f0: e194 4c3e 4db3 3a3e 1b02 f13d 5ede 3d3e
00000300: 13c1 17be 7ab4 dbbb ecca 25b9 f52e 84bd
00000310: a443 babd 4f61 e43d 2763 df3d 2ddb 2dbe
00000320: c12d 383d 45c9 6abc 1184 b33c ddf1 f9bc
00000330: 6e24 81be 10f2 5bbd 3e50 553d 0758 bdbe
00000340: 43e3 8e3e ca95 9d3c 0b74 24be 4cb5 b6bd
00000350: 6b93 e13d 0e4a 98bd 1e4a 4f3c 931a b43b
00000360: fd93 683e 80e1 14bd bffa fabd ab39 023e
00000370: 42ab fa3a 7186 893c 47bf aa3d b2ab 583d
00000380: 0b67 08be 860d 1c3e b86c e2bd bc2b 09bd
00000390: 70be a23d 27cf 93be 3769 18be 5918 e23d
000003a0: bf7a 193e 58d6 2a3e 2d5d d53b 0a23 35be
000003b0: 9ba8 f7bd 0d66 b3bc 7da9 c2bc 534a 683e
000003c0: 051b 833e 3368 8f3d 3d64 86bd 913d 3dbe
000003d0: 648b 2c3e db2f d8bc ddad b7bd 6bc4 233b
000003e0: 5e73 76bd 603d 343e e5a9 acbd aab0 ab3d
000003f0: 4034 03bd 5b11 d63c d9fa 5d3e e86c cdbd
-0.17218336 0.19596857 0.07342314 -0.06648072 0.28135875 0.036592953 -0.059418164 -0.1900619
-0.038685717 0.052661747 -0.17756207 0.0030589413 -0.11595181 -0.049714077 0.03560429 -0.02884276
0.26906365 -0.08411288 -0.017531026 0.018552668 -0.09489817 -0.12685941 0.08233997 0.028439708
0.09458618 -0.017837249 0.13036267 -0.087089695 0.20690477 0.015005883 0.08110836 0.18036552
-0.02494711 -0.11894511 -0.17490442 0.17332377 0.040616535 0.048905745 0.10362233 0.13694382
0.0026472465 -0.19685972 -0.053848162 0.07583 -0.050746053 -0.18012936 -0.025027648 -0.12846449
0.20776728 -0.14487773 0.21348011 0.048733156 0.19175325 -0.2554533 -0.017020725 -0.03874124
0.10210317 -0.0353412 -0.23626058 0.033491403 -0.029833443 -0.08605858 0.0724428 -0.038949896
-0.112575084 0.08760568 -0.004274694 -0.027979612 -0.06296872 0.23501422 0.07328487 -0.10229462
0.041158136 0.04608132 -0.098099165 0.09569337 -0.23037192 -0.0047310675 -0.28354067 -0.21094768
-0.2650128 -0.041720677 0.23267686 0.019778214 -0.047359083 -0.04476594 0.08518433 -0.0975402
0.086325735 0.0949539 0.15720256 -0.34193766 0.012519648 0.02069562 0.054979928 -0.00081608305
-0.08042436 0.25373107 -0.062490955 -0.12694103 -0.21371812 0.12396973 -0.0006942422 -0.06744526
0.013602555 0.029647086 -0.03168265 0.04621097 0.013302795 0.051051304 0.09788195 -0.22423135
-0.07609551 0.041601595 -0.06962009 -0.16073453 -0.0075036758 0.0042230557 -0.14314961 -0.042842608
0.08645755 -0.03531837 0.039776944 0.25267276 -0.043472465 -0.13113937 0.06569685 -0.09238463
-0.00036618157 -0.12341808 0.21673928 0.041710123 0.07722342 -0.14085631 -0.11942193 0.089466505
0.21209165 -0.1091717 -0.028373593 -0.30715278 0.15853253 0.09902264 0.041145977 0.03994622
0.07486151 0.17516856 0.1158693 -0.0043935566 -0.0845138 -0.039719418 0.22695331 -0.10684575
-0.002566013 -0.19539969 0.0055360827 0.17563218 0.03904077 0.09206767 -0.07016812 0.05871487
0.03882741 -0.021910094 0.16581996 0.0712469 -0.098214366 -0.05212328 -0.034687556 -0.12339631
-0.03204932 -0.07543397 -0.14561898 -0.17002381 -0.11074338 0.041413017 -0.024935097 -0.030937865
0.113665104 -0.061513264 0.05002458 0.022032639 0.023504205 0.19237967 -0.15208972 0.01843111
-0.11181607 0.079832256 -0.12140983 -0.0013917655 0.19978668 0.1823246 0.1176798 0.18541858
-0.14819746 -0.006704864 -0.0001581122 -0.06454269 -0.09094933 0.11151373 0.10907584 -0.1697814
0.04496551 -0.014330213 0.02191356 -0.030510837 -0.25223106 -0.053697646 0.052078478 -0.36981222
0.27907762 0.019236464 -0.16059892 -0.089212984 0.11014446 -0.07436 0.012651948 0.005496332
0.22712703 -0.036347866 -0.12254857 0.12717311 0.0019124525 0.01678774 0.083372645 0.052898116
-0.13320558 0.15239534 -0.11055893 -0.033488974 0.07946479 -0.28868982 -0.14883886 0.110398
0.1498823 0.16683328 0.0065113516 -0.17689148 -0.12092706 -0.021899248 -0.023762459 0.22684602
0.25606552 0.07002296 -0.06562088 -0.18480517 0.16850048 -0.026390007 -0.08968709 0.00249889
-0.060168616 0.17601538 -0.08430842 0.08383305 -0.03203225 0.026131323 0.21677722 -0.10030538

features_extractor.vd_extractor.2.bias f4 [128]
00000000: 0000 0000 0000 0000 0000 0000 0000 0000
00000010: 0000 0000 7e01 20ba 7723 233a 0000 0000
00000020: 0000 0000 0000 0000 0912 223a f2c2 20ba
00000030: e157 213a 0000 0000 73ee 20ba 01cd 233a
00000040: 0000 0000 4761 11ba be2f 1eba 0000 0000
00000050: 5206 23ba 0000 0000 0000 0000 0000 0000
00000060: 0000 0000 0000 0000 0000 0000 1485 233a
00000070: 002b 23ba 0000 0000 0000 0000 0000 0000
00000080: d197 203a 0000 0000 2d42 1f3a d3dc 213a
00000090: 6e56 22ba 371b 223a 0000 0000 0000 0000
000000a0: 0000 0000 0d14 20ba 2659 20ba d3e2 1fba
000000b0: 818e 213a 0000 0000 799c 21ba 0000 0000
000000c0: cf11 1fba 0000 0000 6489 25ba 0000 0000
000000d0: 0000 0000 2293 213a 0000 0000 227e 213a
000000e0: 8c44 1dba 36b8 1eba 58c3 1cba 77b6 213a
000000f0: 2478 213a 24ca 24ba b572 203a eb6c 23ba
00000100: 0000 0000 0000 0000 da58 19ba a442 213a
00000110: 0000 0000 0000 0000 d8e7 16ba 0000 0000
00000120: 24d4 24ba 3167 253a d948 1dba 27ae 213a
00000130: 6715 16ba 0000 0000 0000 0000 0000 0000
00000140: ed88 22ba 0000 0000 0000 0000 7861 24ba
00000150: 0000 0000 0000 0000 e17c 243a 9ac9 213a
00000160: 8f07 21ba 1e48 10ba 8181 20ba 1948 21ba
00000170: 0000 0000 0000 0000 0000 0000 0000 0000
00000180: 0000 0000 0000 0000 0000 0000 fe0c 54b8
00000190: 0000 0000 0000 0000 d4ae 1fba bfb5 253a
000001a0: f88f 23ba 7efa 21ba 0000 0000 0000 0000
000001b0: 5494 21ba d20b 23ba 0000 0000 0000 0000
000001c0: 0000 0000 0000 0000 1c75 203a c2a3 223a
000001d0: 0000 0000 ddff 203a df0b 1bba e8dc 253a
000001e0: 0000 0000 1c5e 22ba e0db 14ba 0000 0000
000001f0: c850 f838 619e 25ba 0000 0000 9b12 22ba
0.0 0.0 0.0 0.0 0.0 -0.0006103738 0.0006223241 0.0
0.0 0.0 0.0006182497 -0.0006132565 0.00061547576 0.0 -0.00061390473 0.00062485045
0.0 -0.00055458065 -0.0006034336 0.0 -0.00062188983 0.0 0.0 0.0
0.0 0.0 0.0 0.0006237787 -0.0006224364 0.0 0.0 0.0
0.0006126138 0.0 0.00060752296 0.0006174568 -0.00061926886 0.0006183865 0.0 0.0
0.0 -0.00061065034 -0.00061168 -0.0006099168 0.00061628973 0.0 -0.0006164979 0.0
-0.00060680223 0.0 -0.0006314723 0.0 0.0 0.0006163587 0.0 0.0006160458
-0.0005999289 -0.0006054671 -0.0005980036 0.0006168852 0.0006159565 -0.0006286225 0.00061206083 -0.00062341866
0.0 0.0 -0.0005849727 0.0006151593 0.0 0.0 -0.00057565933 0.0
-0.0006287715 0.0006309627 -0.000599993 0.00061676133 -0.0005725235 0.0 0.0 0.0
-0.0006200213 0.0 0.0 -0.00062706275 0.0 0.0 0.0006274712 0.00061717036
-0.0006142789 -0.00055039104 -0.0006122813 -0.0006152406 0.0 0.0 0.0 0.0
0.0 0.0 0.0 -5.055684e-05 0.0 0.0 -0.000609142 0.0006321333
-0.00062394096 -0.0006178989 0.0 0.0 -0.0006163765 -0.0006219718 0.0 0.0
0.0 0.0 0.0006120966 0.00062042114 0.0 0.0006141642 -0.00059145497 0.0006327168
0.0 -0.0006193833 -0.0005678516 0.0 0.00011840608 -0.0006317851 0.0 -0.0006182582

features_extractor.index_extractor.0.weight f4 [128, 1]
00000000: 6824 053d 693d 843c 63ad 2f3e b36f a13d
00000010: 4c56 c6be 29f3 24be b243 633e e2c5 54bd
00000020: dfd8 b9bc a489 e6bc d4b8 563e 9b0f 303e
00000030: ba5e 0f3e 99c6 96bd d15f 493d 746f 0fbe
00000040: 1942 3a3e a108 5d3e a97b 03bd b0a7 633d
00000050: 3c09 9b3c 63e1 283e 8eda 03bd f560 9cbd
00000060: ad55 363e 3294 403e ec1e a73d 6e8c 4fbe
00000070: f736 173e eef9 18be d784 073c 4a7d f2bd
00000080: 3551 c93d 91ad bfbd f2a3 eb3c d476 ccbc
00000090: 9aff 1ebd 23d7 d23d 4544 1cbe 86d2 81bc
000000a0: 8ce9 d7bd 431a d0bd 7b37 8abd e9de 593c
000000b0: 1c03 b4be 03d0 66be 1a72 ccbd fdd9 01be
000000c0: c085 2dbe 140f 163e 0eed 0fbe 6c9f 8fbe
000000d0: 67a2 093d f625 383d 7729 ef3a 0afa d03d
000000e0: 31b2 5d3d 13ce 2abe cbb6 79bd fc85 163d
000000f0: 8edf 69bc 12ae 083d 988b 243d cd2e 193d
00000100: 5e9b 103d 5a05 9f3d 12fe 90bd d72d a63e
00000110: b10d 293d 0b89 97bd ac79 3dbd 7c38 9ebd
00000120: 96af 573e 08a6 43be 4c52 27bd 0c0e a73d
00000130: 7007 dbbd ddb7 10be 2e12 6a3d ce43 1abc
00000140: 570d 203c 517d 1b3c 9c6b 02bb 5b11 6dbe
00000150: 1f3b 0d3e 2883 0d3e 3fec 60bc 1a72 edbd
00000160: 6f3b 39be a012 bebd 2552 7abd b1dd ff3c
00000170: 9cd3 01be 10da 04be b275 0e3d c474 32bd
00000180: b385 24bd 1325 1a3e 1a2d ca3d 58e0 f1bd
00000190: b473 0e3e 4629 35be c792 ebbd 15a8 e5bd
000001a0: addc 2a3e ccf8 eb3d 54e9 f4bd 1f4d 22be
000001b0: e8f5 68bd b68d 313d e503 9fbd 4087 833c
000001c0: 5848 aa3d 43f2 8abd 0779 87bd 7bc8 883c
000001d0: 1264 04bc f3fa 593c 60c1 fbbd b5a9 33bd
000001e0: cd9d a2be 9ee4 223e 361b 44bd 85e5 57bc
000001f0: 39ac 51bd 1fc6 11bd d6cc cc3c d828 0bbd
0.032505423 0.016142564 0.17155986 0.07882633 -0.38737714 -0.16108383 0.22193792 -0.05194653
-0.02268642 -0.028141804 0.20968944 0.17193453 0.14000979 -0.07362098 0.049163643 -0.1400736
0.18189277 0.21585323 -0.032100353 0.05557984 0.018925302 0.16492228 -0.032190852 -0.076356806
0.1780612 0.18806532 0.08160195 -0.20268413 0.14767061 -0.1493909 0.008271418 -0.11840303
0.09829942 -0.09359277 0.028764699 -0.024959005 -0.03881798 0.1029494 -0.15260418 -0.015847456
-0.105425924 -0.10161259 -0.06748863 0.013297775 -0.35158622 -0.22540288 -0.09982701 -0.12680812
-0.16945553 0.1465419 -0.14055273 -0.28051317 0.033602145 0.044958077 0.001824661 0.10203941
0.054125015 -0.16680174 -0.06096534 0.03674887 -0.014274491 0.03336913 0.04017219 0.03739815
0.03530442 0.077646926 -0.0707971 0.32456848 0.041272823 -0.07399186 -0.046258613 -0.07725617
0.21063074 -0.19106305 -0.04084997 0.08156976 -0.10694778 -0.14132638 0.057146244 -0.00941558
0.0097688055 0.009490327 -0.0019900566 -0.23151152 0.13792084 0.13819563 -0.0137282 -0.11594029
-0.18089078 -0.09280896 -0.061113495 0.03123364 -0.12678379 -0.12973809 0.03478021 -0.043568388
-0.040166568 0.15053205 0.09871884 -0.11810368 0.13911325 -0.17691526 -0.11502605 -0.112137
0.16685744 0.115220636 -0.11958566 -0.15849732 -0.05687514 0.043348037 -0.07764415 0.016055703
0.0831458 -0.06784489 -0.06614881 0.016697159 -0.008080499 0.01330446 -0.12292743 -0.043863017
-0.31761017 0.15907523 -0.047877513 -0.01317728 -0.051189635 -0.035589334 0.025000017 -0.0339745

features_extractor.index_extractor.0.bias f4 [128]
00000000: 502a 183a 62de 8039 de9f 1aba f06a 17ba
00000010: 0000 0000 0000 0000 db5d 19ba 0000 0000
00000020: 0000 0000 0000 0000 deb7 15ba 285d 15ba
00000030: 9214 153a 0000 0000 f8e2 1bba 0000 0000
00000040: e7b8 103a 490c dd39 0000 0000 4ea2 1a3a
00000050: 1054 ac39 1f43 123a 0000 0000 0000 0000
00000060: 2de2 1aba 47c5 e839 6e76 1aba 0000 0000
00000070: 83f1 18ba 0000 0000 0db7 32b9 0000 0000
00000080: 98f7 1aba 0000 0000 156b 19ba 0000 0000
00000090: 0000 0000 c285 63b9 0000 0000 0000 0000
000000a0: 0000 0000 0000 0000 0000 0000 3cf7 13ba
000000b0: 0000 0000 0000 0000 0000 0000 0000 0000
000000c0: 0000 0000 7f6d 133a 0000 0000 0000 0000
000000d0: 827e 5fb9 75e0 1bba efc9 28b8 4a48 1aba
000000e0: c95f 173a 0000 0000 0000 0000 ec70 3ab9
000000f0: 0000 0000 5ed7 5fb9 a17e 193a f4ea 60b9
00000100: 4ec1 183a 82b8 60b9 0000 0000 bb30 163a
00000110: 983d 19ba 0000 0000 0000 0000 0000 0000
00000120: ea40 19ba 0000 0000 0000 0000 4fbd 51b9
00000130: 0000 0000 0000 0000 04b7 143a 0000 0000
00000140: e69e 1a3a c817 e8b9 0000 0000 0000 0000
00000150: 6bbb 193a 3d60 153a 0000 0000 0000 0000
00000160: 0000 0000 0000 0000 0000 0000 fbed 133a
00000170: 0000 0000 0000 0000 10a2 193a 0000 0000
00000180: 0000 0000 351d 1cba 5623 1a3a 0000 0000
00000190: de1e 1bba 0000 0000 0000 0000 0000 0000
000001a0: 82cc 1bba 33b2 54b9 0000 0000 0000 0000
000001b0: 0000 0000 53b9 1aba 0000 0000 ef32 163a
000001c0: 147a 16ba 0000 0000 0000 0000 df1d 193a
000001d0: 0000 0000 bb73 193a 0000 0000 0000 0000
000001e0: 0000 0000 4e2d 1bba 0000 0000 0000 0000
000001f0: 0000 0000 0000 0000 935a a539 0000 0000
0.0005804645 0.0002457975 -0.0005898456 -0.0005776128 0.0 0.0 -0.00058504724 0.0
0.0 0.0 -0.0005711297 -0.000569778 0.0005686964 0.0 -0.0005946602 0.0
0.00055207167 0.00042161558 0.0 0.0005898819 0.00032869028 0.000557946 0.0 0.0
-0.00059083366 0.0004439747 -0.0005892281 0.0 -0.0005834328 0.0 -0.00017043595 0.0
-0.0005911528 0.0 -0.0005852443 0.0 0.0 -0.00021698236 0.0 0.0
0.0 0.0 0.0 -0.0005644446 0.0 0.0 0.0 0.0
0.0 0.0005623921 0.0 0.0 -0.00021314065 -0.00059462275 -4.0242387e-05 -0.00058854057
0.0005774466 0.0 0.0 -0.00017780409 0.0 -0.00021347168 0.0005855356 -0.00021449832
0.00058271445 -0.00021431039 0.0 0.00057293073 -0.0005845665 0.0 0.0 0.0
-0.000584616 0.0 0.0 -0.00020002316 0.0 0.0 0.00056730234 0.0
0.00058983115 -0.00044268207 0.0 0.0 0.0005864414 0.00056982395 0.0 0.0
0.0 0.0 0.0 0.0005643067 0.0 0.0 0.0005860636 0.0
0.0 -0.000595528 0.0005879899 0.0 -0.00059173803 0.0 0.0 0.0
-0.0005943255 -0.0002028428 0.0 0.0 0.0 -0.0005902249 0.0 0.00057296356
-0.0005740237 0.0 0.0 0.0005840938 0.0 0.0005853732 0.0 0.0
0.0 -0.00059195317 0.0 0.0 0.0 0.0 0.00031538735 0.0

features_extractor.index_extractor.2.weight f4 [128, 128]
00000000: c6fd 103d 3f2e ab3d 6e94 463c 8e99 e2bd
00000010: 5841 b53d d764 3abc 65c9 1e3e 1484 61be
00000020: 422a 5dbe 5cb2 ea3d 2b6a afbd b3d9 c83c
00000030: cf16 3d3c 41a3 4bbe a86a 9ebd 127d b6bc
00000040: 7997 023a 89f8 033e e2ca 593e b360 85be
00000050: 2b53 82be 6740 c2bd 71dd f43c 19d0 4bbd
00000060: 60c6 183c 4ccd 05bd 0700 26bc eee1 783e
00000070: 178e 85bd 390d 903d 1c9c 5d3e d6f2 eabd
00000080: afb3 e3bd 6e16 08bd 2a04 8ebd 1e6f 0abd
00000090: c9e6 0b3d 9c08 86bd e563 f1bb 05b5 96bc
000000a0: 4c3b a7bd f4e7 b3bd df05 093e 18ef cdbd
000000b0: 3693 bfbd af3f c6bc 573e 6cbe eea3 0ebd
000000c0: 095d d9bd a9b3 3a3e 0dce 63be 8361 dfbd
000000d0: 3ae2 04be d591 99bd be11 ccbb 8819 66bd
000000e0: d03e 243e 3807 1ebd 5bf6 95bd 2550 323e
000000f0: cd15 ec3d d2e0 513e 16ba 2d3e 038f 4cbe
00000100: bdfb a3bd 92d6 083d 5090 3cbd 835a 79bd
00000110: 9f6d e73c 02bb 943c 644a efbd 0223 5e3d
00000120: 0b0f 003e 3395 f83c 9f53 2dbe 240a 9e3b
00000130: ab8e b9bd c4c7 f5bc 391f 66be c0fe 263c
00000140: ebab 7b3e daa4 403e 8194 dd3d 30e8 38bd
00000150: 3707 27be 002c 68bd fcfc 86be e019 2bbd
00000160: 2bf1 773d 56b0 d63c 4d0e 05be 3335 8e3d
00000170: fbf9 603d 7bc8 e13d bc1c 793e 5f40 d83d
00000180: beb0 e2bd de98 16be 4d98 903c b72e b0bd
00000190: 91e3 d8bb 9cf7 16bd 1a69 573c 0b00 183d
000001a0: 6b9d 523d 5e19 823c 9d2b 5dbd 4031 63be
000001b0: 2ca6 a03b c508 f7bc 8598 1d3d fd51 7d3e
000001c0: caee d13d 0359 dc3e 3b17 3f3e bb13 70bd
000001d0: 63f6 a1bd 9eb6 80bd 54d3 73bc afb0 1ebd
000001e0: 4280 1c3e 9552 d0bc 5f50 a23d 4214 05be
000001f0: 4095 75be d26d b3bd 2cdb 82bd 60fe 85bc
00000200: 2bdd d8bb 98e0 ecbd 617c 913e 3a8a 433e
00000210: ba1d 0c3e 7970 debd fcea 2c3e 3820 6b3d
00000220: 29b4 c3bd bf43 9f3b dad9 cc3c 4d6d e83d
00000230: 6fa6 2abe bc5d c03c c1e5 453d 23a7 083e
00000240: 891f 093e f081 c5bd d9fc 753d e0f0 2f3e
00000250: 1ab0 063d f43f c5b9 0607 833d 234f c73d
00000260: 8fa5 33bd 07ad 47bc 042c 1d3e 75c4 d63d
00000270: 0261 98be 4177 e23b 5938 173e 0e03 cd3d
00000280: 9e12 1fbc 207d 863d 44c0 4c3d e4bf 58bc
00000290: 957b 7dbd 87fa 5bbe aaa0 453d a026 36ba
000002a0: 571f 37be 053c 563d a26e 4a3d 2bcd 7c3d
000002b0: a573 1d3b 4cd1 133d c119 64bc d999 de3c
000002c0: edcd 6bbe 0f69 783e 27a1 2f3b 5cbd 723a
000002d0: a6da 44be b0f9 663d 384c 173c 2d69 89bd
000002e0: 6cb8 2abe ca9f 30bd 9bfd 84bd 0765 81bd
000002f0: e9ed d5bd ceaa 1d3e 3330 29be 08dd cabd
00000300: 8288 3e3e 0b3d 863e 719d fa3c 0dc1 883d
00000310: e386 073e 8db9 c13d 686a 843e f335 90bc
00000320: db12 b13c 0d83 95bd ba3b 7a3e ba1c 473d
00000330: 7b92 743e 41d0 3bbc 33c4 c43d c89e 5fbe
00000340: 0a42 a5bb f9d2 ad3b 114f 0bbe 0559 3d3d
00000350: aedb 76be 027c a7bd accc 063d 59f9 113a
00000360: 2b06 ddbd 7df7 d63d c176 91bc 57d6 46be
00000370: d16f 49bc b3b9 bdbd eb5c b8bb 7036 c33d
00000380: 6328 b2be e7aa 01be 2316 173d 6e6d 073d
00000390: 1bfd 08bd 6fda 3c3e 8dbc 4e3e 3c8c fa3d
000003a0: 641c 903d 8c6d 1abd d831 b1bd b223 3b3c
000003b0: 97cf 47bc 5f73 843d 3518 cebd 8983 ad3d
000003c0: c081 0b3e 09ab 8ebc 98ab b2bd 9c17 3dbe
000003d0: 9515 90bc 8570 f3bd f812 17be c188 703e
000003e0: 811b 443d 1d76 8c3c 4997 e6bd 7eb3 ad3d
000003f0: a4b5 933e 2674 40bd 2ae5 60be 916d f43c
0.035398267 0.0835843 0.012120349 -0.110644445 0.08850354 -0.011376581 0.15506513 -0.2202304
-0.21598151 0.114598006 -0.08565172 0.02451787 0.0115410825 -0.19886495 -0.07735187 -0.022276435
0.00049816776 0.12887777 0.212688 -0.26050338 -0.25454077 -0.0948494 0.029890748 -0.049759004
0.00932464 -0.03266649 -0.010131842 0.24304935 -0.06521242 0.07033772 0.21641582 -0.114720985
-0.11118256 -0.033224516 -0.06934388 -0.033797376 0.03415564 -0.06544611 -0.0073666447 -0.018396864
-0.08165607 -0.08784476 0.13381146 -0.10055369 -0.0935425 -0.024200289 -0.23070656 -0.034824304
-0.10613448 0.18232597 -0.22246571 -0.10907271 -0.12976924 -0.074985184 -0.006227701 -0.056176692
0.16039586 -0.038581103 -0.07322379 0.17413385 0.11527596 0.20495918 0.16965517 -0.1997643
-0.08007 0.033407755 -0.046036065 -0.060877334 0.028250514 0.018155579 -0.11684111 0.054232605
0.12505738 0.030344581 -0.1692643 0.004822986 -0.09060415 -0.030002482 -0.22472848 0.010192573
0.245773 0.18812886 0.108193405 -0.045143306 -0.16311346 -0.056682587 -0.26364887 -0.041772723
0.06053273 0.02620713 -0.12993737 0.06943741 0.0549259 0.11024567 0.24327368 0.10559153
-0.11068867 -0.14706752 0.017650748 -0.0860266 -0.006618925 -0.036857232 0.013147617 0.037109416
0.051419657 0.015881237 -0.05399667 -0.22186756 0.0049026217 -0.030155549 0.038475532 0.24738307
0.102506235 0.4303666 0.18661205 -0.058612566 -0.07908323 -0.062848315 -0.0148819275 -0.038742717
0.15283301 -0.025430003 0.07925486 -0.12996009 -0.23982716 -0.08761181 -0.0638946 -0.016356647
-0.006618162 -0.11566275 0.28415206 0.19095698 0.13683215 -0.10861296 0.16886514 0.057403773
-0.09555847 0.004860371 0.025006223 0.113489725 -0.16665052 0.023482196 0.048314814 0.13345008
0.13390936 -0.09643924 0.060055587 0.1718173 0.032882787 -0.00037622417 0.06397824 0.09731891
-0.04385906 -0.012187249 0.15348822 0.1048669 -0.2976151 0.006911189 0.14767589 0.10010348
-0.0097090285 0.065668344 0.049988046 -0.013229344 -0.061885435 -0.21482287 0.048248924 -0.00069485046
-0.17883049 0.052303333 0.049421914 0.0617191 0.0024025228 0.036088273 -0.013922156 0.02717297
-0.23027773 0.24258827 0.0026798935 0.0009259784 -0.19224033 0.056390464 0.009234481 -0.06709514
-0.16671914 -0.043121137 -0.06493684 -0.063180976 -0.104457684 0.15397188 -0.16522293 -0.099054396
0.18606761 0.26218447 0.030592652 0.066774465 0.13235049 0.09459219 0.25862432 -0.01760385
0.021615436 -0.073003866 0.24436846 0.04861138 0.23884003 -0.011463226 0.096077345 -0.21837914
-0.005043273 0.005304691 -0.1360438 0.046227474 -0.24107239 -0.081779495 0.032910034 0.0005568467
-0.10792192 0.104964234 -0.017756822 -0.19417702 -0.0122947255 -0.09263935 -0.005626311 0.095318675
-0.34796438 -0.1266285 0.036886346 0.033063345 -0.033444505 0.18442701 0.20189114 0.12233779
0.07036665 -0.03770213 -0.08652085 0.011422085 -0.012195489 0.06467318 -0.10063211 0.08472354
0.13623714 -0.01741554 -0.08724135 -0.18466038 -0.017588416 -0.11886696 -0.1475333 0.23489667
0.047877792 0.017146165 -0.11259324 0.08481501 0.28849518 -0.046985768 -0.21962419 0.029837402

features_extractor.index_extractor.2.bias f4 [128]
00000000: ca51 073a fccc 19ba c569 27b9 4ee8 15ba
00000010: 7504 083a 3905 ef39 f274 0d3a 39a4 90b9
00000020: 0000 0000 0000 0000 0000 0000 0000 0000
00000030: e9f7 8cb8 600a 193a b459 fbb9 a7c7 1aba
00000040: ef77 ea39 217c 18ba 0000 0000 0ab5 0c3a
00000050: 53d5 19ba 6f68 0c3a d849 1c3a 0000 0000
00000060: 2c99 6db9 1773 183a 8fc3 1aba d89a f339
00000070: b524 1cba 1c8f 193a ff2f 0b3a 0000 0000
00000080: b0f8 183a 3b40 0d3a 0000 0000 bb3c 143a
00000090: 0000 0000 4d54 193a 997a 12ba fc55 52b9
000000a0: 1664 1aba 2868 cdb9 7f66 0fba 0000 0000
000000b0: 8b87 bfb9 d914 0a3a 0000 0000 0000 0000
000000c0: 0000 0000 fbff 0a3a 0000 0000 5b0e 1bba
000000d0: 9372 193a 94b8 0a3a 862b 093a 06f1 1aba
000000e0: 0000 0000 f155 52b9 0000 0000 e747 19ba
000000f0: 6c08 11ba ec20 16ba 7edd 3ab9 de55 52b9
00000100: 7a39 17ba dfbb ef39 28f5 17ba 2054 52b9
00000110: 0000 0000 e08e 0a3a 0000 0000 0000 0000
00000120: 0000 0000 5813 0c3a dea8 193a edee 183a
00000130: 0000 0000 3ad1 63b9 0000 0000 0000 0000
00000140: 3295 92b9 748f 163a a3bd 1b3a 0000 0000
00000150: f3fb 193a 2a88 013a cb62 1aba 0000 0000
00000160: e955 52b9 9474 0e3a 1840 1cba 0000 0000
00000170: 360f 183a 4087 1aba c0f7 193a 0000 0000
00000180: 0000 0000 0000 0000 89a0 1aba 0000 0000
00000190: d9d0 193a 0000 0000 0000 0000 0000 0000
000001a0: dc55 52b9 bfc5 1bba be55 52b9 b831 17ba
000001b0: 16e8 173a 3434 1cba 0000 0000 15be 1b3a
000001c0: 0000 0000 f254 52b9 0000 0000 0000 0000
000001d0: 0000 0000 3169 183a 1750 19ba d38f 19ba
000001e0: 2a22 aeb9 0000 0000 af0b 14ba a7ad 86b9
000001f0: 9f2e 1bba e60a 15ba 365e 14ba 1cab 17ba
0.0005162029 -0.0005867032 -0.00015965763 -0.0005718515 0.00051886524 0.00045589524 0.00053961494 -0.00027588176
0.0 0.0 0.0 0.0 -6.721897e-05 0.0005838033 -0.00047941285 -0.00059043843
0.00044721315 -0.00058168365 0.0 0.0005367553 -0.00058682746 0.0005356138 0.00059619313 0.0
-0.00022659142 0.00058154896 -0.0005903774 0.0004646394 -0.00059563975 0.0005857812 0.0005309581 0.0
0.0005835397 0.0005388294 0.0 0.00056548015 0.0 0.00058490486 -0.00055877265 -0.00020059192
-0.0005889548 -0.0003917825 -0.000547029 0.0 -0.00036531346 0.0005267389 0.0 0.0
0.0 0.0005302426 0.0 -0.000591492 0.00058535597 0.00052917865 0.0005232621 -0.0005910549
0.0 -0.00020059176 0.0 -0.0005847201 -0.0005532566 -0.00057269516 -0.00017820855 -0.00020059149
-0.00057687575 0.00045725607 -0.0005796724 -0.000200585 0.0 0.0005285572 0.0 0.0
0.0 0.00053434586 0.000586165 0.00058339426 0.0 -0.0002172635 0.0 0.0
-0.0002795845 0.0005743422 0.0005941039 0.0 0.000587403 0.00049412495 -0.0005889355 0.0
-0.00020059165 0.00054342416 -0.00059604784 0.0 0.00058006065 -0.00058947876 0.00058734044 0.0
0.0 0.0 -0.00058985554 0.0 0.00058676075 0.0 0.0 0.0
-0.00020059146 -0.0005942247 -0.00020059102 -0.00057676015 0.00057947764 -0.00059587066 0.0 0.0005941105
0.0 -0.00020058805 0.0 0.0 0.0 0.00058140146 -0.0005848421 -0.00058579183
-0.0003321332 0.0 -0.0005647493 -0.00025687853 -0.0005919728 -0.0005685523 -0.00056597905 -0.000578569
