waypoint_state_410_low_velocity.onnx (onnx, 694169 bytes, 20 tensors)

log_std f4 [4]
000000 43 1c a6 be b2 4c a0 be 97 a7 bb be be 8f 26 be
       -0.32443437 -0.31308514 -0.36651298 -0.16265771

features_extractor.state_extractor.0.weight f4 [128, 16]
000000 50 81 40 be 63 17 7c be f5 92 8b bc 4f de 51 3b
       -0.18799329 -0.24618296 -0.017037848 0.0032023375
000010 dd bc 12 be 84 e0 e3 3d 6d 7f a5 3d 4b 53 33 3e
       -0.14329858 0.11126807 0.08080945 0.17512242
000020 45 61 4e bd 0a 97 b7 3d 1a 2f 80 3d e2 b5 49 3b
       -0.050385732 0.08964355 0.06258984 0.0030778577
000030 89 d2 39 3d 67 fd dc 3c 44 7b a6 bc 28 7a 0b bd
       0.045366798 0.0269763 -0.02032245 -0.034052044
000040 31 5a fa 3d 3d 8f d5 3d 5a a7 98 bd 94 23 1c bd
       0.12224234 0.10427711 -0.07453795 -0.038119867
000050 12 ac 39 3e e9 41 b5 3d 3c 83 16 bd 25 d4 8c 3e
       0.18132046 0.08850462 -0.03674625 0.27505603
000060 82 c7 35 3e c9 44 58 bd ea 27 ff bd ed 92 f8 be
       0.17751887 -0.052799974 -0.12458785 -0.48549595
000070 b9 a1 43 bd e4 b5 e1 bc 60 15 95 3d 45 c4 07 bd
       -0.047761653 -0.027552553 0.072794676 -0.03314616
000080 28 b7 83 be a7 69 1d 3e f7 ae 49 3d 42 52 78 be
       -0.25725675 0.15372334 0.049239125 -0.24250129
000090 a3 9f 2d 3e 5d ab 3b 3d b5 13 af 3b 4b c6 b4 bd
       0.16955428 0.04581772 0.0053429254 -0.08826884
0000a0 1b 60 10 3d 28 cc 40 bc 95 f1 66 bb 80 f8 9a bd
       0.035247903 -0.011767425 -0.003523921 -0.07566929
0000b0 e0 74 be bd 2f f9 44 bc fc 7f cf 3c c7 2f ba bc
       -0.09299636 -0.012022301 0.025329582 -0.02272786
0000c0 df a9 04 be e4 af 63 bd 2a 1b 87 bd 3a 9b d5 3c
       -0.12955426 -0.055587664 -0.06596978 0.026074994
0000d0 7f 34 aa be a8 0c b3 bd bc 36 9e 3e 73 9e 99 be
       -0.33243176 -0.08742648 0.30901134 -0.300037
0000e0 e2 c3 70 be 71 81 81 bd 2d d7 01 be bc 17 bb bc
       -0.23512223 -0.06323517 -0.1267974 -0.022838466
0000f0 ab 8d 18 be 12 7f 00 bd b4 43 4f bd 31 47 01 3e
       -0.14897792 -0.031371184 -0.050601676 0.12624814
000100 36 8b 26 bd b5 99 0c 3e 92 4a 54 bd 11 23 3e 3d
       -0.040660106 0.1373051 -0.05182893 0.04642016
000110 ec 87 90 3e e7 92 0a 3e db 8f b2 bd 4f bf 7a 3b
       0.282287 0.13532601 -0.087188445 0.0038261001
000120 fd 38 73 bd e9 0e dd 3d 54 42 9e 3e 8a 3f bc 3e
       -0.05938052 0.107938595 0.3090998 0.36767226
000130 6a 78 b2 bd 28 a9 17 bd 9a 51 31 bd 12 12 ca 3d
       -0.087143734 -0.037026554 -0.043290712 0.09866728
000140 d2 64 20 3e e8 82 14 3d d0 76 38 bd b8 44 5f 3e
       0.1566346 0.036257654 -0.045035183 0.21803558
000150 76 0b c2 bb a8 1e d5 bd 8a 89 04 3d 78 cb fa bd
       -0.0059217764 -0.10406238 0.03235773 -0.1224584
000160 d4 1c 6b bd 6e e2 bb 3d 5f 61 61 3e 9b fc 6b bd
       -0.05740054 0.091740474 0.220098 -0.05761395
000170 ba 6c b7 3d 3b 38 ed 3d ab 04 00 be 57 0a 70 3d
       0.08956285 0.11582991 -0.1250178 0.05860361
000180 4b cf 30 be 39 35 ea ba ec 6e c4 3b 46 eb 8c be
       -0.17266576 -0.0017868645 0.005994668 -0.2752325
000190 a7 23 cf bd fc a9 b2 b9 c3 e9 53 be 28 fe 1c be
       -0.10114222 -0.00034077454 -0.20694642 -0.15331328
0001a0 f5 11 ab 3d ba 3f 45 be 54 70 bf bd 7a 49 b3 3d
       0.083530344 -0.19262591 -0.09347597 0.08754249
0001b0 f8 17 cc bc d0 7d c3 bc 92 9d cf 3d 5b 6d 06 3c
       -0.024913773 -0.023863703 0.10137476 0.008204783
0001c0 4b ac 8a be 01 38 7b be 19 83 7a bd dd d1 93 bd
       -0.27084574 -0.24533083 -0.06116018 -0.072177626
0001d0 21 5f 13 be c6 fc 8e be 06 b3 2d be 07 e8 b2 bd
       -0.14391758 -0.27927226 -0.16962823 -0.08735662
0001e0 51 08 c4 3d d3 4f 79 3d 10 8d 40 3e 43 45 6b bd
       0.09571899 0.060867142 0.18803811 -0.0574391
0001f0 94 3d 92 3d ff df 91 3c ea f1 9f bd a7 e8 af 3d
       0.07140651 0.017807005 -0.07809813 0.08589297
000200 78 f4 a7 3a de 4f 69 3e 89 b4 f2 bd 45 ad 78 3e
       0.0012813946 0.22784373 -0.118508406 0.24284847
000210 7a 6d 23 bd fd e7 8a be 6c 69 1f bd 74 2b 06 be
       -0.039899327 -0.27130118 -0.038918898 -0.13102514
000220 59 12 26 3d 7f 4d 4f bc ad ae 64 be 2c 24 84 3e
       0.04054484 -0.012652754 -0.22332259 0.25808847
000230 17 cd 57 3e e3 16 e5 3c b7 f0 9c 3c 9f 4e e2 3a
       0.2107433 0.027965015 0.01915775 0.0017265863
000240 48 94 4e 3d 65 c6 9d bd 76 26 6e bd 18 05 3f be
       0.05043438 -0.077038564 -0.058142148 -0.18654287
000250 a5 2a e3 bc f4 a1 13 3e dd c4 b0 3e 16 fb a8 3d
       -0.027730295 0.14417249 0.34525195 0.08251016
000260 d0 91 b5 3d bd dc 00 3e 64 93 94 bb 3e a5 84 be
       0.08865702 0.12584205 -0.004534172 -0.2590732
000270 c8 be 08 bd 9f 5b 5c bd a3 f3 1e bd ed 9d 02 be
       -0.03338507 -0.053798314 -0.03880657 -0.12755556
000280 2f 45 9a be b9 b4 de 3d 96 36 8d bc 2d 12 33 be
       -0.30130908 0.10874314 -0.017237943 -0.17487402
000290 e2 ad 46 3d 49 65 47 3e eb 20 74 3d 14 ff 83 be
       0.04850567 0.19472231 0.059601706 -0.25780547
0002a0 43 dc b1 bd 35 d7 d9 3d 84 74 af bc 70 8e 81 3c
       -0.0868459 0.106367506 -0.021417864 0.01581499
0002b0 e7 b7 ef bc e5 05 45 3d 1e e2 50 bd 1f 6c 55 bd
       -0.029262496 0.048101325 -0.050996892 -0.052105065
0002c0 c6 48 af bd bd ef 82 bd 15 e4 84 bc a7 94 65 3c
       -0.08558802 -0.06393383 -0.01622204 0.014012492
0002d0 ea ae 87 ba 6c 55 72 3d 45 de 9b 3d e5 99 b7 bd
       -0.0010351811 0.059163496 0.07610754 -0.089649
0002e0 5a 88 36 bd 19 ae b1 3d 30 ad 21 be 91 d1 d5 3d
       -0.04456363 0.086757846 -0.15788722 0.10440362
0002f0 c5 96 ae 3d 05 b9 cf bd 8a 0f 5a 3d 33 bd dd 3d
       0.08524851 -0.101427115 0.053237475 0.108271025
000300 49 01 d1 bc 1d 11 6e 3e 67 89 36 be 9d 2e 89 3c
       -0.025513308 0.23248716 -0.17825852 0.01674586
000310 22 7d 82 3e df f6 91 be b8 9b ce bb 28 85 7c be
       0.25486094 -0.2850866 -0.006305184 -0.2466017
000320 dd 45 c7 bd b9 4d 9a bc cf 13 c9 bd 57 8b 89 3d
       -0.09730122 -0.01883589 -0.09818231 0.0671603
000330 9a ee 92 3d dd 20 a7 bb 4c c4 d5 bc c9 d4 cf 3c
       0.07174416 -0.005100353 -0.026094578 0.025370019
000340 c9 fc 19 be 23 a1 fd bd 51 f5 ab bd 24 a8 9a bd
       -0.15037836 -0.1238425 -0.083964 -0.075516015
000350 c7 59 79 3e 26 d5 87 bd af b8 fa 3c 29 fe 63 3e
       0.24350654 -0.06632452 0.030605642 0.22264923
000360 34 1f 1e be f5 c6 8e 3c 3d dd c4 3d a9 c3 83 be
       -0.1544159 0.017428854 0.0961251 -0.25735214
000370 4b 11 b3 bd ab 09 a3 bc 19 ff 03 3c 21 87 22 bc
       -0.08743533 -0.019902071 0.0080564255 -0.009919913
000380 50 ec a1 3d 5b da 62 be ee fa 30 be b3 a4 78 bc
       0.07906401 -0.22153609 -0.17283222 -0.015175986
000390 68 cb 86 3c 5e 8b 26 bd 47 cd 73 3d cb 7b b2 3e
       0.016454414 -0.040660255 0.05952194 0.34860072
0003a0 7b fd 03 be 44 6f 25 3d 6d 34 15 3e 4c a3 d5 be
       -0.12889664 0.040389314 0.1457078 -0.41726148
0003b0 5a 13 19 3d ef ec f1 3d 07 1a 0f 3e 16 b7 3f 3c
       0.03737197 0.118127696 0.13974772 0.011701366
0003c0 aa 57 e4 bd 1e 7e 04 3d 3d c7 61 be 73 4b 4c 3e
       -0.11149533 0.032346837 -0.2204866 0.19950657
0003d0 4d 0c 9f 3c 27 43 1b bd 29 e0 66 3c b1 2c 61 bd
       0.019415045 -0.03790584 0.01409153 -0.05497426
0003e0 fd 73 76 bd 7a 0a 83 3d a1 98 35 be 09 6e 10 3e
       -0.06016921 0.063984826 -0.17734005 0.14104475
0003f0 b8 f3 27 3e b5 f9 a6 3d 3d 28 cc 3d da fa a6 bc
       0.16401565 0.081530966 0.09968612 -0.020383287

features_extractor.state_extractor.0.bias f4 [128]
000000 91 f0 a3 3d 9a de 12 bd 5e 52 1b 3d f7 2f f7 3b
       0.08004869 -0.03585682 0.03792035 0.0075435597
000010 e4 89 88 bd 40 41 3e 3d 07 4d 8e bc 39 2b 23 3d
       -0.066669255 0.046448946 -0.017370714 0.039836142
000020 54 6a da 3c 43 ff 74 3d e4 0b 5e 3d 3d 4a 27 3d
       0.02666203 0.05981375 0.05421056 0.040842284
000030 fb 1b 57 bc 33 f5 94 3d ef 81 a5 3c 1f 94 b0 3d
       -0.01312923 0.072733305 0.020203559 0.08622002
000040 a1 59 77 b9 23 5e 12 3d ed 95 9b 3c 67 84 d9 3c
       -0.00023589145 0.035734307 0.018992389 0.026552392
000050 b5 89 66 3d 50 4e c2 3b 19 89 74 3d 83 a8 03 3c
       0.05628367 0.0059297457 0.05970106 0.008035782
000060 12 86 af 3c bc 63 86 3c 26 0b 07 3d 8a 35 9f bc
       0.021426234 0.016404979 0.032969616 -0.01943471
000070 a7 a3 33 3c 8f bc e3 bc 88 ad a4 3d e0 0e a5 3c
       0.010964311 -0.027799873 0.08040911 0.020148695
000080 32 6c 5e 3c 4a 7e 36 3c d5 b6 98 3c 2c 19 eb 3c
       0.0135756 0.011138508 0.018641869 0.028698526
000090 c8 11 10 bc d1 b2 0a 3d 61 74 45 bd 2a b9 9b 3c
       -0.008793302 0.03386194 -0.04820669 0.019009192
0000a0 55 3c 88 3c b9 d7 16 bd c2 af 8a 3c 43 7b 88 bc
       0.016630331 -0.036826823 0.016929511 -0.016660338
0000b0 3a 3a 11 bc 13 af 0e 3d d4 61 d8 bb fd 4f 82 3b
       -0.00886398 0.034834933 -0.006603459 0.0039768205
0000c0 fd cc 01 3e 27 1f 8a 3c 9f e1 51 3c ee 24 72 3b
       0.12675853 0.016860558 0.01281014 0.0036948281
0000d0 3b 16 e7 bc c3 de b4 3b 9a e7 a5 3c 39 83 51 ba
       -0.028208843 0.0055197193 0.020252038 -0.0007992271
0000e0 39 45 b0 3c d7 e6 9f 3b af a6 00 3d b7 d3 41 3c
       0.021517383 0.004879813 0.03140896 0.011830262
0000f0 af f5 0f bc 55 a6 57 bc 21 06 e0 3c 19 eb 23 bc
       -0.008786603 -0.013162215 0.027346672 -0.010004782
000100 97 c1 6e bc 86 f5 86 3b a8 f4 b1 3c 63 c9 b6 3d
       -0.014572523 0.004118624 0.021723107 0.0892513
000110 95 37 f5 bb bf 06 5a 3d 11 ab 93 3d 74 14 1d 3c
       -0.0074834325 0.05322909 0.07210363 0.009587396
000120 16 f4 49 3d 3c 69 d1 3c c6 a2 0b 3b 4f 8d e2 3b
       0.049305044 0.025562875 0.0021306737 0.006913818
000130 6f 32 ed 3c 83 1b 50 3d 2b e0 86 3c cf e8 62 bc
       0.028954713 0.050807487 0.016464313 -0.013849451
000140 3a 35 02 bc 07 e7 05 bc eb 65 4d 3d 9b eb 90 3c
       -0.0079472605 -0.008172757 0.050146025 0.01769047
000150 82 d5 45 3d 49 80 c2 3c 7c dd 98 3b 7a 82 09 bc
       0.04829932 0.023742812 0.004665075 -0.008392924
000160 aa cc 91 ba e5 28 02 3d bf 68 7c 3c a9 24 58 3d
       -0.0011123617 0.03177728 0.015405833 0.052769337
000170 7a e7 88 3c c2 e8 a4 3c 14 9b c0 3c c0 26 b2 bd
       0.01671194 0.020130519 0.023511447 -0.08698797
000180 16 f7 9b b9 fa 76 7a bd ea f4 be 3b 98 b2 b5 3c
       -0.00029747997 -0.06114862 0.005827536 0.022179887
000190 da ea cb 3b 58 9d 79 3b 5d a9 12 3c f4 80 b2 3b
       0.006223065 0.003808817 0.008951512 0.0054475013
0001a0 83 f0 2d 3c de 04 9d 3c 3d 80 32 ba d4 9e 93 3c
       0.0106164245 0.01916736 -0.000680927 0.018020071
0001b0 f1 6f 27 3c 0f 02 11 bc da 78 c1 3d 19 60 6e 3d
       0.01021956 -0.008850588 0.09446879 0.058197115
0001c0 64 33 cd ba 3f c8 8a bc dc 91 a4 3c a6 8d ac bc
       -0.0015655574 -0.016941188 0.020089082 -0.021063637
0001d0 d1 3c e3 3c 42 92 11 3c 34 4a 4a bb 91 e9 c8 bb
       0.02773896 0.008884968 -0.0030866982 -0.006131359
0001e0 32 23 16 3c a6 88 a6 3c 7b 44 af 3c ab fb c3 3b
       0.009163665 0.02032883 0.021394959 0.005980929
0001f0 d7 b7 df 3c ab 7f 04 bc 86 5e 57 3d cd 68 8f 3d
       0.027309341 -0.008087079 0.05258038 0.07002411

features_extractor.state_extractor.2.weight f4 [128, 128]
000000 be e8 b9 bd a4 ef 8d 3e 04 cf 36 be ba ee 81 be
       -0.09077595 0.27721894 -0.17852408 -0.25377446
000010 d3 b3 a4 bc 24 de da bd bd 88 1a bd b0 34 a8 3d
       -0.020105278 -0.10686901 -0.03772806 0.08213174
000020 83 d1 2e 3e b2 ad bc 3c 6c 2a 91 bd 43 44 2b be
       0.1707211 0.023032043 -0.070881695 -0.16725259
000030 9f e9 f5 bb 27 9c 0b 3d 98 bf 50 be 86 9c 81 be
       -0.0075046564 0.034084465 -0.20385587 -0.2531473
000040 24 de 33 bc 17 ec 6f be b9 30 b3 3d fd b0 1c bd
       -0.010978255 -0.23429905 0.087495275 -0.038254727
000050 7a b0 f4 bd 6b 89 5e be bb 7a 06 bd b5 9a 69 3d
       -0.11947723 -0.21732108 -0.03283189 0.057032306
000060 a0 62 07 3e 5e 27 3a 3e 01 3a 7b bd 96 eb 8d 3d
       0.13221216 0.1817908 -0.061334614 0.069297
000070 a0 f6 3b bd 32 3b 36 3e a3 b2 c8 3e c2 03 0f 3e
       -0.045889497 0.17796019 0.3919879 0.13966277
000080 be d3 80 bc 02 a2 b0 3d 39 72 71 3d 16 15 3e 3d
       -0.015725967 0.086246505 0.05894682 0.046406828
000090 5d 5f fd bd 70 04 23 be b3 96 42 3e 36 42 ae 3d
       -0.12371705 -0.15919662 0.190028 0.085087225
0000a0 53 2f 99 bd f1 14 ff 3d a0 f1 81 b8 84 cc c5 bb
       -0.074797295 0.12455166 -6.1962055e-05 -0.006036343
0000b0 42 1b 10 3d 84 d4 e1 bd 05 81 c6 bb 56 32 13 3d
       0.035182245 -0.11026862 -0.006057861 0.035936676
0000c0 cd 24 0c 3e 7e 52 0a 3d b9 2d 99 3d 16 f8 36 bd
       0.13685913 0.033770077 0.07479424 -0.044670187
0000d0 9d 57 8b bd b6 e1 26 3e c2 73 7b bd 75 6c 46 be
       -0.0680382 0.1629704 -0.061389692 -0.1937731
0000e0 2a 96 2a 3d e4 25 14 bd 7a 99 0d be 66 da 2e b9
       0.041647114 -0.036168948 -0.13828078 -0.00016675293
0000f0 23 a5 c0 bd e1 ac 36 37 2f 9f 2b 3e 1c 8f a1 3d
       -0.09406497 1.0888297e-05 0.16759942 0.07888624
000100 d7 ba 93 bd 6e 53 09 3e 14 aa c5 bd e4 15 19 3e
       -0.07213371 0.13410732 -0.096515805 0.14949757
000110 86 76 85 3d 44 f4 75 3e 20 b5 d7 3d 83 e8 82 3d
       0.06516747 0.24018961 0.10532594 0.06392004
000120 1f 0a 77 3e fb 3b 1e be 9f d0 23 3e e1 6b d0 3e
       0.24124955 -0.15452568 0.15997551 0.40707305
000130 14 22 20 bc 2e f9 ae 3d 1d fd f9 3a 52 d7 37 bc
       -0.00977375 0.08543621 0.0019072626 -0.01122077
000140 a2 3b 47 3e c3 12 7e 3d bc 93 08 bd fd ca cd bd
       0.19456342 0.06202961 -0.033344015 -0.100484826
000150 5a 35 d3 3d a1 f4 f7 3d 9e 63 22 be f8 d2 8a 3e
       0.103129104 0.12107206 -0.15858313 0.2711408
000160 4c f1 8f 3e 07 aa 84 bd 1c 13 d0 ba e9 b4 7d 3e
       0.28113782 -0.06477743 -0.0015874836 0.24776043
000170 96 53 e2 3c 09 be 4c be 18 6a e2 3d d7 d9 f2 bd
       0.027627748 -0.19994368 0.11055392 -0.11857956
000180 49 b1 67 3c e6 85 7b 3e 56 61 86 be d0 81 3d bd
       0.014141389 0.24562797 -0.26246136 -0.046266377
000190 21 d4 21 3e 7d 83 f2 bc 5d 91 f2 bb 96 b0 75 be
       0.15803577 -0.029603714 -0.0074025826 -0.23993143
0001a0 2c f6 cc 3c e1 ce 4d be 8b 1b 0e be 7f 4b 98 be
       0.025019728 -0.2009845 -0.13877694 -0.297451
0001b0 cb a1 eb ba e1 49 8a 3d 5a d4 84 3d 36 18 65 bd
       -0.0017977295 0.067523725 0.06485815 -0.055931292
0001c0 7b 52 7f be b6 1a 51 b9 80 ca e1 3d e0 67 2f 3d
       -0.24933808 -0.00019941744 0.11024952 0.042823672
0001d0 ac 64 00 3d f5 42 92 3e 03 09 9a bd fe cf 6c 3e
       0.03134601 0.2856671 -0.0752125 0.23126218
0001e0 8e 38 60 3c ef 2a 9e bc 79 a9 4b 3e 05 dd bb 3d
       0.013685359 -0.019307582 0.19888867 0.091730155
0001f0 16 0f 85 3d b8 2c b5 bc fa f4 4e be 91 f3 ed bd
       0.06497018 -0.02211605 -0.20210639 -0.11618722
000200 61 40 42 bd 45 65 3b 3c 79 e5 16 be e8 f5 ab 3d
       -0.047424678 0.011437719 -0.14735974 0.08396512
000210 de aa 37 bc 1b b1 96 3d 46 e9 68 bc c2 70 13 3e
       -0.0112101715 0.07357999 -0.014215773 0.14398482
000220 95 2d 58 3c e2 ae 75 be 4e 9b c8 bc a2 6a e4 3d
       0.013194461 -0.23992494 -0.024488118 0.11153151
000230 35 bd eb 3c 23 84 da 3d 70 0e a3 bd 99 13 a6 3e
       0.028776744 0.10669734 -0.07961738 0.32436827
000240 fd ce 53 3c d8 93 14 be 04 dc f1 3c 10 06 06 3e
       0.012927768 -0.14509523 0.029523857 0.1308825
000250 f9 3f 4b be 99 5d a1 3d 46 56 25 bd 2b 4b 58 bd
       -0.19848622 0.078791805 -0.04036548 -0.05280606
000260 12 dc 67 bd 80 f2 bf bc 8e d7 7f bd 1a 1c 8c 3c
       -0.05660636 -0.023431063 -0.06246143 0.017103244
000270 4f 0f 68 3d 6f f8 8e bc cb b0 dd 3c 90 30 6b 3e
       0.056655224 -0.017452447 0.02706184 0.22967744
000280 3a 99 e9 3d f1 79 52 3d 30 d1 9c 3e c6 d3 51 3c
       0.11406179 0.051385824 0.30628347 0.012806838
000290 18 5a cd bd d0 f1 a2 3d 27 9f da bd 65 49 26 be
       -0.1002695 0.07956278 -0.10674887 -0.16238935
0002a0 ed 67 82 3e af e0 44 3e 91 17 79 3d b9 1f 21 be
       0.25469914 0.19226335 0.06081349 -0.15734757
0002b0 d9 b7 ae 3c f5 f8 89 bd b8 3b 20 bc 70 61 a5 bd
       0.0213279 -0.06736938 -0.009779863 -0.08075225
0002c0 8c 24 c4 3d 6a 2a c8 bd 8f ed e2 3d 3c 03 98 3b
       0.09577283 -0.09773715 0.11080467 0.0046390574
0002d0 e9 1a 03 be c9 13 cb 3c bc 11 ab 3d 82 07 ac bd
       -0.12803234 0.024789708 0.08352992 -0.083998695
0002e0 bc c0 08 be ab 91 02 3b 04 0d ad bc dd 94 a8 3c
       -0.13354772 0.001992325 -0.02112437 0.020578796
0002f0 0f f3 b5 bd 1f 6e 42 34 62 a2 3d be 15 60 76 be
       -0.088842504 1.810772e-07 -0.18518975 -0.2406009
000300 b4 18 7e be 6c f9 05 3e fc 1b 72 bd b7 13 78 3e
       -0.24814111 0.13083428 -0.05910872 0.2422627
000310 fc 57 b4 be 04 a0 62 3e 23 29 a6 3e 5b 77 cd bd
       -0.35223377 0.22131354 0.3245326 -0.10032531
000320 05 0f 33 3c 66 33 cf 3c 09 dc d8 bc ea 7a 39 be
       0.010928874 0.025293063 -0.026472108 -0.18113294
000330 14 9b e7 3c a5 db d7 3c e1 14 d5 3d 42 91 85 bc
       0.02827219 0.026349852 0.10404373 -0.016304616
000340 7f 28 13 3e 25 78 d4 3d 9d 9a 31 bd ef 05 1b be
       0.14370917 0.10374478 -0.04336034 -0.15138982
000350 70 a3 05 3e 07 f1 ed 3d b2 03 1f 3e 60 31 89 bc
       0.13050628 0.11618238 0.15528753 -0.016747177
000360 02 39 1a 3d 45 26 9d 3d ab 5c fe 3c ba 33 c6 bd
       0.037652023 0.07673315 0.031050047 -0.09677835
000370 11 ce 0f 3e 29 91 0a be 61 2e 4b 3e 97 c4 9b bd
       0.14043452 -0.13531937 0.19841911 -0.07605856
000380 d0 2f 16 bd a4 6e 6e 3d e3 0f 7a 3e 43 98 1d 3e
       -0.03666669 0.058210984 0.24420123 0.15390114
000390 19 01 2e be d7 ea bc bc b2 57 4f be a2 08 cd 3d
       -0.16992606 -0.0230612 -0.20248297 0.10011412
0003a0 38 a8 b2 3d 8d 13 ee 3d f9 2c 79 bd d7 8b b6 bc
       0.087234914 0.11624823 -0.060833905 -0.022283478
0003b0 2c 07 ba 3d f2 e2 c5 bc 2f be 4d 3e 51 45 13 3e
       0.09083399 -0.024156068 0.2009208 0.14381911
0003c0 04 e6 07 bd 9e e6 bc 37 a8 cf 93 3d 2f f9 46 3d
       -0.033178344 2.2518736e-05 0.07217342 0.048577484
0003d0 21 82 1d be f0 a1 84 3e a5 da 48 bc a9 9b c8 bd
       -0.15381671 0.25904799 -0.01225916 -0.09795315
0003e0 5a 95 a4 bc ed e9 05 3e 2f c9 94 bd 42 8d 59 3e
       -0.020090748 0.13077517 -0.07264935 0.21245292
0003f0 a6 52 fd bd 19 58 a8 bc b8 46 15 be e5 73 a3 3e
       -0.123692796 -0.02054982 -0.14577758 0.31924358

features_extractor.state_extractor.2.bias f4 [128]
000000 48 bf 2b 3c a5 40 95 3c aa 5f 85 3c 95 3d 1a 3b
       0.010482617 0.018219301 0.016280968 0.002353524
000010 da 72 ea 3c 1b 38 31 3c 9b 5c 92 3b 1e 93 98 3c
       0.028619219 0.010816599 0.004466606 0.018624838
000020 10 5f 06 3c 3b f5 ca 3b 38 76 99 3c b4 8f 8d 3b
       0.008201376 0.0061937845 0.018733129 0.0043201093
000030 0a 02 e6 3c 15 52 a7 3c 45 19 63 3c 0a c3 b4 3c
       0.028077144 0.020424882 0.013861005 0.022065658
000040 cd 0d a6 bb 66 6f 73 3c 93 82 6b 3b 53 45 32 bb
       -0.005067563 0.014858102 0.0035935983 -0.0027201965
000050 7c 25 36 3d 94 56 51 3d 2b 5b 05 00 4f d0 2a 3c
       0.04446934 0.051107958 4.91882e-40 0.010425641
000060 b0 d2 69 3b 10 79 81 3b 1c 35 ea 3b f1 35 ac 3b
       0.0035678558 0.0039511994 0.0071474444 0.0052554538
000070 a3 88 ad 3c 09 24 c0 3c ea 61 a1 3b 9f d2 16 3c
       0.021183318 0.023454683 0.0049250023 0.009205489
000080 2b bd b5 3c cc de f1 3b 7d dc 10 3c fe 76 c9 3b
       0.022184929 0.007381296 0.008841631 0.006148218
000090 a7 72 3a 3c 78 fe 2a 3c b9 b7 63 3c b3 33 b4 bb
       0.011379874 0.010436647 0.013898783 -0.005499327
0000a0 90 82 ab 3b 95 3d ec 3a 06 f4 b1 3b 29 24 b4 3c
       0.00523407 0.0018023724 0.005430701 0.021989899
0000b0 62 00 9c 3a c6 9e 32 3c 6f 53 0d bc 19 b4 02 bc
       0.001190197 0.010902112 -0.008625849 -0.007977509
0000c0 27 b3 a3 3c c0 0b c4 3c 95 ce 4d 3b 99 e8 89 3c
       0.019982887 0.023931384 0.003140365 0.016834544
0000d0 69 30 85 3b bf 50 ad 3c ae db 2a bb 32 9e 2b bb
       0.004064609 0.021156667 -0.002607088 -0.002618682
0000e0 b5 62 08 3c 6c a0 05 3d 7b 2d 9e 3c e2 7d 11 3c
       0.008324315 0.032623693 0.019308796 0.00888011
0000f0 0e b9 91 3c 26 4d a2 3c 5d a7 ec 3b 83 6a d5 3b
       0.017788436 0.019812178 0.0072220997 0.0065129413
000100 00 00 00 00 41 f3 bf 3b ad 15 4d 3c 68 54 c2 3b
       0.0 0.0058578555 0.012517375 0.005930472
000110 cb b5 8b ba 54 36 b3 3a b8 c4 c9 3b 8c 64 f3 bb
       -0.0010659037 0.0013672807 0.006157484 -0.0074277576
000120 c6 c5 58 3c a4 7e 3f bb 53 21 38 bb 60 3b d7 3c
       0.013230747 -0.002921977 -0.0028096035 0.02627343
000130 fe d6 8b 3c 59 90 0a bc 63 4a 33 bb 43 75 3e bc
       0.01707029 -0.008457267 -0.002735757 -0.011624637
000140 02 7d c2 3c de d3 91 3b 65 53 0b 3b 05 97 56 ba
       0.023741249 0.0044503054 0.0021259424 -0.0008185956
000150 c1 01 6c 3c 68 8e ab 3b 21 6f 84 ba 31 d7 51 ba
       0.014404715 0.005235482 -0.001010392 -0.00080047833
000160 cb 63 e4 3b 33 2f 8e 3c 5f 1f 20 3b 39 6d 97 3c
       0.006969904 0.01735649 0.002443276 0.018484699
000170 a0 56 37 3b e1 88 83 3b b5 4c 5a 3c a5 c2 02 3c
       0.0027975217 0.00401412 0.013323952 0.007980977
000180 14 98 c2 3b c2 20 16 3c 98 b5 00 bc 2c 35 da 3b
       0.0059385393 0.0091630835 -0.007855795 0.0066591706
000190 0d b8 57 3c d3 51 fd 3b 77 c4 51 3c 01 9a 3f 3b
       0.01316644 0.0077307015 0.0128031885 0.002923608
0001a0 ed b9 9d 3b 85 6d 5f bb 97 06 8a 3c d0 5d 02 bc
       0.004813424 -0.0034092378 0.016848845 -0.007956937
0001b0 a8 6c 35 3c bb 36 0f bb f5 d2 1b 3c 96 77 70 3c
       0.011073269 -0.002185269 0.009510745 0.014676949
0001c0 2a db 8d 3b 30 09 7e 3b 6e fe 6b 3b 84 b9 cf 3c
       0.004329105 0.00387628 0.0036009806 0.025357015
0001d0 0d 75 fc 3c 0a 0e be 3b 89 a4 24 3d 0c ad 10 3c
       0.030817533 0.0058000134 0.040195975 0.00883032
0001e0 cc 58 00 3c eb 50 55 bc 8e c6 c1 3b 88 f1 74 bc
       0.007833671 -0.013019781 0.005913562 -0.014950164
0001f0 33 e0 16 3d 4b f0 c0 3b b3 92 71 bc af 5a a1 3c
       0.036834907 0.00588802 -0.0147444485 0.019696562

features_extractor.vd_extractor.0.weight f4 [128, 1]
000000 60 f3 e8 a7 8e 36 b8 91 28 da d5 a8 e4 d3 15 3e
       -6.4656803e-15 -2.9063703e-28 -2.374236e-14 0.14631611
000010 2d 23 11 81 a8 64 03 3b f3 e4 51 97 43 de 93 83
       -2.665753e-38 0.002004901 -6.7820517e-25 -8.690912e-37
000020 3a f5 32 af 7f 58 db b1 f3 b7 d9 81 0f 3b 05 00
       -1.6276128e-10 -6.3837997e-09 -7.9977165e-38 4.80364e-40
000030 0d 0e 42 3e 19 0c 5e 3e 70 a9 7a 3e ba 36 69 af
       0.18950672 0.21684302 0.24478698 -2.121067e-10
000040 77 63 c3 a9 d2 73 34 3e 63 63 c9 3d 6c 9a 5f 3d
       -8.676994e-14 0.17622307 0.0983341 0.054590628
000050 6c ab f3 3d 22 c0 19 3e 8a 74 d6 3d 65 cf 55 3e
       0.118979305 0.15014699 0.10471447 0.20879896
000060 95 5c 05 00 e5 d6 5d ac 04 27 2b 81 e9 33 5a 3e
       4.9239e-40 -3.152528e-12 -3.1435732e-38 0.21308865
000070 7a 11 2f 3e d0 3f 50 3b e2 2c 24 3e 68 17 28 3d
       0.1709651 0.0031776316 0.16032746 0.041037947
000080 7e 50 3f 3e 1e 61 8b 83 9a 5e 05 00 75 59 9b 80
       0.18683049 -8.191983e-37 4.93114e-40 -1.4266593e-38
000090 4e cb 69 9a f9 63 39 8f 4f 1f 6a a2 e2 eb 0d 3e
       -4.83475e-23 -9.140458e-30 -3.1729488e-18 0.13859513
0000a0 3e d2 60 3e 76 e2 96 82 6e c8 9e 3d 03 d6 aa 8e
       0.21955201 -2.2170501e-37 0.07753073 -4.211432e-30
0000b0 54 41 4e 3e 0b 6c 20 80 63 9d 83 3d 09 77 e2 80
       0.20142108 -2.977494e-39 0.064265035 -2.0797524e-38
0000c0 72 3d 1e 80 8c a8 89 3d aa 97 98 3e 40 84 7e 3d
       -2.777107e-39 0.06721601 0.2980321 0.062137842
0000d0 f8 1b bf b3 c8 10 b7 80 83 b2 aa a6 06 36 05 80
       -8.899218e-08 -1.6811916e-38 -1.1844505e-15 -4.78557e-40
0000e0 3a 7a 22 b6 2a 19 b5 3e f8 59 d4 ae 7a 47 6d 3e
       -2.4211026e-06 0.3537076 -9.6566255e-11 0.23171797
0000f0 88 85 39 3e c2 13 40 38 89 30 6e 3e 67 3f 09 3e
       0.18117344 4.5794768e-05 0.23260702 0.13403092
000100 f4 c6 24 3d 41 c5 03 88 d5 2b d7 3d 92 ed 28 b6
       0.0402288 -3.965325e-34 0.10506407 -2.5172235e-06
000110 19 26 3d 3d 45 99 2d 3e 73 79 38 b3 66 a4 12 3e
       0.04617891 0.16952999 -4.2951296e-08 0.14320526
000120 d8 1c 05 9d a7 73 20 97 fe 43 b5 3d e2 fd 97 3d
       -1.7617315e-21 -5.184476e-25 0.08850859 0.07421471
000130 39 52 b2 8a ff c5 82 3e 03 e8 36 88 ac 9e 36 3e
       -1.7171705e-32 0.25541684 -5.504136e-34 0.17833966
000140 2c cb 6b 80 3b 3c e0 82 33 ed 21 3b a8 74 49 3e
       -9.899282e-39 -3.2948412e-37 0.0024708032 0.19673407
000150 77 82 06 3d 12 d7 89 3c 4d 58 05 00 ba 64 42 3d
       0.032839265 0.016826186 4.90854e-40 0.04745934
000160 ad 5b 05 00 d5 19 1c 3e 48 5a 05 00 15 d0 2f 87
       4.92065e-40 0.15244229 4.91564e-40 -1.3226687e-34
000170 6e 76 b8 b4 3e 09 37 3e e4 95 eb 3d 12 a6 66 80
       -3.435884e-07 0.1787462 0.11503199 -9.426795e-39
000180 10 ca d8 b3 96 58 05 00 24 50 0e 3c aa ee d9 3d
       -1.0095039e-07 4.90956e-40 0.008686099 0.10641225
000190 f4 2e ec 3d bc 51 e8 3d a7 d9 f6 a3 88 d4 56 3e
       0.11532393 0.113437146 -2.6763553e-17 0.20979512
0001a0 e9 cd e0 b4 95 52 35 3d 7d 51 59 3d 6a 2e 2e ab
       -4.187307e-07 0.04426821 0.05305623 -6.188163e-13
0001b0 e0 67 56 3d 62 29 2f 3e f1 96 d2 95 bd bf 38 a8
       0.052345157 0.1710563 -8.505647e-26 -1.02556284e-14
0001c0 9d 5b 05 00 ea c7 33 3e a7 0b 80 3d f9 a0 03 80
       4.92042e-40 0.1755673 0.062522225 -3.33253e-40
0001d0 08 72 22 80 04 82 8e 96 e7 59 05 00 ee b5 cc 3d
       -3.163314e-39 -2.3023389e-25 4.91428e-40 0.09995638
0001e0 34 3d 8e 83 74 5a 05 00 d3 6a 1a 3d ae 06 60 85
       -8.360061e-37 4.91626e-40 0.03769953 -1.0533656e-35
0001f0 cf 8d 1e 8b 17 f8 4a 82 ec 27 e2 80 cc 58 05 00
       -3.0536378e-32 -1.4911814e-37 -2.0769143e-38 4.91032e-40

features_extractor.vd_extractor.0.bias f4 [128]
000000 80 23 e7 a7 66 de ad 91 17 91 d5 a8 2f 87 1b 3d
       -6.415387e-15 -2.743165e-28 -2.3710673e-14 0.037970718
000010 e2 da c3 80 e0 a9 04 bb 70 56 a9 95 0a 0a 89 83
       -1.7986442e-38 -0.0020242855 -6.839493e-26 -8.054441e-37
000020 17 e0 32 af 7f 58 db b1 2e 35 4e 81 7d 5b 05 80
       -1.6268618e-10 -6.3837997e-09 -3.787438e-38 -4.91997e-40
000030 ed e9 d3 3c 62 4b cc 3c 80 71 0b 3d af 29 69 af
       0.02586838 0.02493829 0.03404379 -2.1206036e-10
000040 13 d5 c0 a9 23 af d0 3c 7d 48 01 3d 97 d5 e2 3c
       -8.563475e-14 0.025474137 0.03156327 0.027689738
000050 27 58 96 3c 1b 91 c3 3c 02 8b 0c 3d 01 b4 cc 3c
       0.018352581 0.023872903 0.034312256 0.024988176
000060 98 61 05 80 3a de 57 ac 39 3d 32 81 91 e9 dc 3c
       -4.94188e-40 -3.0676698e-12 -3.2737362e-38 0.026966842
000070 eb 7e e5 3c 40 7e 90 bb 9c 0c 11 3d ca d3 92 3c
       0.02801462 -0.0044095814 0.035412416 0.017923255
000080 5b ee 0a 3c 5f 88 7c 83 b6 60 05 80 86 5b 05 00
       0.00847968 -7.421269e-37 -4.93871e-40 4.9201e-40
000090 de b6 69 9a 12 56 33 8f 24 eb 69 a2 bd 0e b1 3c
       -4.833099e-23 -8.841958e-30 -3.170187e-18 0.021613473
0000a0 20 a4 fd 3c f3 99 a3 82 4e 07 84 3c 38 db 8b 8e
       0.03096205 -2.403906e-37 0.016116764 -3.4477246e-30
0000b0 fb 6f bb 3c 8f 20 14 80 f7 02 9c 3b cf 72 68 80
       0.022880545 -1.84839e-39 0.0047610956 -9.592077e-39
0000c0 c0 f7 1c 80 cd 26 ad 3c 45 b5 e0 3c 93 09 93 3c
       -2.66027e-39 0.021136666 0.027430186 0.017948901
0000d0 2e 4d be b3 6b d8 b6 80 38 ea a1 a6 d7 32 05 80
       -8.8616034e-08 -1.6791696e-38 -1.1235104e-15 -4.77415e-40
0000e0 3f 7a 22 b6 de 6a b1 3c da 59 d4 ae 12 60 e3 3c
       -2.4211038e-06 0.021657404 -9.656605e-11 0.02775577
0000f0 a3 cc 0a 3d 0e 5c 8a ba 8e db f7 3c 0d 42 15 3d
       0.033886563 -0.0010555999 0.030256059 0.036439944
000100 43 74 05 3c 75 0a f2 87 a6 03 0d 3d 75 ed 28 b6
       0.008145395 -3.641826e-34 0.034427308 -2.517217e-06
000110 7f 57 00 3d c7 98 64 3c c0 7c 38 b3 3b 85 0b 3d
       0.031333443 0.013952441 -4.2954298e-08 0.034062605
000120 aa b7 cb 9c 90 14 05 97 b5 57 9d 3c a8 f4 a7 3b
       -1.3480889e-21 -4.300057e-25 0.019206861 0.005125601
000130 cc c0 a8 8a 00 f5 d8 3c 3c 42 9c 86 9e 58 85 3c
       -1.6250334e-32 0.026484013 -5.8778e-35 0.016277608
000140 00 be 46 80 50 94 e4 82 35 89 68 bb 51 0a c6 3c
       -6.496644e-39 -3.3586716e-37 -0.0035482172 0.024174841
000150 3e b3 c9 3c 65 a1 f4 39 78 58 05 80 8a bf 62 3b
       0.024621602 0.00046659555 -4.90914e-40 0.003459903
000160 d1 61 05 80 4b b2 ae 3c ae 5a 05 80 44 ab 2f 87
       -4.94267e-40 0.021325251 -4.91707e-40 -1.3215867e-34
000170 6f 76 b8 b4 57 af ef 3c 3f 8a bd b8 45 5f 05 80
       -3.4358843e-07 0.029258413 -9.0379726e-05 -4.93354e-40
000180 b2 c7 d8 b3 8b 5a 05 80 f0 4f 0e 3c 87 c0 5c 3c
       -1.0094608e-07 -4.91658e-40 0.008686051 0.0134736365
000190 69 0b 79 3c 46 0d 4c 3c ef d5 f6 a3 2c 10 0e 3d
       0.015200474 0.0124543365 -2.6761978e-17 0.03468339
0001a0 2e cc e0 b4 bf 7a 9a 3c 22 09 87 3c e2 85 2d ab
       -4.1871812e-07 0.018857358 0.016483847 -6.1647746e-13
0001b0 87 42 c6 3c 98 2e 1d 3d 89 ee 51 95 74 bc 38 a8
       0.024201645 0.038374513 -4.2395385e-26 -1.0254916e-14
0001c0 bd 60 05 80 ee db 9c 3c 68 73 a5 3c 2f 58 00 80
       -4.9388e-40 0.01914784 0.020196632 -3.1634e-41
0001d0 b9 72 22 80 57 3e 77 96 b9 5e 05 80 ba 33 6c 3c
       -3.163562e-39 -1.9972172e-25 -4.93158e-40 0.014416629
0001e0 5b 99 53 80 8b 5b 05 80 8d 86 bc 3b e1 7b 5f 85
       -7.67736e-39 -4.92017e-40 0.0057533444 -1.05081626e-35
0001f0 f7 69 1c 8b 75 f6 49 82 25 f1 bf 80 1a 59 05 80
       -3.0124226e-32 -1.4837877e-37 -1.7627086e-38 -4.91141e-40

features_extractor.vd_extractor.2.weight f4 [128, 128]
000000 a0 58 05 80 c6 5c 05 80 36 5a 05 00 1b 59 05 00
       -4.9097e-40 -4.92458e-40 4.91539e-40 4.91143e-40
000010 38 6f 05 80 d0 19 06 00 ba 5d 05 00 2f 5e 05 80
       -4.99075e-40 5.60273e-40 4.928e-40 -4.92964e-40
000020 cb 5b 05 80 6f 5c 05 80 7a 5f 05 80 c6 5b 05 80
       -4.92107e-40 -4.92336e-40 -4.93428e-40 -4.921e-40
000030 d6 5b 05 00 1b 5e 05 00 54 57 05 00 e0 69 05 00
       4.92122e-40 4.92936e-40 4.90505e-40 4.97158e-40
000040 d6 59 05 80 7a 59 05 80 60 5a 05 00 c0 57 05 80
       -4.91405e-40 -4.91276e-40 4.91598e-40 -4.90656e-40
000050 6d 5b 05 80 c8 57 05 80 f2 5c 05 80 90 57 05 00
       -4.91975e-40 -4.90667e-40 -4.9252e-40 4.90589e-40
000060 5e 5e 05 80 cc 57 05 80 51 6b 05 00 2d 5a 05 80
       -4.9303e-40 -4.90673e-40 4.97675e-40 -4.91526e-40
000070 62 5b 05 80 b3 5a 05 00 14 5f 05 00 5c 5d 05 00
       -4.9196e-40 4.91714e-40 4.93285e-40 4.92669e-40
000080 5a 5a 05 80 9f 5a 05 00 47 5b 05 80 8f 5e 05 80
       -4.9159e-40 4.91686e-40 -4.91922e-40 -4.93099e-40
000090 56 59 05 00 9f 5a 05 80 5e 58 05 80 e0 5a 05 80
       4.91225e-40 -4.91686e-40 -4.90878e-40 -4.91777e-40
0000a0 83 5c 05 00 20 5a 05 00 0a 5b 05 00 fc 5b 05 80
       4.92364e-40 4.91508e-40 4.91836e-40 -4.92175e-40
0000b0 0b 5b 05 00 90 5e 05 00 f9 5b 05 00 04 5c 05 80
       4.91838e-40 4.931e-40 4.92171e-40 -4.92186e-40
0000c0 57 5a 05 80 89 57 05 00 6d 58 05 80 d0 5a 05 80
       -4.91585e-40 4.90579e-40 -4.90899e-40 -4.91755e-40
0000d0 3e 57 05 00 40 58 05 00 d9 5c 05 80 21 5b 05 80
       4.90474e-40 4.90836e-40 -4.92485e-40 -4.91868e-40
0000e0 01 5d 05 00 78 5d 05 80 b1 5e 05 00 0d 58 05 80
       4.92541e-40 -4.92708e-40 4.93146e-40 -4.90764e-40
0000f0 50 5c 05 80 c2 5e 05 00 d9 58 05 00 23 5f 05 80
       -4.92293e-40 4.9317e-40 4.9105e-40 -4.93306e-40
000100 cc 5e 05 80 a7 5c 05 80 3e 5e 05 80 09 59 05 80
       -4.93184e-40 -4.92415e-40 -4.92985e-40 -4.91117e-40
000110 88 59 05 80 60 5e 05 00 66 5a 05 80 be 59 05 00
       -4.91295e-40 4.93033e-40 -4.91606e-40 4.91371e-40
000120 b6 58 05 00 0d 59 05 80 31 63 05 00 c5 58 05 00
       4.91001e-40 -4.91123e-40 4.9476e-40 4.91022e-40
000130 13 61 05 80 85 58 05 00 ed 5c 05 80 81 5e 05 00
       -4.94001e-40 4.90932e-40 -4.92513e-40 4.93079e-40
000140 9c 5e 05 80 48 61 05 00 48 5c 05 80 c0 5e 05 80
       -4.93117e-40 4.94075e-40 -4.92282e-40 -4.93167e-40
000150 4e 5d 05 00 88 58 05 00 bf 5d 05 80 96 57 05 00
       4.92649e-40 4.90937e-40 -4.92807e-40 4.90597e-40
000160 1c 5c 05 00 c7 60 05 80 e7 5c 05 80 df 59 05 00
       4.9222e-40 -4.93895e-40 -4.92505e-40 4.91417e-40
000170 13 5c 05 80 1e 58 05 00 f7 5d 05 00 9d 5f 05 80
       -4.92207e-40 4.90788e-40 4.92886e-40 -4.93477e-40
000180 44 57 05 80 3f 59 05 00 e7 58 05 00 d1 5b 05 80
       -4.90482e-40 4.91193e-40 4.9107e-40 -4.92115e-40
000190 73 5d 05 80 c6 58 05 80 ff 5c 05 80 48 65 05 80
       -4.92701e-40 -4.91023e-40 -4.92538e-40 -4.9551e-40
0001a0 9d 58 05 80 a2 57 05 80 ae 5c 05 80 6a 58 05 00
       -4.90966e-40 -4.90614e-40 -4.92425e-40 4.90894e-40
0001b0 1e 5b 05 00 0f 61 05 80 c3 5a 05 00 5e 6f 05 80
       4.91864e-40 -4.93996e-40 4.91737e-40 -4.99129e-40
0001c0 81 58 05 80 57 57 05 80 4c 64 05 80 a5 58 05 80
       -4.90927e-40 -4.90509e-40 -4.95157e-40 -4.90977e-40
0001d0 21 58 05 00 59 5e 05 80 f4 5d 05 80 11 59 05 80
       4.90792e-40 -4.93023e-40 -4.92882e-40 -4.91128e-40
0001e0 db 58 05 80 87 5e 05 00 ba 5b 05 80 98 59 05 80
       -4.91053e-40 4.93088e-40 -4.92083e-40 -4.91318e-40
0001f0 a8 5a 05 00 43 59 05 80 d3 64 05 80 54 5b 05 80
       4.91699e-40 -4.91199e-40 -4.95346e-40 -4.9194e-40
000200 04 5f 05 00 69 59 05 00 f4 5d 05 00 df 29 64 3d
       4.93263e-40 4.91252e-40 4.92882e-40 0.055703994
000210 7f 75 03 00 3d 72 91 a8 fa 0a c5 96 ed 5a 05 00
       3.17656e-40 -1.6147777e-14 -3.1833994e-25 4.91796e-40
000220 c7 22 42 15 03 5a 05 80 f7 0e 31 00 7a 57 05 00
       3.9205422e-26 -4.91468e-40 4.505308e-39 4.90558e-40
000230 60 76 36 3e 41 1f 8b be d4 b8 41 3e 2e 5b 05 80
       0.17818594 -0.27172282 0.18918163 -4.91887e-40
000240 a7 58 05 80 26 35 74 3d e0 d5 0a 3c 71 d0 32 3c
       -4.9098e-40 0.059621 0.008473843 0.010913954
000250 a1 69 8a 3d cc 8d be 3c c1 b8 9b 3e f5 b2 ae 3d
       0.06758428 0.023260973 0.30414394 0.08530227
000260 84 60 05 80 80 06 e6 29 20 5a 05 80 82 aa 01 3d
       -4.93801e-40 1.02151794e-13 -4.91508e-40 0.03165675
000270 b3 50 6e bc 98 5b 4d ae 14 3a 27 be 9f 9d 54 be
       -0.014545607 -4.6692955e-11 -0.16330749 -0.20763253
000280 e3 79 a8 bd 0a 58 05 00 4e 57 05 00 9c 5b 05 00
       -0.08226373 4.9076e-40 4.90497e-40 4.92041e-40
000290 ae 60 05 80 46 7e 55 8c 59 5a 05 00 ba d3 97 be
       -4.9386e-40 -1.6446922e-31 4.91588e-40 -0.29653722
0002a0 d3 b2 38 be 3b 1f 4b 80 1f 23 b2 3d ef 0f b0 8a
       -0.18036966 -6.898866e-39 0.08698105 -1.6954177e-32
0002b0 c7 93 fc 3d ec 57 05 80 22 6c cd 3d 47 89 37 80
       0.12332874 -4.90718e-40 0.1003039 -5.100198e-39
0002c0 9a 5e 05 00 7f 5e 24 3e c5 70 cf 3d 42 e7 86 bd
       4.93114e-40 0.16051672 0.10128931 -0.06587078
0002d0 e7 5e 05 00 78 57 05 00 e8 57 05 80 73 57 05 80
       4.93222e-40 4.90555e-40 -4.90712e-40 -4.90548e-40
0002e0 6d 5b 05 80 ca b5 25 bd 0f 5c 05 80 85 7e 24 bd
       -4.91975e-40 -0.04045657 -4.92202e-40 -0.04015972
0002f0 c9 60 e4 3c a3 02 a4 2f bb 08 95 bd 20 cc 94 bd
       0.027878182 2.98333e-10 -0.07277056 -0.07265496
000300 19 a3 5a 3c ac c1 0f 04 00 d3 56 be 72 05 ff 8b
       0.01334455 1.6898499e-36 -0.20978928 -9.823062e-32
000310 27 56 9f 3d 47 84 0f 3e ad 5e 05 00 80 b0 90 bc
       0.07780104 0.14015304 4.93141e-40 -0.017662287
000320 1a 72 00 80 5d 5f 05 00 dd 01 8c 3d 63 e1 25 bd
       -4.0932e-41 4.93387e-40 0.06836293 -0.04049815
000330 6d 59 05 00 c2 f8 ef bd fa 52 65 0b 58 54 1f 3e
       4.91257e-40 -0.11717369 4.416622e-32 0.15559518
000340 88 a0 04 00 1a db be 01 0e 1b 95 ac dd ce 26 3e
       4.2493e-40 7.010937e-38 -4.2378384e-12 0.1628985
000350 ae 7f 45 be f8 0b ed 3c 6b 58 05 80 05 2d e4 bd
       -0.19286987 0.028936371 -4.90896e-40 -0.11141399
000360 79 58 05 00 0e 75 0e 3d f3 57 05 00 46 5a 05 80
       4.90915e-40 0.0347796 4.90728e-40 -4.91561e-40
000370 7a 60 05 80 2c c5 4e bd 2d 9f e0 bd 8b 5e 05 80
       -4.93787e-40 -0.050481007 -0.1096786 -4.93093e-40
000380 ee 58 05 00 79 a1 05 00 95 ae 06 3d e5 9a 2c be
       4.9108e-40 5.17103e-40 0.03288134 -0.16855963
000390 f0 ca 5d 3d 6a 43 0c bd 7d 5f 05 80 13 36 94 3e
       0.054148614 -0.03424398 -4.93432e-40 0.28947505
0003a0 fe 5b 05 00 53 bd 35 3e d8 fe e6 bd d0 5f 05 80
       4.92178e-40 0.17748003 -0.11279076 -4.93549e-40
0003b0 99 ba e3 bd 6e 10 6a 3e f3 bd d6 13 27 5d 05 00
       -0.11119575 0.2285783 5.42085e-27 4.92594e-40
0003c0 af 5b 05 00 7f 6d 1b 3d 74 5e 2c bd b1 59 05 00
       4.92067e-40 0.03794622 -0.042082265 4.91353e-40
0003d0 fa 60 05 00 c3 57 05 00 4d 5f 05 00 15 94 49 3c
       4.93966e-40 4.9066e-40 4.93365e-40 0.012303372
0003e0 91 e7 02 80 47 57 05 00 04 fa 84 bc c4 60 05 80
       -2.66741e-40 4.90487e-40 -0.016232498 -4.9389e-40
0003f0 1d 58 05 00 6b 60 05 00 95 57 05 00 8e 5d 05 00
       4.90787e-40 4.93766e-40 4.90596e-40 4.92739e-40

features_extractor.vd_extractor.2.bias f4 [128]
000000 00 00 00 00 2b b6 28 3c 80 77 88 b4 f4 3b 89 a6
       0.0 0.0102973385 -2.5418922e-07 -9.522535e-16
000010 b9 75 b9 3b 28 79 ab 3c e5 88 ac b1 b7 08 eb 3c
       0.0056597856 0.020931795 -5.021422e-09 0.028690679
000020 19 3a 21 bb 50 df 05 b6 6a 6a 82 b6 0d 70 36 bb
       -0.002460128 -1.994853e-06 -3.88669e-06 -0.0027837784
000030 1d 64 15 82 56 7c 06 b8 67 21 2f 80 f3 16 34 b3
       -1.0975522e-37 -3.2063886e-05 -4.328251e-39 -4.1930388e-08
000040 b6 d3 c3 3c 00 00 00 00 c7 9c 11 3d db bb e7 3b
       0.023904663 0.0 0.035549905 0.0070719547
000050 44 9e 81 3c b2 a0 92 88 96 00 02 3d 00 00 00 00
       0.015822537 -8.824835e-34 0.03173884 0.0
000060 bb a5 b3 3b f5 e0 fd 3c 00 00 00 00 4f e7 8b 3b
       0.005482403 0.030991057 0.0 0.0042695175
000070 00 00 00 00 77 ca b3 3c 00 00 00 00 4b 4e 80 80
       0.0 0.021947129 0.0 -1.178303e-38
000080 be 3f 9b 3c a6 3c 8b 3c 39 6f a8 aa a5 78 67 b8
       0.018951293 0.016996693 -2.991997e-13 -5.518705e-05
000090 67 ab ce 3c 00 00 00 00 34 c1 22 80 00 00 00 00
       0.025228215 0.0 -3.191715e-39 0.0
0000a0 00 00 00 00 e7 f9 cf 3b 27 f6 29 80 ae 71 00 3d
       0.0 0.0063469294 -3.853558e-39 0.031358413
0000b0 c5 a9 62 3c ae f0 19 3c 00 00 00 00 a7 9e a8 bb
       0.0138344215 0.009395761 0.0 -0.005145866
0000c0 e8 2c c7 3c 9e fe da 3b b8 3d 02 3a 76 81 8a 3c
       0.024313405 0.0066831848 0.0004968303 0.016907435
0000d0 de 1b d7 9c 00 00 00 00 72 22 8d ac cd b3 91 81
       -1.423471e-21 0.0 -4.0112852e-12 -5.352259e-38
0000e0 12 44 c2 3c 40 87 b6 3c f0 d6 3b b8 f3 d1 93 3c
       0.0237141 0.02228129 -4.478445e-05 0.018044448
0000f0 1a e2 04 ae 18 a4 45 3b 1f 32 f8 b7 ad 85 d1 3c
       -3.0214144e-11 0.0030157622 -2.9587243e-05 0.025576437
000100 02 81 9a bb 10 fa c8 ae 6a a7 5e 3c 00 00 00 00
       -0.004715086 -9.139367e-11 0.013589719 0.0
000110 00 00 00 00 b8 f5 50 98 d3 4e 0c a5 63 02 55 3c
       0.0 -2.7007426e-24 -1.2169771e-16 0.013001057
000120 ca 93 ae 3c 4d df 9a 86 d0 d4 b9 3c 2f 0c 09 bb
       0.021310706 -5.825647e-35 0.022684485 -0.0020911803
000130 00 00 00 00 97 31 92 b2 fb d6 5f 3c ef 1f 07 3d
       0.0 -1.7019188e-08 0.013662095 0.03298944
000140 7f 88 76 b4 c9 12 64 3c 00 00 00 00 ce 54 94 3c
       -2.2960192e-07 0.013920494 0.0 0.018106844
000150 d8 12 7d b3 48 87 cd 3b 00 00 00 00 50 6d f9 3c
       -5.892329e-08 0.0062722303 0.0 0.030447632
000160 00 00 00 00 07 e2 5f 3c 31 ac b3 b0 d4 80 e5 ae
       0.0 0.013664729 -1.3072904e-09 -1.0436599e-10
000170 e7 58 b0 3c 2b e9 2b 3c c6 cf 08 3c 59 65 8a 3c
       0.021526767 0.010492603 0.008350318 0.01689403
000180 00 00 00 00 53 92 86 3c 45 65 ff 3c 4f 1b 91 3c
       0.0 0.016427195 0.031176219 0.017713217
000190 65 60 fa 3c 23 f6 b3 3c 01 9b 08 3c 5f aa 74 3c
       0.030563543 0.021967953 0.008337737 0.014933198
0001a0 24 7e 56 3d 4c 7f d5 3c a4 11 44 3c 54 b4 a0 b2
       0.05236639 0.026061676 0.0119670965 -1.8708455e-08
0001b0 00 00 00 00 72 0a 65 3c 08 df 52 a4 5f 96 b6 3c
       0.0 0.013979541 -4.5725406e-17 0.0222885
0001c0 7f 56 01 00 5a 9a 8b 3c 9f ba b7 99 d8 23 04 3d
       1.22864e-40 0.017041374 -1.8997132e-23 0.032260746
0001d0 80 8b 21 86 8f d2 b3 ae 08 b4 f4 b7 84 98 82 3c
       -3.0383223e-35 -8.17738e-11 -2.91709e-05 0.015941866
0001e0 14 3c ab 3c e7 52 64 a8 15 d6 46 3c 20 c3 ca 3c
       0.02090267 -1.2674519e-14 0.012136002 0.024751246
0001f0 aa df 7d 3c 2a b7 6d 3c 13 80 73 bb dd 7b 28 3c
       0.01549522 0.014509002 -0.0037155196 0.010283438

mlp_extractor.policy_net.0.weight f4 [192, 256]
000000 a0 5f 05 80 54 5c 05 80 40 5d 05 00 b4 5a 05 80
       -4.93481e-40 -4.92299e-40 4.92629e-40 -4.91716e-40
000010 ba 60 05 80 b3 61 05 80 01 59 05 80 d5 63 05 80
       -4.93876e-40 -4.94225e-40 -4.91106e-40 -4.9499e-40
000020 63 60 05 80 26 5d 05 00 e8 58 05 00 d2 5f 05 00
       -4.93755e-40 4.92593e-40 4.91071e-40 4.93551e-40
000030 e9 58 05 80 0e 59 05 80 0f 5e 05 80 2d 5d 05 80
       -4.91072e-40 -4.91124e-40 -4.9292e-40 -4.92603e-40
000040 57 57 05 00 4b 6c 05 00 6f a3 06 80 07 5b 05 80
       4.90509e-40 4.98026e-40 -6.09642e-40 -4.91832e-40
000050 f9 57 05 00 fa 61 05 80 fb 5b 05 00 28 62 05 00
       4.90736e-40 -4.94325e-40 4.92174e-40 4.9439e-40
000060 3e 57 05 00 a3 5b 05 00 d7 5a 05 00 58 57 05 80
       4.90474e-40 4.9205e-40 4.91765e-40 -4.9051e-40
000070 1f 5a 05 80 07 59 05 80 83 58 05 80 29 2a 06 00
       -4.91507e-40 -4.91114e-40 -4.9093e-40 5.66137e-40
000080 37 58 05 80 d1 60 05 80 dd 5a 05 80 ec 59 05 80
       -4.90823e-40 -4.93909e-40 -4.91773e-40 -4.91435e-40
000090 98 5e 05 00 eb 5a 05 00 5c 5a 05 80 2b 5d 05 80
       4.93111e-40 4.91793e-40 -4.91592e-40 -4.926e-40
0000a0 48 58 05 00 8d 5f 05 80 b8 59 05 80 b0 58 05 80
       4.90847e-40 -4.93455e-40 -4.91363e-40 -4.90993e-40
0000b0 6c 58 05 80 e4 59 05 80 a7 5e 05 00 46 5d 05 80
       -4.90897e-40 -4.91424e-40 4.93132e-40 -4.92638e-40
0000c0 d3 57 05 00 9b 59 05 00 f9 5e 05 80 72 59 05 80
       4.90683e-40 4.91322e-40 -4.93247e-40 -4.91264e-40
0000d0 81 5a 05 80 58 5f 05 80 da 5a 05 00 db 5b 05 80
       -4.91644e-40 -4.9338e-40 4.91769e-40 -4.92129e-40
0000e0 75 58 05 80 43 5e 05 80 f8 5d 05 00 ac 58 05 00
       -4.9091e-40 -4.92992e-40 4.92887e-40 4.90987e-40
0000f0 3e 5c 05 80 52 5c 05 80 50 58 05 80 6d 5e 05 80
       -4.92268e-40 -4.92296e-40 -4.90858e-40 -4.93051e-40
000100 7f 5b 05 00 ac 58 05 80 ea 5a 05 00 5c 58 05 00
       4.92e-40 -4.90987e-40 4.91791e-40 4.90875e-40
000110 4a 5a 05 00 f0 5a 05 80 5f 59 05 80 b5 58 05 80
       4.91567e-40 -4.918e-40 -4.91238e-40 -4.91e-40
000120 7f de 03 00 83 59 05 00 bf 5e 05 80 1f b6 05 80
       3.55323e-40 4.91288e-40 -4.93166e-40 -5.2451e-40
000130 ec 5b 05 80 3b 5b 05 80 a6 5f 05 80 82 5c 05 80
       -4.92153e-40 -4.91905e-40 -4.9349e-40 -4.92363e-40
000140 9c 58 05 00 92 57 05 80 95 5a 05 80 31 57 05 80
       4.90965e-40 -4.90592e-40 -4.91672e-40 -4.90456e-40
000150 40 69 05 00 75 75 05 80 6f 57 05 80 10 58 05 80
       4.96934e-40 -5.01313e-40 -4.90543e-40 -4.90768e-40
000160 e6 5c 05 00 45 58 05 80 63 57 05 00 5e 5f 05 00
       4.92503e-40 -4.90843e-40 4.90526e-40 4.93389e-40
000170 b0 5d 05 80 4c 58 05 80 52 59 05 00 df 78 05 00
       -4.92786e-40 -4.90852e-40 4.9122e-40 5.02538e-40
000180 32 58 05 80 66 60 05 80 b8 5c 05 00 9c 57 05 80
       -4.90816e-40 -4.93759e-40 4.92439e-40 -4.90606e-40
000190 1a 64 05 80 e1 59 05 80 f9 5c 05 00 66 59 05 00
       -4.95087e-40 -4.9142e-40 4.9253e-40 4.91248e-40
0001a0 fd 5d 05 00 8d 5c 05 00 6b 67 05 80 20 5d 05 80
       4.92894e-40 4.92378e-40 -4.96277e-40 -4.92584e-40
0001b0 d2 5b 05 80 65 5a 05 80 da 5c 05 00 f8 58 05 80
       -4.92116e-40 -4.91605e-40 4.92486e-40 -4.91093e-40
0001c0 f4 60 05 00 10 59 05 00 b3 5a 05 80 41 5e 05 80
       4.93958e-40 4.91127e-40 -4.91714e-40 -4.9299e-40
0001d0 37 5a 05 00 7b 5e 05 80 ba 5d 05 00 fd 5e 05 80
       4.9154e-40 -4.9307e-40 4.928e-40 -4.93253e-40
0001e0 91 59 05 80 56 57 05 80 06 60 05 80 01 58 05 80
       -4.91308e-40 -4.90508e-40 -4.93624e-40 -4.90747e-40
0001f0 99 6c 05 80 6f 59 05 80 ee 5f 05 00 c9 5c 05 80
       -4.98135e-40 -4.9126e-40 4.9359e-40 -4.92463e-40
000200 b4 5f 05 00 7c 57 05 80 f2 5c 05 80 a6 5e 05 80
       4.93509e-40 -4.90561e-40 -4.9252e-40 -4.93131e-40
000210 6e 5c 05 80 45 5a 05 80 79 62 05 00 61 6e 05 80
       -4.92335e-40 -4.9156e-40 4.94503e-40 -4.98774e-40
000220 97 60 05 00 3c 5e 05 00 88 5e 05 00 bb 61 05 80
       4.93827e-40 4.92982e-40 4.93089e-40 -4.94237e-40
000230 27 5e 05 00 eb 5c 05 80 ee 5f 05 00 f8 58 05 80
       4.92953e-40 -4.9251e-40 4.9359e-40 -4.91093e-40
000240 24 60 05 80 bc 5f 05 00 3c 5a 05 80 69 58 05 80
       -4.93666e-40 4.9352e-40 -4.91547e-40 -4.90893e-40
000250 f0 5d 05 80 93 5f 05 80 9b 5d 05 80 49 62 05 00
       -4.92876e-40 -4.93463e-40 -4.92757e-40 4.94436e-40
000260 a7 5d 05 80 a5 58 05 80 ec 60 05 80 33 5a 05 00
       -4.92774e-40 -4.90977e-40 -4.93946e-40 4.91535e-40
000270 55 60 05 80 ae 5d 05 80 8f 59 05 00 44 59 05 00
       -4.93735e-40 -4.92783e-40 4.91305e-40 4.912e-40
000280 d8 58 05 80 a1 5b 05 80 df 57 05 00 8b a7 06 80
       -4.91049e-40 -4.92048e-40 4.907e-40 -6.11116e-40
000290 b8 5b 05 80 0a 62 05 00 61 5f 05 80 73 58 05 00
       -4.9208e-40 4.94347e-40 -4.93393e-40 4.90907e-40
0002a0 92 5a 05 80 54 59 05 80 ff 57 05 00 20 59 05 80
       -4.91668e-40 -4.91222e-40 4.90745e-40 -4.9115e-40
0002b0 90 59 05 80 e6 5c 05 80 06 5b 05 80 96 5e 05 00
       -4.91306e-40 -4.92503e-40 -4.9183e-40 4.93109e-40
0002c0 66 58 05 80 fa 59 05 80 67 59 05 80 de 5e 05 80
       -4.90889e-40 -4.91455e-40 -4.91249e-40 -4.9321e-40
0002d0 7e 5c 05 80 1c 5c 05 80 7c 5e 05 80 91 73 05 00
       -4.92357e-40 -4.9222e-40 -4.93072e-40 5.00635e-40
0002e0 90 5d 05 80 b0 5c 05 80 48 5a 05 80 07 59 05 80
       -4.92741e-40 -4.92427e-40 -4.91564e-40 -4.91114e-40
0002f0 25 5b 05 80 0d 5b 05 80 4b 5b 05 80 fb 5b 05 80
       -4.91874e-40 -4.9184e-40 -4.91927e-40 -4.92174e-40
000300 81 63 05 00 a4 5c 05 00 23 5c 05 80 d3 57 05 80
       4.94873e-40 4.9241e-40 -4.9223e-40 -4.90683e-40
000310 3d 62 05 80 76 5e 05 80 1f 58 05 80 d6 58 05 80
       -4.94419e-40 -4.93064e-40 -4.9079e-40 -4.91046e-40
000320 a6 59 05 80 a2 5e 05 00 29 5a 05 80 e0 58 05 80
       -4.91337e-40 4.93125e-40 -4.91521e-40 -4.9106e-40
000330 0e 58 05 00 bd 5e 05 80 36 58 05 80 d7 59 05 80
       4.90766e-40 -4.93163e-40 -4.90822e-40 -4.91406e-40
000340 51 58 05 80 d2 59 05 80 ac 58 05 80 79 5f 05 80
       -4.9086e-40 -4.91399e-40 -4.90987e-40 -4.93427e-40
000350 dd 5d 05 80 5c 58 05 80 b3 5e 05 80 32 5f 05 80
       -4.92849e-40 -4.90875e-40 -4.93149e-40 -4.93327e-40
000360 16 58 05 00 f7 5b 05 80 20 62 05 00 8d 64 05 00
       4.90777e-40 -4.92168e-40 4.94378e-40 4.95248e-40
000370 88 5f 05 80 9b 59 05 80 d8 5a 05 80 fb 5a 05 80
       -4.93448e-40 -4.91322e-40 -4.91766e-40 -4.91815e-40
000380 fb 5e 05 00 6f 5c 05 80 a2 59 05 80 fc 5a 05 80
       4.9325e-40 -4.92336e-40 -4.91332e-40 -4.91817e-40
000390 89 5c 05 80 d4 5e 05 80 84 5c 05 80 79 6c 06 80
       -4.92373e-40 -4.93195e-40 -4.92366e-40 -5.89926e-40
0003a0 82 5d 05 80 40 5e 05 80 50 5c 05 80 8a 58 05 80
       -4.92722e-40 -4.92988e-40 -4.92293e-40 -4.9094e-40
0003b0 76 61 05 80 43 5d 05 80 fb 5a 05 00 cd 5f 05 80
       -4.9414e-40 -4.92633e-40 4.91815e-40 -4.93544e-40
0003c0 df 5f 05 00 4b 59 05 80 d2 59 05 80 d4 60 05 80
       4.9357e-40 -4.9121e-40 -4.91399e-40 -4.93913e-40
0003d0 d8 5d 05 00 07 63 05 00 33 5e 05 00 9e 5b 05 80
       4.92842e-40 4.94702e-40 4.9297e-40 -4.92044e-40
0003e0 0e 58 05 80 b7 59 05 80 c8 57 05 80 61 5c 05 80
       -4.90766e-40 -4.91361e-40 -4.90667e-40 -4.92317e-40
0003f0 6f 5f 05 80 46 59 05 80 0d 58 05 00 1c 58 05 80
       -4.93413e-40 -4.91203e-40 4.90764e-40 -4.90785e-40
