waypoint_state_no_depth_425.onnx (onnx, 694169 bytes, 20 tensors)

log_std f4 [4]
-0.70291275 -0.50228965 -0.5311091 -0.4020982
00000000: 17f2 33bf 0e96 00bf c4f6 07bf d1df cdbe

features_extractor.state_extractor.0.weight f4 [128, 16]
-0.11843929 -0.24459292 0.019510953 -0.016819073 -0.097862214 0.108154915 0.03276335 0.1458634
-0.12994136 0.28504542 -0.031299368 -0.06708009 -0.0078048212 -0.003303327 -0.05597629 0.088328645
0.05971199 -0.14748551 -0.16023137 -0.0048191687 0.057604946 0.014114703 0.018190822 0.2923315
0.12754981 -0.07003218 0.0084388135 -0.39919215 0.1046063 0.009839606 0.006922424 0.0053540487
-0.00054904324 0.00049321336 -3.996451e-05 -1.0347386e-06 0.0011577219 9.0727235e-06 -0.001606181 -5.140718e-16
3.7533746e-13 -8.628919e-23 -1.7039459e-07 -3.9349034e-05 1.2448404e-19 -2.354021e-31 1.4572884e-32 -4.745286e-32
-0.08165674 0.118572965 -0.09303133 0.031442992 -0.18549187 -0.07624445 0.31254837 -0.24974036
-0.13788012 -0.018138722 -0.22685626 -0.042651415 -0.22779569 -0.06828657 -0.035258494 0.045365054
0.04220886 -0.027440105 0.045285482 0.1532296 0.044613358 0.23275916 -0.015290954 0.015534227
-0.20607388 -0.117603965 0.38581106 0.3451338 -0.12602036 0.121387646 0.022897609 0.06708458
0.054153863 0.12082576 -0.0046411054 0.15967153 0.03747454 -0.039089493 0.003907305 -0.082930416
-0.063828476 0.1652287 0.1246626 -0.11654293 -0.015076263 0.03980578 -0.036323067 0.041538227
-0.0025190127 -0.005970467 2.6251584e-05 -0.010956037 -0.05883215 5.614903e-05 -0.06326048 -2.4793768e-05
1.3060114e-07 -0.00820879 -0.00011844039 0.00030788287 0.00036272177 1.0555668e-20 4.6979244e-22 2.8640343e-23
-0.008165617 -0.030458419 2.2293636e-06 -7.522992e-05 -0.020647125 -0.0005584835 -0.07982765 -8.058741e-05
1.8832126e-05 0.0004875133 0.04720664 -0.0001249266 1.9880445e-05 8.2175224e-22 -1.3422689e-12 4.0159053e-17
-0.095249675 0.22396545 -0.09329639 0.17901233 -0.07282032 -0.2401386 -0.047353774 -0.13655765
0.09457167 -0.120050065 -0.31838685 0.005619377 0.0035972307 0.0047253403 -0.012479699 0.0014544826
0.1174694 0.0070021576 -0.049405005 -0.18451163 0.051363915 0.09257618 0.30375305 0.22284126
0.16697893 0.32895163 0.017336693 -0.17027223 -0.048838813 -0.042643398 0.15392844 -0.0453975
-0.16796575 0.21919632 -0.0062632654 -0.23100775 0.04174245 0.12057747 0.0028711762 -0.082505524
-0.024663147 0.088364236 -0.035578728 -0.031180684 0.026291976 -0.001926794 -0.00974524 0.0018934301
-0.14324588 -0.18369398 -0.07631864 -0.038378045 0.12146676 -0.041458372 0.035308383 0.0283862
-0.006054848 0.11233899 -0.09717629 0.11533364 -0.030223032 -0.0066600544 -0.0066508735 0.016252993
0.032560606 0.07522409 0.02699694 0.060849734 0.11221426 -0.10138241 0.021156909 -0.23202121
-0.09274126 -0.2042099 -0.1265396 0.08576516 0.035269085 -0.024660654 -0.05100086 0.004137545
-0.09885145 -0.08210793 0.05237674 -0.086987086 0.27540216 0.075934805 0.014881268 -0.039136004
-0.073412396 0.036348704 0.036635943 -0.15066081 -0.049189817 0.010063535 0.006519805 0.0007353586
0.10298454 -0.052458663 -0.30237836 0.004395184 0.12708613 -0.06531314 0.056105092 0.1737191
0.022454863 0.13420504 0.13092886 -0.3260055 -0.028293436 0.14765157 0.0038827376 0.08688543
-0.14794955 0.010331756 -0.11415443 0.1575677 0.016435122 0.057904556 -0.020165728 0.008759248
-0.07624804 0.16601849 -0.249422 -0.061525397 0.12962894 0.065360166 0.03628736 0.055738542
00000000: 4c90 f2bd 9176 7abe 6fd5 9f3c 27c8 89bc
00000010: fc6b c8bd 5380 dd3d dd32 063d 375d 153e
00000020: 590f 05be 79f1 913e c433 00bd 4961 89bd
00000030: 96bf ffbb a17c 58bb 6547 65bd a6e5 b43d
00000040: 8f94 743d 7106 17be b113 24be 1eea 9dbb
00000050: 2af3 6b3d 5b41 673c eb04 953c 79ac 953e
00000060: 6b9c 023e 086d 8fbd f342 0a3c ea62 ccbe
00000070: d43b d63d 4c36 213c 80d5 e23b 0471 af3b
00000080: abed 0fba fd4a 013a 919f 27b8 59e1 8ab5
00000090: b3be 973a 0d37 1837 7e86 d2ba ce2b 14a6
000000a0: d44b d32a 6ca2 d09a b5f5 36b4 b40a 25b8
000000b0: fef6 1220 e2c8 988c 5f55 970a ac63 768b
000000c0: a63b a7bd 62d6 f23d 3687 bebd 5eca 003d
000000d0: 95f1 3dbe 0d26 9cbd 5706 a03e f0bb 7fbe
000000e0: 7230 0dbe a897 94bc 024d 68be 40b3 2ebd
000000f0: 4643 69be d4d9 8bbd 366b 10bd b5d0 393d
00000100: 33e3 2c3d 12ca e0bc 457d 393d 38e8 1c3e
00000110: 7fbc 363d 6b58 6e3e e986 7abc 4583 7e3c
00000120: 0805 53be 59da f0bd 0789 c53e 61b5 b03e
00000130: 7b0b 01be 169a f83d c493 bb3c a463 893d
00000140: 71d0 5d3d 7f73 f73d 6a14 98bb ef80 233e
00000150: e77e 193d 4e1c 20bd da08 803b 6cd7 a9bd
00000160: 81b8 82bd b631 293e 1b4f ff3d 0fae eebd
00000170: 6e02 77bc 630b 233d 7fc7 14bd fd23 2a3d
00000180: 0516 25bb e8a3 c3bb d936 dc37 f380 33bc
00000190: fbf9 70bd 9081 6b38 b68e 81bd 36fc cfb7
000001a0: 5e3b 0c34 297e 06bc 3363 f8b8 576b a139
000001b0: b12b be39 1464 471e 6efc 0d1c 077f 0a1a
000001c0: 14c9 05bc ef83 f9bc 2d9c 1536 c1c4 9db8
000001d0: 2924 a9bc 3167 12ba ae7c a3bd 0901 a9b8
000001e0: aff9 9d37 ed98 ff39 c05b 413d bbfe 02b9
000001f0: eec4 a637 005c 781c 55e8 bcab 7133 3924
00000200: 4312 c3bd 3357 653e 2d12 bfbd 024f 373e
00000210: d222 95bd e5e6 75be 08f6 41bd c5d5 0bbe
00000220: cbae c13d cfdc f5bd 9a03 a3be c022 b83b
00000230: 84bf 6b3b 07d7 9a3b a777 4cbc 56a4 be3a
00000240: cc93 f03d 5b72 e53b e75c 4abd 9ef0 3cbe
00000250: f862 523d 9598 bd3d 8585 9b3e 8030 643e
00000260: 86fc 2a3e 596c a83e ae05 8e3c d85b 2ebe
00000270: 350b 48bd d8aa 2ebd 6b9f 1d3e bbf2 39bd
00000280: 37ff 2bbe 0075 603e 143c cdbb 4c8d 6cbe
00000290: 22fa 2a3d 52f1 f63d 582a 3c3b a8f8 a8bd
000002a0: 5e0a cabc 4ff8 b43d 00bb 11bd a26e ffbc
000002b0: 4562 d73c 7a8c fcba 80aa 1fbc f92c f83a
000002c0: 0caf 12be 461a 3cbe f24c 9cbd 4c32 1dbd
000002d0: 91c3 f83d 41d0 29bd 869f 103d 2d8a e83c
000002e0: bf67 c6bb fc11 e63d 5d04 c7bd 0b34 ec3d
000002f0: 4b96 f7bc 963c dabb 92ef d9bb ff24 853c
00000300: 455e 053d 160f 9a3d b028 dd3c 923d 793d
00000310: 97d0 e53d 95a1 cfbd 4151 ad3c f896 6dbe
00000320: 21ef bdbd 661c 51be 9993 01be a5a5 af3d
00000330: 5176 103d 2405 cabc 47e6 50bd 3e94 873b
00000340: a172 cabd 3428 a8bd fe88 563d 4926 b2bd
00000350: 8301 8d3e b583 9b3d 90d0 733c 134d 20bd
00000360: 3d59 96bd 61e2 143d 920f 163d d446 1abe
00000370: 437b 49bd 86e1 243c 17a4 d53b 15c5 403a
00000380: 8fe9 d23d e5de 56bd 56d1 9abe 7a05 903b
00000390: de22 023e e5c2 85bd 74ce 653d 6be3 313e
000003a0: 43f3 b73c 0c6d 093e 3712 063e 31ea a6be
000003b0: a3c7 e7bc f931 173e 8775 7e3b fdf0 b13d
000003c0: 1680 17be 8746 293c ccc9 e9bd 6d59 213e
000003d0: f3a2 863c 542d 6d3d 9932 a5bc f382 0f3c
000003e0: ef27 9cbd c000 2a3e 7b68 7fbe 0e02 7cbd
000003f0: 73bd 043e 8ddb 853d 0ea2 143d 194e 643d

features_extractor.state_extractor.0.bias f4 [128]
0.015109753 0.024437105 -0.00031585115 0.00301264 0.043441802 0.018953664 0.0035218266 0.0055464315
0.017352065 -0.006889225 -0.0027250806 0.00036951486 0.011897475 0.053258125 0.012503292 0.040484797
-0.023905441 0.011683253 0.006073311 0.027470972 0.0586137 -0.003157308 0.070845075 -0.0029890367
0.0128724985 -0.0022864765 -0.004414774 0.008446598 0.025155181 0.09206218 0.022435099 0.037356697
-0.01388086 0.007824714 0.0028114403 -0.017986875 -0.0025940835 0.026818193 0.02852607 0.0031384751
0.0037200835 -0.028596865 0.04412778 0.025829602 0.035617523 -6.87935e-21 0.07712011 0.012736279
0.041184478 0.029493522 0.010482455 0.004483569 -1.2397356e-13 -0.030470936 0.014345317 0.015079645
0.0539602 0.013862796 0.00044308923 0.008826302 -1.6192893e-05 -0.0027386108 -0.007317251 0.016169783
0.0036445302 0.027959526 -0.023032725 0.012322085 0.004240486 0.061942153 0.040902723 0.050027594
0.011435578 0.01211594 -0.0041778036 0.05590343 0.058792535 0.043040633 0.022767585 4.86164e-40
0.08018383 -0.00091694965 0.0011488107 -0.009475902 0.028341545 0.019013353 -0.0017765699 0.03525746
0.029336846 0.057971504 0.011006211 0.0729502 -1.0611741e-05 0.008198491 0.027711516 0.0014229147
0.0029151102 0.024150757 0.005825219 0.015457871 0.0070301797 0.038508337 -0.0152006745 0.011425937
0.0011961082 -0.036520947 0.0070922268 0.020997053 0.0113516105 -0.023837836 0.07851659 0.07438656
0.01595361 4.9113e-40 0.016598903 0.033175707 0.023337267 0.02759696 0.01968168 -0.00017641029
0.00418777 0.0070848283 0.014462325 0.033099897 -0.026703672 -0.0001612941 0.019909322 0.01852631
00000000: e68e 773c 5330 c83c d398 a5b9 b66f 453b
00000010: 08f0 313d b744 9b3c 72ce 663b d7be b53b
00000020: eb25 8e3c 02bf e1bb 4497 32bb 72bb c139
00000030: a1ed 423c 3125 5a3d 9cda 4c3c 63d3 253d
00000040: 58d5 c3bc 1d6b 3f3c a002 c73b ce0a e13c
00000050: eb14 703d d7ea 4ebb 3917 913d b7e3 43bb
00000060: 2ce7 523c b6d8 15bb cfa9 90bb 9a63 0a3c
00000070: 3d12 ce3c 198b bc3d d0c9 b73c 5603 193d
00000080: 8c6c 63bc 3b33 003c 2440 383b 3659 93bc
00000090: 8001 2abb d4b1 db3c 81af e93c e0ae 4d3b
000000a0: a5cc 733b f943 eabc 55bf 343d 9a98 d33c
000000b0: aee3 113d 7ff2 019e 26f1 9d3d d3ab 503c
000000c0: 0eb1 283d 669c f13c 9abe 2b3c e7ea 923b
000000d0: f294 0baa 2f9e f9bc 9f08 6b3c 9e10 773c
000000e0: 5f05 5d3d c820 633c 6e4e e839 329c 103c
000000f0: f9d5 87b7 447a 33bb 8dc5 efbb 7e76 843c
00000100: 12d9 6e3b 600b e53c 20af bcbc 92e2 493c
00000110: c6f3 8a3b 0eb7 7d3d 9d89 273d bce9 4c3d
00000120: 4a5c 3b3c f081 463c f5e5 88bb fffa 643d
00000130: 71d0 703d 604b 303d 1683 ba3c 3a4b 0500
00000140: 6b37 a43d 735f 70ba b193 963a d040 1bbc
00000150: 872c e83c e4c1 9b3c cbdb e8ba 206a 103d
00000160: d353 f03c 8773 6d3d 6553 343c ea66 953d
00000170: 1509 32b7 f752 063c 4303 e33c 1881 ba3a
00000180: 6f0b 3f3b cfd7 c53c 7be1 be3b 0343 7d3c
00000190: 6c5d e63b ebba 1d3d 400c 79bc da33 3b3c
000001a0: bbc6 9c3a fd96 15bd e965 e83b 0302 ac3c
000001b0: 1bfc 393c 9147 c3bc 4ecd a03d fb57 983d
000001c0: 25b1 823c 1259 0500 6cfa 873c 40e3 073d
000001d0: cc2d bf3c 0513 e23c 793b a13c c7fa 38b9
000001e0: 9039 893b d927 e83b 63f3 6c3c c293 073d
000001f0: a9c1 dabc 0e21 29b9 e018 a33c 7dc4 973c

features_extractor.state_extractor.2.weight f4 [128, 128]
-0.1610124 0.20556408 -7.8687763e-19 -0.21032724 0.0036049746 -0.056197226 1.3656852e-13 4.5982515e-07
0.21760444 0.0771608 -0.0015297233 -0.22212392 0.07618244 -0.08165806 -0.17020118 -0.17543115
0.01536796 -0.16216117 -0.08976647 -0.14612605 -0.19099692 -0.0050388635 0.10713796 0.059125412
0.15523377 0.026473003 -0.012864125 0.0017637528 -0.03384188 0.08944038 0.20251235 0.10986055
0.03309565 0.10661235 0.029816104 -0.07638983 -0.13017091 -0.1984678 0.25514266 0.12645069
0.009536245 0.06050835 0.030439166 -0.08527762 -0.15148327 -1.847019e-23 -0.06443771 0.04370708
0.12406627 0.0032041203 0.079817265 -0.02643409 4.90673e-40 0.0053377943 -0.028992979 -0.36611196
-0.034819365 0.005719252 -4.0128273e-26 0.0004243213 -4.91417e-40 0.11226973 0.14591004 0.11945314
-0.038455755 0.18699056 -0.21070287 -0.00014265928 0.057867948 0.058182374 0.09936875 0.17843312
0.2122043 -0.07914317 0.16989148 0.20761338 -0.08042057 -0.14159653 0.027168566 -4.92503e-40
-0.026273558 6.404496e-14 0.001410234 -0.025442826 0.21097593 0.15187182 -0.10971592 0.17281605
0.12561357 -0.1095029 0.042870976 0.3132246 -2.1570262e-14 -0.1536803 0.1742222 0.020957075
0.063305646 0.15298003 -0.24094693 -0.039815713 0.17955188 0.13435929 0.018320424 -0.22514966
0.114921205 -0.080256 -0.017704356 -0.25691983 0.050170574 -0.010684356 -0.010778735 -0.05829375
-0.239797 4.91001e-40 0.17885469 -0.031101033 0.06520989 0.03678512 -0.07978752 0.28765124
0.036736343 0.019129848 0.22116128 0.20579359 0.12678385 0.00066784385 -0.00017905774 -0.07758932
-0.077639 0.0056839725 -2.798773e-19 0.101701476 -0.085299976 0.0893019 -1.1383743e-16 8.76954e-11
-0.09546988 -0.2608442 -0.05653611 0.12657726 -0.042497396 -0.010447025 -0.059654858 0.2662572
0.055060092 -0.15668051 0.037625354 0.013754626 -0.20406106 0.078584656 -0.09392845 -0.043492205
-0.040236898 -0.098096736 -0.0132692205 0.048900794 0.050369456 -0.04171099 0.0842615 0.20310014
0.1538368 0.079258114 0.25424397 0.18343642 -0.12699129 0.08143233 -0.10710781 -0.15423733
0.299939 0.22411622 0.15768318 -0.21354288 -0.1991025 6.2537816e-24 -0.09757003 -0.09732963
0.022041325 -5.8820016e-05 0.074958526 0.0003769946 -4.92684e-40 0.01688835 0.005030615 -0.12582994
-0.15515196 0.03805246 -4.4269605e-16 0.022717958 4.91718e-40 -0.050822712 -0.15430503 -0.11573298
-0.24038166 0.1019468 0.06975844 -0.028252611 -0.22119181 -0.08680404 0.22822098 -0.15051891
-0.035169348 -0.0034825993 -0.03391788 -0.08286256 -0.09749819 0.22942193 0.11885627 4.9144e-40
0.060049683 5.194794e-10 -0.0006568088 -0.17308064 0.23008873 0.06992045 0.17159203 0.055437434
0.031044353 0.082065225 0.05910079 0.06662878 -1.1265687e-21 -0.15591021 0.123169206 -0.045943826
-0.013621747 0.038850386 0.2728085 0.15452036 -0.12526563 0.17303643 -0.23284459 0.1156752
0.02820129 0.12265636 -0.022813367 0.028852062 0.14837365 -0.013251251 0.06965035 0.10941234
-0.05375758 3.1704541e-37 0.03797071 -0.10321261 -0.21219182 0.30139568 0.0036528327 -0.08888981
-0.008558464 0.1771983 -0.07478942 0.2782689 -0.09858105 0.00028014067 -0.000108829285 0.18687099
00000000: 6fe0 24be 647f 523e cb3e 68a1 0660 57be
00000010: 7041 6c3b 102f 66bd 32c3 192a e3dd f634
00000020: b3d3 5e3e 7b06 9e3d ff80 c8ba 7474 63be
00000030: 8a05 9c3d 573c a7bd 3849 2ebe 39a4 33be
00000040: e5c9 7b3c 940d 26be 7cd7 b7bd 11a2 15be
00000050: b294 43be 0d1d a5bb 266b db3d 7d2d 723d
00000060: 9af5 1e3e e9dd d83c 0dc4 52bc b92d e73a
00000070: c89d 0abd 852c b73d 665f 4f3e 91fe e03d
00000080: 4e8f 073d 9357 da3d e740 f43c 4572 9cbd
00000090: 864b 05be 253b 4bbe 0fa2 823e 4a7c 013e
000000a0: e93d 1c3c 9bd7 773d 8f5b f93c 08a6 aebd
000000b0: 6e1e 1bbe faa1 b299 ebf7 83bd 3206 333d
000000c0: 7516 fe3d 38fc 513b 3c77 a33d 4e8c d8bc
000000d0: cc57 0500 aae8 ae3b af82 edbc 0773 bbbe
000000e0: c09e 0ebd 9068 bb3b a1b4 4695 7177 de39
000000f0: df59 0580 aced e53d 7169 153e d9a3 f43d
00000100: c883 1dbd 747a 3f3e 7ec2 57be cf96 15b9
00000110: f106 6d3d a450 6e3d d881 cb3d 2cb7 363e
00000120: 164c 593e d015 a2bd 08f8 2d3e 9a98 543e
00000130: 8ab3 a4bd aefe 10be 9d90 de3c e65c 0580
00000140: a53b d7bc 6837 9029 9ad7 b83a 796d d0bc
00000150: 130a 583e 4984 1b3e beb2 e0bd b1f6 303e
00000160: d8a0 003e 0e43 e0bd 7a99 2f3d fa5e a03e
00000170: a349 c2a8 5e5e 1dbe 4e67 323e 2cae ab3c
00000180: 64a6 813d cca6 1c3e cbba 76be cd15 23bd
00000190: 73dc 373e 7b95 093e b714 963c a28d 66be
000001a0: cf5b eb3d 425d a4bd ba08 91bc ff8a 83be
000001b0: a97f 4d3d 700d 2fbc 4b99 30bc 6dc5 6ebd
000001c0: 588d 75be b658 0500 af25 373e 98c7 febc
000001d0: c38c 853d feab 163d a467 a3bd 0647 933e
000001e0: d978 163d 33b6 9c3c 1a78 623e 8ebb 523e
000001f0: a0d3 013e 3e12 2f3a 72c1 3bb9 26e7 9ebd
00000200: 3201 9fbd 9e40 ba3b dd35 a5a0 dd48 d03d
00000210: c1b1 aebd eae3 b63d e13e 03a5 1fd8 c02e
00000220: b685 c3bd 5f8d 85be 6892 67bd 789d 013e
00000230: c011 2ebd 002a 2bbc a758 74bd dd52 883e
00000240: b186 613d db70 20be 0b1d 1a3d 155b 613c
00000250: 62f5 50be fef0 a03d 8f5d c0bd e224 32bd
00000260: 72cf 24bd f1e6 c8bd 2567 59bc 334c 483d
00000270: 3450 4e3d 25d9 2abd 4b91 ac3d 7cf9 4f3e
00000280: 6587 1d3e 1452 a23d 442c 823e c2d6 3b3e
00000290: 010a 02be fec5 a63d 575b dbbd 64f0 1dbe
000002a0: 9b91 993e b97e 653e b377 213e fcaa 5abe
000002b0: 87e1 4bbe 74ee f118 ccd2 c7bd c254 c7bd
000002c0: 0290 b43c 83b5 76b8 db83 993d 5ca7 c539
000002d0: 675d 0580 7059 8a3c dbd7 a43b 90d9 00be
000002e0: 28e0 1ebe e5dc 1b3d 6832 ffa5 031b ba3c
000002f0: b65a 0500 7a2b 50bd 2302 1ebe 6a05 edbd
00000300: 9c26 76be 7cc9 d03d 83dd 8e3d 0572 e7bc
00000310: 1b80 62be 51c6 b1bd c3b2 693e a121 1abe
00000320: bc0d 10bd 523c 64bb 7aed 0abd d9b3 a9bd
00000330: 22ad c7bd 95ed 6a3e eb6a f33d ef59 0500
00000340: a8f6 753d 1dcb 0e30 b12d 2cba 0d3c 31be
00000350: 619c 6b3e 7432 8f3d d2b5 2f3e 5d12 633d
00000360: ba50 fe3c d011 a83d ac13 723d ab74 883d
00000370: 043e aa9c eda6 1fbe 2340 fc3d 982f 3cbd
00000380: bf2d 5fbc 9521 1f3d 8ead 8b3e 963a 1e3e
00000390: a245 00be 7630 313e d06e 6ebe 1fe7 ec3d
000003a0: 6406 e73c 4233 fb3d 19e3 babc 295b ec3c
000003b0: 43ef 173e c61b 59bc d8a4 8e3d 9413 e03d
000003c0: e930 5cbd 1ac5 d702 2d87 1b3d 2261 d3bd
000003d0: d048 59be 8950 9a3e 5d64 6f3b dc0b b6bd
000003e0: cd38 0cbc 7973 353e 322b 99bd 4379 8e3e
000003f0: dde4 c9bd d8df 9239 473b e4b8 1c5b 3f3e

features_extractor.state_extractor.2.bias f4 [128]
0.023637874 0.025195314 0.002282444 0.003884709 0.018353527 0.023811147 0.018832162 0.004060771
0.004152331 0.00068840565 0.023634547 0.015585321 0.022715416 0.00793327 0.004435224 0.023790604
-0.0051902374 0.018612426 0.0061470126 0.0063176616 0.0076286304 0.03528047 0.0 0.013907
-0.006562922 -0.0033272202 0.013175316 -0.0050397418 0.008348561 0.0010741178 -0.006242467 0.022646042
0.032724906 -0.0060165445 0.012112574 0.0010022358 -0.0012700396 0.0141667705 0.017364526 0.0063539776
-0.007535395 -0.0027866822 -0.0028850231 0.017765451 -0.005534134 0.010755385 -0.021210743 0.0028778166
0.009980245 0.034405697 0.002825972 0.012695636 0.0040480387 0.008293632 0.005837828 -0.00030915724
0.024211077 0.023001073 0.008956112 -0.012142898 0.021419307 0.005297674 0.0067062993 -0.022812566
0.0 0.01578483 0.009758008 0.025505776 0.0018138032 0.0063917167 0.004250382 0.012275749
0.0067837588 0.004187855 0.005090401 0.012377997 0.010023394 0.0076346323 0.0077705435 -0.020641465
0.015138502 0.021375198 0.015898615 0.0100638755 0.017286312 0.009190079 0.01913269 0.015114707
-0.00072563434 -0.0035215144 0.009858546 0.018109994 0.0032990251 0.0012741433 0.0077069467 -6.096478e-10
0.027265826 0.021052016 -0.0023265758 0.009437266 0.004548607 0.013850737 0.00465483 0.005728007
0.007698074 -0.004921836 0.0108910985 0.0074977702 0.0068773944 -0.012023695 0.009206134 0.009961781
0.012988959 -0.0021287275 0.029004851 0.0044311695 0.039637722 -0.00390437 0.0028177444 4.93099e-40
0.012793663 0.009358296 0.008751026 0.030878799 0.029181102 -0.0057603824 0.015235554 0.009437337
00000000: 37a4 c13c 6766 ce3c 0e95 153b 9a96 7e3b
00000010: 235a 963c 980f c33c e845 9a3c 3710 853b
00000020: 4710 883b 1f76 343a 3d9d c13c 9359 7f3c
00000030: ae15 ba3c 8cfa 013c 5b55 913b 83e4 c23c
00000040: de12 aabb 1679 983c e16c c93b 6304 cf3b
00000050: 97f9 f93b 4182 103d 0000 0000 30da 633c
00000060: c80d d7bb 7e0d 5abb 48dd 573c 6b24 a5bb
00000070: 67c8 083c 6ac9 8c3a 9c8d ccbb 3184 b93c
00000080: 8d0a 063d 6f26 c5bb d173 463c 745d 833a
00000090: 7577 a6ba be1b 683c 0d40 8e3c 0735 d03b
000000a0: 7aeb f6bb c5a0 36bb a812 3dbb da88 913c
000000b0: ae57 b5bb 5b37 303c 27c2 adbc c099 3c3b
000000c0: 2e84 233c fdec 0c3d f133 393b 5b01 503c
000000d0: 69a5 843b 04e2 073c 404b bf3b 6216 a2b9
000000e0: 4f56 c63c bf6c bc3c a8bc 123c 01f3 46bc
000000f0: 8b77 af3c 1c98 ad3b 84c0 db3b 6be1 babc
00000100: 0000 0000 304f 813c 0de0 1f3c 7df1 d03c
00000110: 23bd ed3a 9b71 d13b ca46 8b3b 3920 493c
00000120: 4b4a de3b 463a 893b 61cd a63b 15cd 4a3c
00000130: 2939 243c f02b fa3b 0ba0 fe3b 4a18 a9bc
00000140: 7b07 783c 0a1b af3c d03d 823c f4e2 243c
00000150: 069c 8d3c fc91 163c 29bc 9c3c ada3 773c
00000160: 7f38 3eba 35c9 66bb bd85 213c 695b 943c
00000170: 7534 583b 2801 a73a 8e8a fc3b 2694 27b0
00000180: 955c df3c 4775 ac3c 7779 18bb c39e 1a3c
00000190: 7b0c 953b 34ee 623c 8b87 983b 01b2 bb3b
000001a0: 2040 fc3b 5a47 a1bb 9470 323c dbaf f53b
000001b0: c45b e13b 08ff 44bc 53d5 163c bd36 233c
000001c0: a5cf 543c 1f82 0bbb 959b ed3c 5833 913b
000001d0: 2a5b 223d 75e0 7fbb e8a9 383b 8f5e 0500
000001e0: 839c 513c 8a53 193c 7760 0f3c 89f5 fc3c
000001f0: 350d ef3c 97c1 bcbb 8c9e 793c 0f9f 1a3c

features_extractor.vd_extractor.0.weight f4 [128, 1]
-6.800475e-36 -3.119455e-21 -9.758385e-09 0.122705035 4.92419e-40 0.0005929542 4.911e-40 3.11408e-40
0.031712 -7.6455503e-10 4.91427e-40 -5.8486752e-36 0.17859314 0.20389375 0.22556013 4.92268e-40
-1.4732305e-18 0.16264032 0.08889822 0.045701854 0.12824605 0.13602218 0.076734856 0.2000388
-2.349318e-06 -4.492077e-22 4.92456e-40 0.21236935 0.17009753 0.0018391684 0.12647489 0.0036767796
0.1871452 -3.0515441e-24 4.91986e-40 -2.2384168e-38 -3.3525776e-08 -2.8183455e-34 -1.1698881e-10 0.12783943
0.21112144 -3.717437e-39 0.07597912 -1.785715e-39 0.1897321 4.90523e-40 0.06284598 -3.1678995e-36
-9.444527e-33 0.07085199 0.28406775 0.04519952 -1.1286237e-28 4.92666e-40 4.91528e-40 9.0724e-41
-2.7486777e-10 0.35797608 -1.6496799e-08 0.21201257 0.16406389 0.00019794042 0.21744224 0.116199344
0.047263965 -2.5263429e-13 0.08362438 -2.591863e-08 0.03358814 0.18266526 -8.345117e-21 0.109433465
-1.1183034e-30 -4.1083293e-08 0.0684849 0.07627196 -5.763104e-17 0.24479936 4.91257e-40 0.18191212
-7.04496e-40 4.9293e-40 0.0023870063 0.19881245 0.023801992 0.032721307 4.9297e-40 0.034117073
-3.897438e-30 0.13933983 4.91308e-40 -1.6536368e-13 -3.5795983e-10 0.13773158 0.101835206 -7.914035e-39
-1.948149e-13 -9.97464e-40 -2.6039822e-07 0.1048567 0.11325427 0.09883585 4.9207e-40 0.19599944
-4.2706408e-10 0.04297521 0.058418356 -1.2171293e-13 0.027419461 0.14801547 -5.159835e-38 0.01394178
4.9098e-40 0.1799521 0.05346673 -6.002415e-35 -1.9828623e-26 -2.663888e-38 4.91648e-40 0.11150846
-2.647257e-39 -8.839441e-37 0.05204173 -3.338989e-21 -2.3705762e-29 4.9164e-40 -9.862981e-37 4.90979e-40
00000000: 4fa1 1085 09b3 6b9d d5a5 27b2 c74c fb3d
00000010: aa5c 0500 7c70 1b3a fd58 0500 1464 0300
00000020: 71e4 013d c728 52b0 e659 0500 6fc6 f884
00000030: 1fe1 363e 86c9 503e 3cf9 663e 3e5c 0500
00000040: 1369 d9a1 2f8b 263e 4510 b63d de31 3b3d
00000050: ef52 033e 6649 0b3e 2a27 9d3d f9d6 4c3e
00000060: faa8 1db6 c3c3 079c c45c 0500 5a77 593e
00000070: 0c2e 2e3e 4010 f13a a282 013e 20f6 703b
00000080: fea2 3f3e 0f1a 6c98 755b 0500 f4bd f380
00000090: fbfd 0fb3 aa4f bb87 6ca1 00af 57e8 023e
000000a0: 3830 583e b47a 2880 f19a 9b3d d971 1380
000000b0: 2249 423e 6157 0500 65b5 803d 5fbf 8684
000000c0: b827 448a d91a 913d 5471 913e 2223 393d
000000d0: ef11 0f91 5a5d 0500 2e5a 0500 e7fc 0000
000000e0: 331c 97af a448 b73e d8b4 8db2 d319 593e
000000f0: 5d00 283e 3a8e 4f39 2ea9 5e3e ecf9 ed3d
00000100: dc97 413d 7038 8eaa 4243 ab3d aca3 deb2
00000110: b893 093d 9a0c 3b3e 82a2 1d9e a71e e03d
00000120: 8174 b58d 8f73 30b3 d041 8c3d 7934 9c3d
00000130: 5de3 84a4 afac 7a3e 6d59 0500 2c47 3a3e
00000140: d9ab 0780 175e 0500 526f 1c3b 7e95 4b3e
00000150: 65fc c23c c706 063d 335e 0500 58be 0b3d
00000160: 4f19 9e8e 1aaf 0e3e 9159 0500 d62e 3aaa
00000170: 5eca c4af 8209 0d3e fa8e d03d 1c2d 5680
00000180: 9257 5baa 86dc 0a80 dccc 8bb4 1cbf d63d
00000190: dbf1 e73d 736a ca3d b15b 0500 14b4 483e
000001a0: edc7 eaaf c606 303d 1648 6f3d 5d09 09aa
000001b0: c79e e03c 5e91 173e cd76 8c81 106c 643c
000001c0: a758 0500 5d45 383e eeff 5a3d 5292 9f86
000001d0: 885f c494 2e09 1181 845a 0500 8c5e e43d
000001e0: 7ad3 1c80 3265 9683 b629 553d 7149 7c9d
000001f0: ad67 f08f 7e5a 0500 57cf a783 a658 0500

features_extractor.vd_extractor.0.bias f4 [128]
-3.1832503e-23 -6.3575296e-21 -1.8860799e-06 0.014711977 -4.93638e-40 -0.0014498346 -1.8414301e-36 -7.02212e-40
0.031872995 -1.0213632e-06 -4.90662e-40 -4.91894e-40 0.015778244 0.012952269 0.015271017 -3.01922e-40
-4.115111e-12 0.012617326 0.022517186 0.019000255 0.02787111 0.009950978 0.0066052945 0.016630204
-5.116905e-05 -7.52781e-22 -4.92447e-40 0.026763316 0.02754946 -0.0028978183 0.0020126163 -0.0040577883
0.009581892 -2.1136316e-15 -4.94573e-40 4.90965e-40 -1.4520991e-06 -7.2243605e-34 -2.5949882e-07 0.011245692
0.022762194 -4.377373e-39 0.014599693 4.91849e-40 0.011713271 -1.7529023e-32 0.0032136913 -3.725612e-36
-1.730383e-35 0.024826435 0.014982476 0.0011235328 -4.668453e-28 -5.52346e-40 -1.041676e-39 -8.75615e-40
-3.103513e-07 0.026629731 -2.812911e-06 0.009602377 0.017721368 -0.0009816296 0.015607771 0.018959764
0.015339536 -8.995234e-09 0.013228482 -4.9822092e-06 0.018836256 0.027270284 -3.4594585e-13 0.00083464046
-4.019302e-31 -3.657839e-06 -0.0007383858 0.0072046393 -5.872946e-11 0.01690074 -4.92554e-40 0.02015378
-1.219641e-39 -4.92339e-40 -0.00273334 0.026292311 0.015644247 0.016476866 -4.9247e-40 -0.009640036
-5.131018e-29 0.008995012 -4.90567e-40 -8.484489e-09 -4.0809962e-07 -0.011422475 -0.013248986 -4.90463e-40
-6.0669e-09 2.33624e-40 -1.6322048e-05 0.012316476 0.013006913 -0.0021616032 -3.919359e-33 0.021132372
-5.4180725e-07 0.01775926 0.022049587 -6.1214664e-09 -0.00052145816 0.016021036 4.90672e-40 0.014052879
-4.91133e-40 0.02340649 0.011526164 -1.2488444e-22 -1.2429565e-16 -1.959429e-35 -4.91781e-40 0.025830902
4.70096e-40 -1.7720199e-36 0.020428533 -2.0331927e-13 -1.0864414e-18 -2.471522e-27 -1.9768907e-36 -4.92001e-40
00000000: bbee 199a 412e f09d 3625 fdb5 810a 713c
00000010: 1060 0580 6008 beba cca6 1c84 7ba5 0780
00000020: 428d 023d c615 89b5 c457 0580 335b 0580
00000030: 6041 813c c135 543c 4a33 7a3c a349 0380
00000040: a0c9 90ac e7b8 4e3c f675 b83c 6ca6 9b3c
00000050: f451 e43c 6d09 233c 3a71 d83b 113c 883c
00000060: 599e 56b8 9c83 639c be5c 0580 be3e db3c
00000070: 68af e13c 53e9 3dbb 19e6 033b 32f7 84bb
00000080: 5efd 1c3c 9f4d 18a7 ab62 0580 9c58 0500
00000090: bfe5 c2b5 1012 7088 3f51 8bb4 da3f 383c
000000a0: c877 ba3c 56aa 2f80 8d33 6f3c 135b 0500
000000b0: 05e9 3f3c 2308 b68a cb9c 523b 5278 9e84
000000c0: 8101 b885 cf60 cb3c 0f79 753c 8143 933a
000000d0: fef2 1392 b703 0680 c557 0b80 dc88 0980
000000e0: 5c9e a6b4 9826 da3c 71c5 3cb6 4a53 1d3c
000000f0: 672c 913c 06aa 80ba bdb7 7f3c 8251 9b3c
00000100: ad52 7b3c 7589 1ab2 46bc 583c da2c a7b6
00000110: 7e4e 9a3c ee65 df3c 0dc0 c2aa c6cb 5a3a
00000120: 0e6f 028d 3279 75b6 3b90 41ba e514 ec3b
00000130: bf25 81ae 6c73 8a3c 0a5d 0580 8a19 a53c
00000140: dd47 0d80 715c 0580 d621 33bb f962 d73c
00000150: 5d28 803c 7efa 863c ce5c 0580 3ef1 1dbc
00000160: 3616 8290 d15f 133c 8057 0580 2dc3 11b2
00000170: c918 dbb4 5525 3bbc 4612 59bc 3657 0580
00000180: 0475 d0b1 408b 0200 55eb 88b7 0bcb 493c
00000190: f21a 553c afa9 0dbb c6cd a289 cc1d ad3c
000001a0: b670 11b5 de7b 913c 56a1 b43c fd54 d2b1
000001b0: 77b2 08ba 8c3e 833c cb57 0500 0c3e 663c
000001c0: 1459 0580 f8be bf3c 3cd8 3c3c ddf9 169b
000001d0: 9a4d 0fa5 bb5c d085 e35a 0580 549b d33c
000001e0: 701e 0500 2dbf 1684 bd59 a73c caea 64aa
000001f0: 9854 a0a1 6cd0 4393 de2c 2884 805b 0580

features_extractor.vd_extractor.2.weight f4 [128, 128]
-4.9097e-40 -4.92458e-40 4.91539e-40 4.91143e-40 -4.99075e-40 5.60273e-40 4.928e-40 -4.92964e-40
-4.92107e-40 -4.92336e-40 -4.93428e-40 -4.921e-40 4.92122e-40 4.92936e-40 4.90505e-40 4.97158e-40
-4.91405e-40 -4.91276e-40 4.91598e-40 -4.90656e-40 -4.91975e-40 -4.90667e-40 -4.9252e-40 4.90589e-40
-4.9303e-40 -4.90673e-40 4.97675e-40 -4.91526e-40 -4.9196e-40 4.91714e-40 4.93285e-40 4.92669e-40
-4.9159e-40 4.91686e-40 -4.91922e-40 -4.93099e-40 4.91225e-40 -4.91686e-40 -4.90878e-40 -4.91777e-40
4.92364e-40 4.91508e-40 4.91836e-40 -4.92175e-40 4.91838e-40 4.931e-40 4.92171e-40 -4.92186e-40
-4.91585e-40 4.90579e-40 -4.90899e-40 -4.91755e-40 4.90474e-40 4.90836e-40 -4.92485e-40 -4.91868e-40
4.92541e-40 -4.92708e-40 4.93146e-40 -4.90764e-40 -4.92293e-40 4.9317e-40 4.9105e-40 -4.93306e-40
-4.93184e-40 -4.92415e-40 -4.92985e-40 -4.91117e-40 -4.91295e-40 4.93033e-40 -4.91606e-40 4.91371e-40
4.91001e-40 -4.91123e-40 4.9476e-40 4.91022e-40 -4.94001e-40 4.90932e-40 -4.92513e-40 4.93079e-40
-4.93117e-40 4.94075e-40 -4.92282e-40 -4.93167e-40 4.92649e-40 4.90937e-40 -4.92807e-40 4.90597e-40
4.9222e-40 -4.93895e-40 -4.92505e-40 4.91417e-40 -4.92207e-40 4.90788e-40 4.92886e-40 -4.93477e-40
-4.90482e-40 4.91193e-40 4.9107e-40 -4.92115e-40 -4.92701e-40 -4.91023e-40 -4.92538e-40 -4.9551e-40
-4.90966e-40 -4.90614e-40 -4.92425e-40 4.90894e-40 4.91864e-40 -4.93996e-40 4.91737e-40 -4.99129e-40
-4.90927e-40 -4.90509e-40 -4.95157e-40 -4.90977e-40 4.90792e-40 -4.93023e-40 -4.92882e-40 -4.91128e-40
-4.91053e-40 4.93088e-40 -4.92083e-40 -4.91318e-40 4.91699e-40 -4.91199e-40 -4.95346e-40 -4.9194e-40
-4.92011e-40 4.92636e-40 -4.90516e-40 0.06471448 4.90607e-40 -1.9042619e-14 -4.92221e-40 -4.90571e-40
0.052349254 -4.92367e-40 4.94238e-40 -4.91277e-40 0.18735908 -0.257481 0.19827941 -4.90686e-40
-4.92925e-40 0.06972145 0.019590102 0.023362815 0.08001522 0.03392405 0.3005665 0.095906444
1.68314e-40 5.5853533e-21 -4.91784e-40 0.043489262 -0.0026441957 4.91504e-40 -0.14742425 -2.4106803e-10
-0.06913238 -4.90609e-40 4.94553e-40 4.91594e-40 4.446407e-39 4.90508e-40 4.9092e-40 -0.2802572
-0.16709444 -6.24654e-40 0.09663182 -4.90841e-40 0.13298368 4.90624e-40 0.10656549 1.0078102e-36
4.92933e-40 0.17189313 0.11179043 -0.053999525 4.928e-40 4.92964e-40 -4.91196e-40 4.90589e-40
-4.91199e-40 -0.028852526 -4.91571e-40 -0.027824365 0.038910337 3.4837144e-16 -0.060857948 -0.060623173
0.026852446 4.91595e-40 -0.1933636 4.91952e-40 0.083790146 0.15156642 4.93016e-40 -0.0064602452
4.92322e-40 -4.92499e-40 0.073811695 -0.026624518 4.9311e-40 -0.10361381 -4.91542e-40 0.16625768
4.91794e-40 4.90906e-40 4.92343e-40 0.17388047 -0.16536154 0.048577707 4.92184e-40 -0.06844703
3.7681124e-32 0.04494462 4.90728e-40 -4.92388e-40 -4.90578e-40 -0.039324023 -0.09294552 -4.90864e-40
-4.91783e-40 4.9149e-40 -4.91639e-40 -0.15535857 0.06430278 -0.022770075 -4.94518e-40 0.2976744
-4.91151e-40 0.18342695 -0.10269009 -4.93295e-40 -0.086195774 0.23500459 4.90872e-40 0.012271515
4.92715e-40 0.049789596 -0.013684492 4.94335e-40 4.94192e-40 4.9066e-40 4.93365e-40 0.02301643
4.9193e-40 -1.5801553e-37 -0.0030447682 4.93323e-40 4.90787e-40 4.93944e-40 -2.3711682e-38 4.90667e-40
00000000: a058 0580 c65c 0580 365a 0500 1b59 0500
00000010: 386f 0580 d019 0600 ba5d 0500 2f5e 0580
00000020: cb5b 0580 6f5c 0580 7a5f 0580 c65b 0580
00000030: d65b 0500 1b5e 0500 5457 0500 e069 0500
00000040: d659 0580 7a59 0580 605a 0500 c057 0580
00000050: 6d5b 0580 c857 0580 f25c 0580 9057 0500
00000060: 5e5e 0580 cc57 0580 516b 0500 2d5a 0580
00000070: 625b 0580 b35a 0500 145f 0500 5c5d 0500
00000080: 5a5a 0580 9f5a 0500 475b 0580 8f5e 0580
00000090: 5659 0500 9f5a 0580 5e58 0580 e05a 0580
000000a0: 835c 0500 205a 0500 0a5b 0500 fc5b 0580
000000b0: 0b5b 0500 905e 0500 f95b 0500 045c 0580
000000c0: 575a 0580 8957 0500 6d58 0580 d05a 0580
000000d0: 3e57 0500 4058 0500 d95c 0580 215b 0580
000000e0: 015d 0500 785d 0580 b15e 0500 0d58 0580
000000f0: 505c 0580 c25e 0500 d958 0500 235f 0580
00000100: cc5e 0580 a75c 0580 3e5e 0580 0959 0580
00000110: 8859 0580 605e 0500 665a 0580 be59 0500
00000120: b658 0500 0d59 0580 3163 0500 c558 0500
00000130: 1361 0580 8558 0500 ed5c 0580 815e 0500
00000140: 9c5e 0580 4861 0500 485c 0580 c05e 0580
00000150: 4e5d 0500 8858 0500 bf5d 0580 9657 0500
00000160: 1c5c 0500 c760 0580 e75c 0580 df59 0500
00000170: 135c 0580 1e58 0500 f75d 0500 9d5f 0580
00000180: 4457 0580 3f59 0500 e758 0500 d15b 0580
00000190: 735d 0580 c658 0580 ff5c 0580 4865 0580
000001a0: 9d58 0580 a257 0580 ae5c 0580 6a58 0500
000001b0: 1e5b 0500 0f61 0580 c35a 0500 5e6f 0580
000001c0: 8158 0580 5757 0580 4c64 0580 a558 0580
000001d0: 2158 0500 595e 0580 f45d 0580 1159 0580
000001e0: db58 0580 875e 0500 ba5b 0580 9859 0580
000001f0: a85a 0500 4359 0580 d364 0580 545b 0580
00000200: 875b 0580 455d 0500 5c57 0580 0689 843d
00000210: 9d57 0500 4a85 aba8 1d5c 0580 8357 0580
00000220: 2c6c 563d 855c 0580 bc61 0500 7b59 0580
00000230: 0fdb 3f3e 8dd4 83be c209 4b3e d557 0580
00000240: 135e 0580 1fca 8e3d 6c7b a03c 6063 bf3c
00000250: 05df a33d f2f3 0a3d dae3 993e 996a c43d
00000260: 31d5 0100 3902 d31d e55a 0580 cc21 323d
00000270: 3e4a 2dbb 1d5a 0500 62f6 16be 4f87 84af
00000280: 4795 8dbd 9e57 0580 9d62 0500 5d5a 0500
00000290: c66a 3000 5657 0500 7c58 0500 df7d 8fbe
000002a0: ce1a 2bbe 48cd 0680 e7e6 c53d 4458 0580
000002b0: e02c 083e a957 0500 023f da3d 5378 ab03
000002c0: 195e 0500 c104 303e 62f2 e43d 9b2e 5dbd
000002d0: ba5d 0500 2f5e 0500 4159 0580 9057 0500
000002e0: 4359 0580 225c ecbc 4d5a 0580 ecef e3bc
000002f0: 7260 1f3d 8dd2 c825 2f46 79bd 0150 78bd
00000300: a9f9 db3c 5e5a 0500 1c01 46be 5d5b 0500
00000310: 2b9a ab3d 3a34 1b3e 545e 0500 77b0 d3bb
00000320: 655c 0500 e35c 0580 962a 973d a91b dabc
00000330: 975e 0500 7a33 d4bd 385a 0580 743f 2a3e
00000340: ec5a 0500 7258 0500 745c 0500 b90d 323e
00000350: 8954 29be 6bf9 463d 025c 0500 f52d 8cbd
00000360: cea6 430b da17 383d f357 0500 945c 0580
00000370: 8857 0580 3a12 21bd 395a bebd 5458 0580
00000380: e45a 0580 135a 0500 7d5a 0580 5116 1fbe
00000390: 2db1 833d 4f88 babc 8462 0580 c768 983e
000003a0: 2159 0580 46d4 3b3e 2f4f d2bd 1b5f 0580
000003b0: 6987 b0bd 0ba5 703e 5a58 0500 770e 493c
000003c0: 7d5d 0500 2df0 4b3d eb34 60bc 0162 0500
000003d0: 9b61 0500 c357 0500 4d5f 0500 f48c bc3c
000003e0: 4d5b 0500 6014 5782 bc8a 47bb 2f5f 0500
000003f0: 1d58 0500 ea60 0500 4319 0181 c857 0500

features_extractor.vd_extractor.2.bias f4 [128]
0.0 0.021842625 -2.062549e-09 -1.9278581e-33 0.01498494 -0.0057623517 -7.873019e-06 0.0070318463
-1.5931122e-05 -2.2342692e-05 -1.1061028e-15 0.006750693 -2.8155158e-38 -7.913228e-06 -6.4292857e-38 -2.861441e-08
-0.00042581558 0.0 -0.0015401925 0.0029135738 0.009627342 -5.73041e-40 0.021710424 0.0
-0.0028979352 0.020253176 0.0 0.015991002 -4.9376394e-13 0.016786655 0.0 -1.4906358e-33
0.0099401055 -0.0030045023 -3.1517689e-06 -0.00010135001 0.012721992 0.0 -2.0867072e-31 0.0
0.0 -0.0030705205 -3.787173e-39 -0.0004514892 0.012679853 -0.0022616026 0.0 -0.0058036014
0.010444503 0.008694807 0.0028173754 -0.0078029186 -3.4751763e-06 0.0 -2.3976476e-09 -4.466748e-39
0.0025032582 -3.029661e-13 0.010840387 0.014014498 -5.0381923e-06 0.011355446 -1.5379661e-11 0.010145882
0.0017912207 -4.3216454e-14 0.012258275 0.0 0.0 -1.7457667e-11 -8.933497e-06 0.021779269
0.015733782 -9.810518e-16 0.011859278 -0.001868477 0.0 -1.7207627e-06 0.009271594 0.02064762
-4.0241673e-12 0.0051660584 0.0 0.024368215 -6.7279307e-06 0.00523857 0.0 -0.0018009726
-3.2314627e-15 0.016162442 -1.7380684e-10 -1.8765492e-24 0.029557526 0.027685001 -0.0038979836 0.025807243
0.0 0.024388494 0.011409794 -0.006154896 0.00652988 0.0055161393 0.0073797647 0.019686256
0.0036571934 0.0033642529 -9.884382e-05 -5.8964134e-17 0.0 0.025234211 -3.0024927e-05 0.033038303
-1.4909413e-33 -0.0053387266 -6.6720545e-28 0.0076274215 -5.276931e-39 -1.352199e-06 0.03756896 0.0033569268
0.021348082 -1.669269e-05 0.009583315 0.022900965 0.00017419297 0.0012899444 -0.0002672857 0.0074010636
00000000: 0000 0000 4eef b23c bfbc 0db1 0229 2089
00000010: 6583 753c 1cd2 bcbb 5c16 04b7 676b e63b
00000020: d3a3 85b7 916c bbb7 fe67 9fa6 eb34 dd3b
00000030: 904a 1981 0ec3 04b7 9505 af81 c1cb f5b2
00000040: 0040 dfb9 0000 0000 49e0 c9ba a8f1 3e3b
00000050: 00bc 1d3c 683d 0680 0fda b13c 0000 0000
00000060: 49eb 3dbb fde9 a53c 0000 0000 90ff 823c
00000070: 71fb 0aab 2b84 893c 0000 0000 a3ac f788
00000080: d3db 223c 2fe7 44bb fa82 53b6 df8b d4b8
00000090: e76f 503c 0000 0000 5f6f 878c 0000 0000
000000a0: 0000 0000 c93a 49bb 193d 2980 dbb5 ecb9
000000b0: 28bf 4f3c 6537 14bb 0000 0000 232c bebb
000000c0: 6c1f 2b3c aa74 0e3c b7a3 383b a0af ffbb
000000d0: 1337 69b6 0000 0000 ddc3 24b1 7aa3 3080
000000e0: b40d 243b 048e aaaa e19b 313c 119d 653c
000000f0: be0d a9b6 310c 3a3c eb47 87ad ea3a 263c
00000100: 65c7 ea3a 2ea1 42a9 efd6 483c 0000 0000
00000110: 0000 0000 2c8f 99ad 14e1 15b7 706a b23c
00000120: 22e4 803c 6c62 8da6 6b4d 423c afe7 f4ba
00000130: 0000 0000 f5f4 e6b5 e2e7 173c 3325 a93c
00000140: 7a96 8dac 0a48 a93b 0000 0000 da9f c73c
00000150: 7cc0 e1b6 4fa8 ab3b 0000 0000 9d0e ecba
00000160: f7d9 68a7 1967 843c 471a 3faf e330 1198
00000170: a022 f23c a8cb e23c 5075 7fbb b669 d33c
00000180: 0000 0000 61ca c73c 25f0 3a3c 03af c9bb
00000190: 9bf8 d53b bbc0 b43b f4d1 f13b 1245 a13c
000001a0: 86ad 6f3b cc7a 5c3b 5f4a cfb8 48f6 87a4
000001b0: 0000 0000 fab7 ce3c 0ade fbb7 2c53 073d
000001c0: a1b9 f788 7cf0 aebb 2372 5392 73ef f93b
000001d0: f075 3980 347d b5b5 e9e1 193d e3ff 5b3b
000001e0: 2ce2 ae3c 4707 8cb7 5603 1d3c ce9a bb3c
000001f0: 92a7 3639 5a13 a93a 7b22 8cb9 9f84 f23b

mlp_extractor.policy_net.0.weight f4 [192, 256]
-3.79921e-40 -3.84432e-40 4.91982e-40 4.90932e-40 -4.91475e-40 -4.94225e-40 -3.69878e-40 -4.90829e-40
-4.91847e-40 -3.86774e-40 4.91071e-40 4.92493e-40 -4.43316e-40 -4.90547e-40 -4.91206e-40 -4.91491e-40
4.91487e-40 -4.91398e-40 -4.9051e-40 4.91131e-40 4.92125e-40 -3.94746e-40 4.92174e-40 -4.95103e-40
-4.90522e-40 -3.56154e-40 -3.35119e-40 -3.17505e-40 3.5389e-40 -4.93473e-40 4.91777e-40 4.90946e-40
4.90655e-40 3.87368e-40 4.92306e-40 -3.76079e-40 -4.91616e-40 -3.50243e-40 4.90767e-40 -3.58192e-40
4.93575e-40 3.63452e-40 -4.91597e-40 4.91444e-40 -4.91185e-40 4.04479e-40 -4.90733e-40 -4.90768e-40
4.92254e-40 -3.90417e-40 -4.92803e-40 -3.90957e-40 3.52582e-40 4.9112e-40 -4.91845e-40 -4.90653e-40
4.90752e-40 -4.90777e-40 4.9203e-40 4.91368e-40 4.93696e-40 4.90833e-40 4.91487e-40 4.90998e-40
4.92e-40 4.90631e-40 4.92776e-40 -4.91135e-40 -3.49306e-40 -4.91308e-40 -4.91385e-40 3.58758e-40
3.19614e-40 -4.90738e-40 4.91316e-40 -4.90526e-40 -4.90578e-40 -4.90806e-40 -4.90808e-40 4.08935e-40
-2.27002e-40 -4.91337e-40 -3.50917e-40 3.94875e-40 -4.90487e-40 -3.6946e-40 -3.77238e-40 4.91438e-40
4.9162e-40 -3.82371e-40 4.92212e-40 4.91787e-40 -3.5638e-40 -4.9085e-40 4.9122e-40 5.02538e-40
4.90882e-40 -4.9111e-40 -4.93857e-40 4.03863e-40 3.8357e-40 3.95221e-40 4.9253e-40 4.91849e-40
-4.91213e-40 -4.91396e-40 -4.93808e-40 3.70274e-40 -3.7097e-40 -4.91605e-40 -4.91976e-40 -4.90487e-40
3.94426e-40 4.92999e-40 4.91256e-40 -4.90802e-40 4.91882e-40 3.72259e-40 -3.96398e-40 -4.93253e-40
-4.90785e-40 4.09742e-40 4.91934e-40 -4.92076e-40 -4.91866e-40 4.90624e-40 -4.91678e-40 3.85351e-40
4.93509e-40 -4.91154e-40 -4.9252e-40 -4.93131e-40 -3.79135e-40 -4.91824e-40 4.94503e-40 -3.7702e-40
4.93827e-40 4.92982e-40 4.93089e-40 -3.73693e-40 4.92953e-40 -4.9251e-40 4.9359e-40 -4.91093e-40
-4.91384e-40 4.9352e-40 -4.93235e-40 -3.79455e-40 -4.90597e-40 -4.93463e-40 -4.9118e-40 4.94436e-40
-3.61176e-40 -4.91873e-40 -4.93946e-40 -4.90862e-40 -4.93735e-40 3.41009e-40 4.91305e-40 4.912e-40
-4.91382e-40 4.9076e-40 4.907e-40 -6.11116e-40 -4.91696e-40 4.94347e-40 -4.93393e-40 4.90907e-40
-4.91668e-40 4.90575e-40 4.90745e-40 4.94298e-40 -3.71414e-40 -4.92503e-40 -4.9183e-40 4.93109e-40
-3.72366e-40 -3.85712e-40 -4.90781e-40 3.78209e-40 -4.92357e-40 -4.9222e-40 -4.93072e-40 5.00635e-40
3.55764e-40 4.93553e-40 3.96269e-40 -4.91585e-40 -4.91874e-40 -4.90506e-40 -4.91927e-40 -4.9145e-40
-4.94273e-40 4.9241e-40 -4.9086e-40 -4.90683e-40 -4.94419e-40 -4.93064e-40 -4.9079e-40 -4.91385e-40
-4.91323e-40 4.93125e-40 3.65823e-40 -4.9106e-40 4.90766e-40 -4.93163e-40 -4.92743e-40 -4.90976e-40
-4.9086e-40 3.07857e-40 -4.90987e-40 3.87306e-40 -4.92849e-40 -3.73726e-40 -4.93149e-40 -4.93229e-40
4.90777e-40 3.61684e-40 4.94378e-40 4.95248e-40 3.90151e-40 -4.9115e-40 4.92583e-40 -4.90571e-40
4.9325e-40 -4.91353e-40 -3.74957e-40 -3.5038e-40 -3.76764e-40 3.75883e-40 -4.91119e-40 4.90466e-40
4.09591e-40 4.92122e-40 4.9269e-40 -4.9094e-40 -4.9414e-40 -4.91522e-40 4.91815e-40 -4.91937e-40
4.9357e-40 4.94043e-40 -4.91399e-40 -4.90473e-40 4.92842e-40 4.94702e-40 -4.9114e-40 -4.9059e-40
-4.90533e-40 -4.91361e-40 -4.9145e-40 3.77057e-40 4.91093e-40 -3.54877e-40 4.90764e-40 -4.91419e-40
00000000: 1123 0480 a42f 0480 725b 0500 8558 0500
00000010: 085a 0580 b361 0580 1207 0480 3b58 0580
00000020: 125b 0580 2b36 0480 e858 0500 df5c 0500
00000030: c9d3 0480 7257 0580 4859 0580 145a 0580
00000040: 115a 0500 d159 0580 5857 0580 1359 0500
00000050: d85b 0500 644c 0480 fb5b 0500 2564 0580
00000060: 6057 0580 d0e0 0380 2da6 0380 1375 0380
00000070: 80da 0300 9a5f 0580 e05a 0500 8f58 0500
00000080: bf57 0500 d337 0400 595c 0500 5b18 0480
00000090: 6d5a 0580 56d0 0380 0f58 0500 7ee6 0380
000000a0: e35f 0500 28f5 0300 5f5a 0580 f259 0500
000000b0: 3959 0580 8667 0400 f757 0580 1058 0580
000000c0: 345c 0500 5340 0480 bc5d 0580 d441 0480
000000d0: dbd6 0300 0b59 0500 105b 0580 be57 0580
000000e0: 0458 0500 1658 0580 945b 0500 bc59 0500
000000f0: 3960 0500 3e58 0500 115a 0500 b458 0500
00000100: 7f5b 0500 ae57 0500 a95d 0500 1659 0580
00000110: b9cd 0380 9159 0580 c859 0580 12e8 0300
00000120: f47a 0300 fa57 0580 9759 0500 6357 0580
00000130: 8857 0580 2b58 0580 2c58 0580 f273 0400
00000140: ca78 0280 a659 0580 37d2 0380 c04c 0400
00000150: 4757 0580 e705 0480 961b 0480 ee59 0500
00000160: 705a 0500 e529 0480 165c 0500 e75a 0500
00000170: 71e1 0380 4a58 0580 5259 0500 df78 0500
00000180: 6158 0500 0459 0580 ac60 0580 ce65 0400
00000190: 3d2d 0400 b74d 0400 f95c 0500 135b 0500
000001a0: 4d59 0580 d059 0580 8960 0580 2c08 0400
000001b0: 1d0a 0480 655a 0580 6e5b 0580 4757 0580
000001c0: 804b 0400 485e 0500 6c59 0500 2858 0580
000001d0: 2b5b 0500 b50d 0400 ff50 0480 fd5e 0580
000001e0: 1c58 0580 3276 0400 505b 0500 b55b 0580
000001f0: 1f5b 0580 a957 0500 995a 0580 3432 0400
00000200: b45f 0500 2359 0580 f25c 0580 a65e 0580
00000210: e020 0480 015b 0580 7962 0500 fa1a 0480
00000220: 9760 0500 3c5e 0500 885e 0500 b411 0480
00000230: 275e 0500 eb5c 0580 ee5f 0500 f858 0580
00000240: c759 0580 bc5f 0500 f05e 0580 c421 0480
00000250: 9657 0580 935f 0580 3659 0580 4962 0500
00000260: d0ee 0380 245b 0580 ec60 0580 5358 0580
00000270: 5560 0580 98b6 0300 8f59 0500 4459 0500
00000280: c659 0580 0a58 0500 df57 0500 8ba7 0680
00000290: a65a 0580 0a62 0500 615f 0580 7358 0500
000002a0: 925a 0580 8657 0500 ff57 0500 e761 0500
000002b0: 5a0b 0480 e65c 0580 065b 0580 965e 0500
000002c0: 010e 0480 3533 0480 1958 0580 4b1e 0400
000002d0: 7e5c 0580 1c5c 0580 7c5e 0580 9173 0500
000002e0: badf 0300 d35f 0500 a350 0400 575a 0580
000002f0: 255b 0580 5557 0580 4b5b 0580 f659 0580
00000300: d561 0580 a45c 0500 5158 0580 d357 0580
00000310: 3d62 0580 765e 0580 1f58 0580 c859 0580
00000320: 9c59 0580 a25e 0500 c4fb 0300 e058 0580
00000330: 0e58 0500 bd5e 0580 915d 0580 a458 0580
00000340: 5158 0580 2e5a 0300 ac58 0580 a737 0400
00000350: dd5d 0580 cc11 0480 b35e 0580 ec5e 0580
00000360: 1658 0500 3af0 0300 2062 0500 8d64 0500
00000370: 953f 0400 2059 0580 1f5d 0500 8357 0580
00000380: fb5e 0500 b159 0580 3a15 0480 b8d0 0380
00000390: 441a 0480 cf17 0400 0a59 0580 3857 0500
000003a0: c675 0400 d65b 0500 6b5d 0500 8a58 0580
000003b0: 7661 0580 2a5a 0580 fb5a 0500 525b 0580
000003c0: df5f 0500 3161 0500 d259 0580 3d57 0580
000003d0: d85d 0500 0763 0500 1959 0580 9157 0580
000003e0: 6857 0580 b759 0580 f659 0580 151b 0400
000003f0: f858 0500 41dd 0380 0d58 0500 e059 0580

mlp_extractor.policy_net.0.bias f4 [192]
4.9103e-40 0.015864817 4.91964e-40 -0.000780547 -4.92425e-40 -6.8405134e-14 4.91658e-40 -1.7240997e-23
-7.7134056e-11 0.034108065 0.0003796335 -0.006966214 -6.819528e-26 0.010301977 0.07013442 0.020869974
-2.7051752e-13 0.027901344 -1.6093705e-37 0.051632628 0.0069589135 -2.9580572e-15 4.90799e-40 -4.354748e-17
-1.0954306e-31 0.013279032 0.012247327 0.016405698 0.0127630085 0.006319727 0.0105980225 8.960058e-05
0.019265415 -4.9415e-40 0.015222159 0.008373095 -2.5825007e-26 0.02501763 -4.4916807e-19 0.0037192428
0.012312375 0.019701773 0.021106848 -1.321054e-29 -1.3773014e-23 0.008382376 0.013998887 0.02309275
0.016209418 0.008932453 -2.2609316e-34 -2.549487e-37 0.0035987024 0.020513419 0.014074943 -3.1896388e-25
0.010839719 -0.0034431403 -0.0070334934 -0.0013289277 0.011802693 0.010904477 -3.073182e-16 0.012775663
0.014319545 0.0069700214 0.0050447085 0.007578157 0.010805162 0.021965079 0.015315363 0.0033870277
0.02154807 0.005126557 0.009805865 0.004393094 -5.561884e-30 0.023528403 0.01497933 -2.3151568e-21
0.011383556 0.015722416 -6.5934264e-14 -5.8100884e-37 4.907e-42 0.027501421 -0.00014557467 -1.478124e-23
0.004205855 -0.0027231106 0.011156116 0.032748297 0.014277619 0.0031865223 -4.9175e-40 -1.3313719e-09
0.033768628 -0.00011573841 -4.90694e-40 0.019931199 -3.259124e-08 0.03011671 0.027018622 0.016732221
0.0011611632 0.015548696 0.043752838 -0.0038428374 -0.00046588402 0.015317393 0.0060477993 0.01233039
0.03141992 -0.01226945 -1.121557e-29 0.0091129495 0.030740414 -4.91661e-40 0.0136539275 0.0070786066
-0.008087029 -8.075581e-23 0.01484808 0.010468101 0.018983452 -0.012174518 -1.8043666e-19 0.0010283521
-0.0024095867 0.014834694 0.004726837 0.0126236 -0.010443936 -4.9205e-40 -5.8183676e-27 0.015084566
-4.2077813e-10 0.009693927 0.0041227513 0.008761595 0.010253852 -0.007144588 0.0010034885 6.7808454e-05
0.0071446933 0.0374445 0.018720025 -0.00010043473 0.009426402 -0.0026724748 0.022818279 0.0070181224
0.022290397 -0.010993707 0.018418858 -0.0052871206 -6.762908e-33 -5.5523264e-16 4.91706e-40 0.009073537
0.017010417 -8.2215756e-32 -1.5521993e-12 0.023647022 -1.35414e-40 -2.246461e-09 0.005022349 -0.0021756124
0.020380419 0.020453323 -0.004012369 0.012345612 -5.8000006e-29 -0.0012206956 0.015733745 -0.017931048
-5.2001452e-21 0.02203145 0.039228518 0.020944597 0.02196891 -0.0041558053 4.91176e-40 0.006992016
0.0057650744 0.011624713 -1.5133341e-12 0.020754915 0.006523749 0.010205688 0.021180442 0.02562256
00000000: cb58 0500 eff6 813c 655b 0500 9f9d 4cba
00000010: ae5c 0580 e008 9aa9 8b5a 0500 a4be a699
00000020: 9d9e a9ae e6b4 0b3d 8c09 c739 d744 e4bb
00000030: e5d7 a895 a0c9 283c a3a2 8f3d 82f7 aa3c
00000040: af49 98aa 5c91 e43c 610e 5b82 bc7c 533d
00000050: 9907 e43b 8626 55a7 2658 0500 cad3 48a4
00000060: ed31 0e8c 4c90 593c 03a9 483c 3e65 863c
00000070: f01b 513c b615 cf3b 54a3 2d3c f2e7 bb38
00000080: 81d2 9d3c 7d61 0580 5d66 793c 4e2f 093c
00000090: 2cc2 ff94 c6f1 cc3c 2e92 04a1 8abe 733b
000000a0: d8b9 493c 9d65 a13c 45e8 ac3c 86f8 858f
000000b0: 5534 8599 3c56 093c 965b 653c 022d bd3c
000000c0: 9dc9 843c 6c59 123c c243 9687 5482 ad82
000000d0: 35d8 6b3b c20b a83c 979a 663c d86d c596
000000e0: 1499 313c 4fa6 61bb 3879 e6bb 6a2f aeba
000000f0: 1560 413c b1a8 323c 2928 b1a5 0451 513c
00000100: 869c 6a3c c764 e43b 154e a53b 3052 f83b
00000110: 2208 313c 1cf0 b33c 4aed 7a3c e5f8 5d3b
00000120: 9485 b03c adfc a73b c7a8 203c f2f3 8f3b
00000130: e89d e18e a3be c03c dd6b 753c a5ed 2e9d
00000140: 1882 3a3c 4ccc 803c 8478 94a9 02b5 4583
00000150: ae0d 0000 a94a e13c 67a5 18b9 94f4 8e99
00000160: 45d1 893b 3776 32bb 24c8 363c 1423 063d
00000170: adec 693c f9d4 503b cd5a 0580 7cfb b6b0
00000180: f950 0a3d 96b8 f2b8 db57 0580 c146 a33c
00000190: 73fa 0bb3 52b7 f63c 2856 dd3c 0312 893c
000001a0: 2c32 983a f5bf 7e3c 2d36 333d 1dd8 7bbb
000001b0: e541 f4b9 cdf5 7a3c 9e2c c63b 6705 4a3c
000001c0: 2db2 003d ce05 49bc 927a 638f 7b4e 153c
000001d0: 52d3 fb3c 8d5a 0580 b9b4 5f3c a8f3 e73b
000001e0: 757f 04bc 6d41 c39a 5d45 733c 6682 2b3c
000001f0: 2f83 9b3c a177 47bc a205 55a0 c5c9 863a
00000200: 28ea 1dbb 370d 733c 95e3 9a3b 37d3 4e3c
00000210: 0b1d 2bbc a35b 0580 427d e693 4125 773c
00000220: 4253 e7af 47d3 1e3c 2518 873b cb8c 0f3c
00000230: c6ff 273c 261d eabb 7d87 833a 6334 8e38
00000240: 081e ea3b 675f 193d bd5a 993c 7ca0 d2b8
00000250: 3271 1a3c b024 2fbb 66ed ba3c 47f8 e53b
00000260: 5a9a b63c f31e 34bc 25e3 963c 953f adbb
00000270: c975 0c8a f008 20a6 ad5a 0500 2ca9 143c
00000280: 6e59 8b3c be71 d58b e073 daab 66b7 c13c
00000290: 7b79 0180 2960 1ab1 8492 a43b b894 0ebb
000002a0: d6f4 a63c ba8d a73c 317a 83bb 4045 4a3c
000002b0: 280c 9390 bfff 9fba 0ee4 803c 22e4 92bc
000002c0: b874 c49d 4d7b b43c 15ae 203d 0194 ab3c
000002d0: 25f8 b33c 6c2d 88bb 3359 0500 481d e53b
000002e0: f3e8 bc3b 9575 3e3c 9bfb d4ab 3606 aa3c
000002f0: 2cc5 d53b c235 273c 9b82 ad3c 67e6 d13c
