waypoint_state_412_low_velocity_dynamic_1.onnx (onnx, 694169 bytes, 20 tensors)

log_std f4 [4]
00000000: dc36 ecbd 7614 d0bd 3fbb d8bd 8587 91bd
-0.11533901 -0.101601526 -0.10582589 -0.071059264

features_extractor.state_extractor.0.weight f4 [128, 16]
00000000: 7845 16be 303e f8bd 5e73 c3bd d972 9ebc
00000010: 4652 8fbd 5674 743c 68dc ec3c 2f4a 543e
00000020: 21ff 4dbd 1043 943e f9bd 123d 153f 1dbd
00000030: ecc3 303c 0a54 e2bc 6c96 67bd 22fa 783d
00000040: 84cb e33d babd fbbd 5e9e 0dbe 0ef0 68bc
00000050: 7f19 01bc 2234 a73c b927 cfba 1f79 6b3e
00000060: f7a8 283e 377d f8bd b79d 3ebd 380e b1be
00000070: ece9 e73d 0c77 fe3d 73b3 88bd 8969 76bd
00000080: c700 2ebe 5f9d 8a3c eb22 adbc d51c 07be
00000090: e1f5 623d c7f0 163d 3d32 0bbd cde7 78bd
000000a0: d37f f63d 9da6 4fbd a95e f5bc ac65 90bd
000000b0: da88 823d d37a 80bd 9fcb 1e3d bf9a c4bc
000000c0: ec17 b2bd 482c 243d 572b bebd 1e3e 243d
000000d0: 4972 56be 90f1 f0bd 3eb3 9d3e 39e1 7fbe
000000e0: 618f 17be c3e2 2abd ff26 48be a485 74bb
000000f0: af9e 8abe d1b2 b1bd d8d9 fbbc 4cdd 3d3e
00000100: 976a 13bd 3342 2d3d 1bab 2a3d e839 943d
00000110: 467e 1c3e 3c68 833e 28d3 99bd 8ac9 1bbd
00000120: 4dc4 2ebe 8bfc b5bd e3df bd3e e519 cd3e
00000130: 15f6 6cbd d0ce 2c3e a8f7 c7bd 1c82 6c3a
00000140: 993d 583d bee4 013e 69e2 423c 003c 1a3e
00000150: 9ee1 9e3d e1b3 20bd 999a bd3b aa01 d8bd
00000160: 8ed0 45bd 79be 213e 958e 113e eb13 75bd
00000170: 4904 1bbc 8d45 e33d 310d 87bd 7770 843c
00000180: 94a7 bcbd 246e b9bd 690b 883d ceb1 55be
00000190: f278 5cbe 56e6 403d fd28 38be 9a55 84be
000001a0: 458d 743d f403 6abe 494a b0bc 9246 8b3d
000001b0: 3212 be3d 2a7d 8e3d 9fec 643d c73d 4a3d
000001c0: 38d7 1dbe 0537 4abe 38ff 163d c9a4 d3bd
000001d0: a093 f5bd 43b5 52be a3f0 36be b70f 28be
000001e0: b166 2b3d a8c9 b53d 98eb 5c3e 64b5 60bd
000001f0: 85ef 673c 7476 ba3c 0511 4dbe 7c59 3e3e
00000200: 1424 d73c 8d7f 893e f6cc 15bd cea1 7c3e
00000210: 719e 763b b02b 52be b8cc 5abd 36fa aebd
00000220: 4420 1b3e a881 bbbd 344a 41be d3f7 303e
00000230: f723 9c3d 9976 053b c0b1 5bbc 150d 35bd
00000240: 169d 843d 3ac3 86bd 5ee4 eabc 4dfb 52be
00000250: 59b7 583c a3e0 083e 8af1 a53e 222d 5c3e
00000260: 6b2a 7e3d 675f 993e 1a3a 05be 8df6 03be
00000270: 909c 69bd cca4 2dbd 2a76 53bc d36b 82bc
00000280: 006f 2fbe 815f d13d bf80 85bd 0d0f 29be
00000290: 7ebe 2d3d da92 1f3e a6e0 a1bc 7813 5ebe
000002a0: 6f2a f6bc 4ddc 2e3e bdf6 8fbd 1b99 903d
000002b0: e107 183e f28a a83d 5c32 b23c b208 c6bc
000002c0: 34e5 75bd 4ff7 583c a643 863d 715b 903c
000002d0: 8020 953d 33d1 9d3d 3077 3f3d fcbf b7bd
000002e0: b984 07be 7284 1c3e 7a9f 00be af50 4e3e
000002f0: 8821 b73d 0de0 44be e33c 0f3d ca79 033e
00000300: 5d08 643d cbda ce3d e245 373c 9066 8c3d
00000310: 4f5c 423e 0b45 0bbe d462 563b 799d ddbd
00000320: 4fc8 063c aee1 a3bd 3bb3 94bd cd3b 0a3e
00000330: 0956 8b39 54a6 6f3d c1ce 14bd 883c 893d
00000340: 7f58 e8bd 7399 76be e981 78bb fc82 9fbd
00000350: dc1f 253e 472b 1f3c 1767 c43b ec10 903e
00000360: dc8c a6bd 202d f73c e2cd 273d 9fbf 86be
00000370: c917 de3a 3ca1 9dbd 0ac5 673d 2c92 543d
00000380: f4d8 df3d 6fb7 1ebe 5836 18be a375 83bb
00000390: 2532 793d d119 323c 69f1 803d e1e6 563e
000003a0: 0b41 10be 63bd bd3d a7b0 f13d 538c d3be
000003b0: a01a 95bc e64b 5a3e f771 e33d c3c8 0c3d
000003c0: c817 febd 6bfd bf3d 7677 27be 7917 163e
000003d0: e764 863d bcc4 72bc 6773 22bd 8093 f4bc
000003e0: 1cd5 a9bc 9e4e 613e 1901 5dbe 749f d13d
000003f0: 9d6e e13d 8548 123e 4cd8 fe3d 720e d73c
-0.14674938 -0.12121236 -0.09543489 -0.019341873 -0.06998114 0.014920315 0.028913692 0.20731424
-0.050292138 0.28957415 0.035825703 -0.038390238 0.010788899 -0.027627964 -0.056539938 0.06078542
0.11122802 -0.12292047 -0.13829944 -0.01421739 -0.007879614 0.020410601 -0.0015804685 0.22995423
0.16470705 -0.12133258 -0.046537127 -0.3458116 0.11323914 0.1242505 -0.06674852 -0.06015924
-0.16992484 0.016920744 -0.021134814 -0.13194592 0.05541027 0.036850717 -0.033983458 -0.060767937
0.12036099 -0.050696004 -0.029952364 -0.07050642 0.063737586 -0.06273427 0.038768407 -0.02399957
-0.08695969 0.040081292 -0.0928561 0.040098302 -0.20942034 -0.117648244 0.30800813 -0.2498826
-0.14800788 -0.041720163 -0.19546126 -0.0037311101 -0.2707419 -0.08676685 -0.030743524 0.1854145
-0.035990324 0.04229946 0.041667085 0.07237607 0.15282544 0.25665462 -0.07510978 -0.038034
-0.1706707 -0.088860594 0.37084875 0.40058818 -0.05785187 0.16875768 -0.097640336 0.00090220734
0.05279312 0.12684914 0.011894801 0.1506195 0.07757877 -0.039234046 0.0057862517 -0.105471924
-0.048294596 0.15795316 0.14214547 -0.05983345 -0.009461471 0.1109725 -0.06594313 0.016166909
-0.092116505 -0.09054211 0.06642801 -0.20868608 -0.21530512 0.047094665 -0.17984386 -0.2584656
0.059705038 -0.2285307 -0.021519797 0.068005696 0.09280814 0.06957467 0.055889722 0.04937532
-0.1541413 -0.19747551 0.03686449 -0.10334165 -0.11991048 -0.20576958 -0.17865233 -0.16412245
0.04184598 0.088763535 0.21574247 -0.054860488 0.014156227 0.022761561 -0.20026024 0.18588823
0.02626232 0.26855126 -0.03657242 0.24671099 0.003763106 -0.20524478 -0.05341789 -0.08543818
0.15149027 -0.09155589 -0.18875962 0.17282037 0.07624047 0.002036488 -0.013409078 -0.04420193
0.06475274 -0.06580205 -0.028673347 -0.20603676 0.013227307 0.13366942 0.32410842 0.21501592
0.06205217 0.299556 -0.13010445 -0.1288702 -0.057034075 -0.04239349 -0.0129065905 -0.015920555
-0.17132187 0.10223294 -0.06518697 -0.16509648 0.042417996 0.15583363 -0.019760441 -0.21687114
-0.03004953 0.17076226 -0.070294835 0.070604526 0.14846756 0.08229627 0.021752529 -0.024174068
-0.06003304 0.013242557 0.06555872 0.017621728 0.072815895 0.07705917 0.046744525 -0.08972165
-0.13234223 0.15284899 -0.12560835 0.20147966 0.089419425 -0.19226094 0.034970175 0.12839428
0.05567204 0.10100325 0.011186095 0.068555 0.18980525 -0.13600557 0.0032712715 -0.10821051
0.008226468 -0.08002029 -0.07260748 0.13499375 0.00026576247 0.058508232 -0.03632999 0.067009985
-0.11345004 -0.24081974 -0.003791923 -0.07788655 0.16125435 0.009714908 0.0059937346 0.2813791
-0.081323355 0.030172884 0.04096783 -0.2631807 0.0016944344 -0.07696769 0.056584395 0.051897213
0.109300524 -0.15499662 -0.1486448 -0.004011826 0.060838837 0.010870413 0.06296045 0.20986511
-0.14087312 0.09264638 0.11801272 -0.41317996 -0.018201172 0.21318015 0.111057214 0.03437115
-0.1240688 0.093745075 -0.16354164 0.14657392 0.06562214 -0.014817413 -0.039660838 -0.02985549
-0.020731501 0.22002646 -0.2158245 0.102354914 0.11007426 0.14285477 0.12443599 0.026252005

features_extractor.state_extractor.0.bias f4 [128]
00000000: becf 283c 7949 983b 6ce8 f23a aba2 6439
00000010: 148f 8bbc 362c a23c 8b50 983c cca9 a83c
00000020: aa8f 473c f647 503c 2f42 cfbc 5d42 273c
00000030: 0972 c9bb b021 3e3d 5c64 9b3c 8d0e a63c
00000040: 3bf1 873c 67d2 253c fde9 c23c 72f3 e93c
00000050: 41ee 193d be45 463c 9b42 6c3d 670d 123c
00000060: 96d3 3c3c 2d1a e93c ea2d 903b 0b0c 023d
00000070: c51e 2f3c 6559 823d e4ff 893d d7c6 803c
00000080: 53b6 3dbc 9da9 503c 346a af3b f5ce a53c
00000090: 69ae 4cb9 47b8 a03b f1cf b0bb 9afc 273c
000000a0: 4152 a43b 99ed 81bc 5ca9 93bb fd56 803c
000000b0: 018f 113d c036 13bb 92f5 6d3d a7b1 543b
000000c0: f877 a53d bca8 363d c986 10bb fbe9 b83a
000000d0: aa03 a1ba ccab e73b b3a3 193b 6cf8 b13a
000000e0: e58f fd3c b015 443c 46a5 3f3c 43dd 943d
000000f0: fc16 2ebc 1645 a4bc 5530 59bc 73d3 633b
00000100: df67 94ba a8e8 4e39 9f30 af39 a634 833d
00000110: b943 9dba c8a6 e43c 446f 7dbb 79a7 743d
00000120: 5622 86bb 9b7c 573b 8e2a cb3b 58cf 1c3c
00000130: b6dc e2bc 3fa9 37bc 45d3 1f3c 0606 04bc
00000140: fed3 833c 9224 84bc 449a 9b3c 2172 d13c
00000150: c5df 523c bf9a 653c 6449 cfba 5d5d 063c
00000160: 8c75 4d3d 8bdc fc3c 49cf 533c a7e8 733d
00000170: 6661 29bb 68af a53b 3033 c43b 6b57 bb3c
00000180: 57a4 ffba defc 9b3c 2c92 123c e1fd 7c3c
00000190: 4dca 893c 43ea 34bc 580b 153c 148f 543c
000001a0: e029 823c 120b 103c 2631 473d dec3 473c
000001b0: fdcc fe3b 2642 993c 0f03 b83d 7340 813d
000001c0: e5a3 9e3c fd72 aabb 8a67 543c d56c 023c
000001d0: cd53 2d3a 7d32 703c a05c 5dbc 11c7 72bc
000001e0: ca7d 0a3c 2396 773c 50c7 ab3c ddfc 88b8
000001f0: 3ddb 55b9 65c4 483c 0d8b ac3c ed19 8f3c
0.010303436 0.0046474305 0.0018532402 0.00021804373 -0.017035998 0.019796472 0.018593093 0.020588778
0.012180248 0.012712469 -0.025300113 0.010208693 -0.0061476273 0.046418846 0.018968754 0.02027061
0.01659452 0.010120965 0.023793215 0.028558467 0.037580732 0.012101589 0.057680707 0.008914328
0.011525055 0.028454864 0.0044000046 0.031749766 0.010688488 0.06364707 0.067382604 0.015719814
-0.011579114 0.012735751 0.0053532366 0.020240286 -0.00019519929 0.00490478 -0.0053958823 0.010253096
0.0050146882 -0.015860366 -0.004506273 0.01566648 0.03553677 -0.0022463053 0.058095522 0.0032454522
0.08079523 0.04459451 -0.0022052994 0.0014107818 -0.0012284417 0.0070700403 0.002344352 0.0013578064
0.030952403 0.011968061 0.011697119 0.07268765 -0.010625597 -0.020052474 -0.013256152 0.0034763485
-0.001132246 0.00019732362 0.00033414827 0.06406526 -0.0011998332 0.027911559 -0.0038671056 0.059730027
-0.0040934486 0.0032880667 0.0062001413 0.009570919 -0.027693134 -0.011209785 0.00975496 -0.008058077
0.016092297 -0.01613072 0.018994458 0.025567116 0.012870734 0.014013945 -0.0015814719 0.0082009705
0.05016093 0.030866882 0.012927839 0.059548046 -0.0025845408 0.0050563104 0.0059875473 0.022868833
-0.0019503933 0.019041475 0.008945983 0.015441389 0.016820097 -0.0110421805 0.009096943 0.012973566
0.015889108 0.008791702 0.048630856 0.0121926945 0.0077759014 0.0187083 0.089849584 0.06311121
0.01936526 -0.005201696 0.012964139 0.007960518 0.00066119136 0.014660475 -0.013510853 -0.014817969
0.008452842 0.015111479 0.020969063 -6.532085e-05 -0.00020394936 0.012253855 0.021062398 0.017468417

features_extractor.state_extractor.2.weight f4 [128, 128]
00000000: 0dd9 f2bc 9836 6a3e 2a3d 4bbd 9e5b 71be
00000010: acaf 6ebc 65c9 97bd fc4d b53b 5bac 9e3d
00000020: d11f 513e 552e 8c3d 1a2d 97bd ceed 7bbe
00000030: 3077 5abd 7791 563d c8ea 15be 3ac6 92be
00000040: 1b56 403d b9a3 57be e661 423d 43a9 a1bd
00000050: 13f8 ebbd ae09 1abe 25f4 d1bc 39b3 993d
00000060: faaa 113e 434a 4b3e dc4f 693d 1411 25bd
00000070: 15da e9bc 1e93 003e eb68 ab3e 97e9 ec3d
00000080: 11f8 4cbd a473 cb3d 01ae 993d 4953 813a
00000090: 403b eabd 0057 08be 880b 393e 2cae f03d
000000a0: 30e8 71bd 7d8a 793d 82d0 8e3d 6863 98bd
000000b0: fd26 debd 953b e6bb 939f 083d 239f 643c
000000c0: cc01 a23d d796 513e 7679 b83d 98c6 4ebd
000000d0: 361c 57b8 7671 ca3c 2387 2bbd 9856 36be
000000e0: 2968 bb3c e8dc fdbc 6a6c 8ebc 00cc e13c
000000f0: e79e c0bb a0fc 873d 7076 8b3e 9879 d83d
00000100: 25a3 d9bc 579f 4c3e b0fc bebd 62d1 b5bd
00000110: c90e 763d 85b0 a73d 266c 813b e1bc cc3d
00000120: 62af 643e 323b e9bd 327b 213e dfea 483e
00000130: d9f9 85bd 4845 d8bd e28d 58b9 8ea4 e63b
00000140: ce72 073d 3408 023d fb34 893d 5bc0 5bbd
00000150: 510e 463e e3c1 013e b617 15be 5e73 393e
00000160: 63a2 833e 544d ccbd 3c50 263c dcfc ad3e
00000170: f9f6 cabd 4a3c 17be ba14 4d3e 46f2 14bd
00000180: 5c25 e53c 8662 593e 9440 7fbe fc5b 29bd
00000190: 2623 2b3e 60dd 923c 1225 ee3c 9cd4 59be
000001a0: 2d20 5a3c f07d 4bbe 84ff debd d7a7 9bbe
000001b0: 472e 23bd a076 633d fe27 b43c fa88 e9bd
000001c0: 7ff0 5fbe 4386 8eac 0f42 393e cfff 0ebe
000001d0: 2d69 f03d 97b8 833d cef1 90bc cc70 393e
000001e0: 8359 873c 760c 83bc 5dc3 4f3e 868c 333e
000001f0: ee4a f83d c312 a03d 9aa3 f0bd 4a99 8cbd
00000200: ba37 f4bc 92a7 1ebc b277 a7bc 4b8c 6b3d
00000210: 354d 1fbc e0cb 763d 9ebc 43bc 1d18 da3d
00000220: eac6 3fbe 846b 85be d187 e2bc 1edd 113d
00000230: 718e dcbd f6be ff3d 2e04 e9bc 7a95 2c3e
00000240: 79be 5a3d e799 2fbe c98a 463e 23fa ed3d
00000250: 74ee ecbd 84b8 f73c 4f75 153d a143 c43c
00000260: f525 84bd c45f 67bd 6830 0f3b 2bab 553d
00000270: 0647 853d 42f7 a0bc b2f9 793d c9bc 573e
00000280: e05d bd3b 519e 1c3d bd05 b53e b3c0 c13d
00000290: 0a0d 85bd 7998 1c3e f625 95bb 582c 27be
000002a0: 0398 2c3e 67e9 5a3e 1e25 323d 1459 17be
000002b0: dbad 6bbd f3eb c1b3 d8af c03d 13da 9bbd
000002c0: e111 e1bc 59d0 063d b9cf 3c3e cea5 873a
000002d0: 6add 0d3d c899 a33d 4daf 563d 1f9c 55bc
000002e0: bfe8 f2bc 99fb 43bd 77af 97bb e1e9 673e
000002f0: 8aab a8bb 48ad 7d3c 70bb 93bd fdff 4abe
00000300: ae94 66be fff2 073e ee79 cabd 921f 133c
00000310: 16d0 7abe 9f57 1f3d dd78 c73c 4dc4 d83c
00000320: 4024 0c3d ef73 9bbb 25c1 10bd e6d9 4bbd
00000330: 77aa eb3b 39fa 293d a6dd be3d 1aae 06bb
00000340: d488 143c 82a5 443d ce04 ea3c 8f7d 36be
00000350: 75d7 143e 24ad ec3d 0940 ae3d e257 943c
00000360: e764 7a3d 1c27 de3d 0b56 eb3c 8b7e f73c
00000370: ae50 5c3b bf84 31be 9d1a 363e 9f85 e93d
00000380: e2e0 dbbd 17d2 0c3e 1193 6f3e a561 8e3d
00000390: a104 ffbd 0882 593c 84fb 4abe 286c 563d
000003a0: 023f 42bd 049e 843c 9237 08bd 6dc7 9dbd
000003b0: 3421 2ebc e1e1 d23d fe7f 5f3d af57 c4bc
000003c0: d011 b83c 6b62 1d3e eee1 143d 8993 2bbb
000003d0: e879 c6bd 039f 5b3e cb1a 5a3d 7b8a 40be
000003e0: 378e 3bbd ab9e e13d a521 b5bd 9f72 d03d
000003f0: bb8c 36bd 874b 3e3d 0bd2 01bd 6e53 813e
-0.029644514 0.22872388 -0.049618877 -0.23570105 -0.014568251 -0.0741146 0.005532978 0.07747718
0.20422293 0.06844775 -0.07381649 -0.24602434 -0.053336322 0.05238482 -0.14640343 -0.2866686
0.046957117 -0.21058549 0.047456644 -0.07893612 -0.11521926 -0.15042755 -0.025629112 0.07504887
0.14225379 0.19852547 0.056960925 -0.04029949 -0.028546372 0.12556121 0.33478484 0.11567991
-0.050041262 0.09934166 0.07503892 0.000986674 -0.11437082 -0.13314438 0.18070805 0.11751971
-0.059059322 0.06092309 0.069733635 -0.07440835 -0.1084728 -0.0070261457 0.033355307 0.013953957
0.07910499 0.20467697 0.09007542 -0.050482363 -5.1286268e-05 0.024712306 -0.041876923 -0.1780647
0.022876816 -0.030989125 -0.01738568 0.027563095 -0.0058783176 0.06639981 0.27238798 0.10570067
-0.026567051 0.19982658 -0.0932554 -0.08877827 0.060072694 0.08187965 0.00394966 0.09996963
0.22332528 -0.11388244 0.15769652 0.19620846 -0.06541795 -0.10560089 -0.0002065222 0.0070386594
0.03306847 0.031746104 0.06699558 -0.05365024 0.19341399 0.12671618 -0.14559826 0.18110415
0.2570983 -0.09975687 0.010150965 0.3398198 -0.099103875 -0.14769092 0.20027438 -0.036363862
0.027971916 0.2122899 -0.24926978 -0.04134749 0.16712627 0.017927825 0.02907041 -0.2127251
0.013313335 -0.1987226 -0.108885795 -0.3040149 -0.039839055 0.05553305 0.021991726 -0.11403079
-0.21869086 -4.050789e-12 0.18091606 -0.1396477 0.11738811 0.06431692 -0.017693426 0.18109435
0.016522175 -0.015997153 0.20289369 0.17534074 0.12123667 0.078160785 -0.117499545 -0.06865175
-0.029811729 -0.009683507 -0.020442817 0.05750684 -0.009722997 0.060253024 -0.011946825 0.106491305
-0.18728223 -0.2605859 -0.027652653 0.035611264 -0.10769356 0.12487595 -0.028444376 0.16853896
0.053404305 -0.17148553 0.1938888 0.116199754 -0.11568919 0.030239351 0.036488827 0.02395803
-0.06452552 -0.056487814 0.002184892 0.05216519 0.06507687 -0.019649152 0.061029144 0.2106811
0.005779013 0.03823692 0.3535594 0.094605826 -0.06496628 0.15292539 -0.0045516444 -0.1632551
0.16854863 0.21378098 0.04349243 -0.14780074 -0.05753885 -9.030182e-08 0.094085395 -0.07609954
-0.027474346 0.03291354 0.18438615 0.0010349096 0.034634985 0.07988316 0.052413274 -0.01303771
-0.029651998 -0.047847364 -0.0046290713 0.22647811 -0.005147402 0.015483208 -0.07213485 -0.19824214
-0.22517654 0.1327629 -0.098865375 0.008979695 -0.24493441 0.03890192 0.024349624 0.026460791
0.03421426 -0.004744045 -0.035340447 -0.04976835 0.007191952 0.041498397 0.0931962 -0.002055055
0.0090658255 0.048009403 0.028566744 -0.17821334 0.14535315 0.115564615 0.085083075 0.018108312
0.061131384 0.10847303 0.028727552 0.030211708 0.0033617425 -0.17335795 0.1778359 0.11402439
-0.10736252 0.13752018 0.23395945 0.06952218 -0.12452055 0.013275631 -0.19822508 0.05234924
-0.04742337 0.016188629 -0.03325612 -0.07704053 -0.010628033 0.10296989 0.054565422 -0.023967592
0.022469431 0.15369575 0.036348276 -0.0026180467 -0.096912205 0.21447377 0.053248208 -0.18802826
-0.045789924 0.11016592 -0.08844308 0.10178112 -0.044567805 0.046458747 -0.031694453 0.25258964

features_extractor.state_extractor.2.bias f4 [128]
00000000: da01 483c ab46 b93b 09f2 18bb f47f 20bc
00000010: d94b 863c fc11 983c 3652 dd3b 5f6e f53a
00000020: 1860 bdba cfcd d13b c267 113d 0152 353c
00000030: 2d26 123d 84bd 213c f09d 363c 4422 c83b
00000040: 419b ae3b c6ca 113c cea1 e93a 4fa1 f13b
00000050: 6251 fc3c 8ba3 1c3d c62f 132f 8505 703c
00000060: 1a1a 263b 6058 5e3b c7ae 483c 4844 083b
00000070: f7bf fe3b 568f 1a3c 87ab 2b3c 2521 7e3c
00000080: 3ce7 5b3c e83a 273b 98e5 ac3c 4dea 033c
00000090: b283 d83c aa6c 0e3c 07ca 833b 93b7 ad3b
000000a0: e502 f3bb d249 83bb 5bc9 0a3b ff73 603c
000000b0: 6448 d9bb ba1a d33b 8575 41bb 7ecf 2b3b
000000c0: 4bc9 2a39 a268 213d 1dcd 39ba 7dd4 603c
000000d0: 77a5 a03b 084b 7f3b d3cd 7c3c 87fd ea3b
000000e0: 3a2a bd3c 5eab 6d3c b10a 7d3c 263d 063c
000000f0: e59f 9e3c 0ad1 fc3c aab1 163c cf41 543b
00000100: 0000 0000 109c 7d3c 312c 843c 84a6 debb
00000110: bce7 ec3b fa15 a03b 212c 5f3c 4334 58bb
00000120: a05e c63b 8875 42bb 0024 253c 0658 a93b
00000130: 3e93 c03c 5292 a43a 3b71 b4bb bca1 4ebc
00000140: 9e6a 723c e68c b83b f6d0 bdbb 7989 8f3b
00000150: 3c33 3a3c 1ad7 a13b 24f0 d5ba beac 163c
00000160: a184 a23a c4f6 fbbb 9661 afba 7623 01bc
00000170: 8afa 013c 09a2 763b d9eb 1a3c 0000 0000
00000180: a4ea 423c bd27 913c 6aa2 c6bb df98 613b
00000190: 5dc7 973c c2c2 923c 8419 d0bb e7dd cc3b
000001a0: d78e 3e3b 1041 3c3c 105c 8f3c e885 41bc
000001b0: 594b ab3b e93b 0dba 6997 1c3c 4d8c 5c3c
000001c0: b1b0 d53b e3ee 50bb ed69 2e3c 2d07 86bb
000001d0: 1372 012d a0c1 dbb9 9c69 ac3c c19a 84bb
000001e0: 77e5 773b d6fb a8bb 70b1 833c 04b7 033c
000001f0: 5ea2 373d 2249 153b 7bd5 20bc fd6e e2b6
0.012207473 0.005654176 -0.0023337624 -0.009796131 0.016393589 0.018563263 0.006754185 0.001872491
-0.0014448194 0.006402708 0.03549934 0.011066915 0.03568094 0.009871844 0.011146054 0.0061076004
0.0053285663 0.008898443 0.0017824711 0.007373966 0.030800525 0.038241904 1.3386545e-10 0.014649753
0.0025345148 0.0033927187 0.012248701 0.0020792652 0.007774349 0.009433588 0.010477907 0.015510832
0.01342183 0.0025517289 0.021105573 0.008051467 0.026429985 0.0086929 0.0040218863 0.005301425
-0.0074161165 -0.004006603 0.0021177146 0.013699531 -0.006630944 0.006442395 -0.002951951 0.0026216204
0.00016287451 0.039406426 -0.0007087754 0.013722536 0.0049025374 0.0038954634 0.015429932 0.007171336
0.023091424 0.014506189 0.015444444 0.00819329 0.019363353 0.030861396 0.009197632 0.0032387858
0.0 0.015479103 0.016134353 -0.0067947526 0.0072297733 0.0048854323 0.013621361 -0.0032990135
0.0060537606 -0.0029672105 0.010079384 0.005167964 0.02350771 0.0012555814 -0.005506662 -0.012611803
0.014795927 0.005632031 -0.0057927324 0.0043804017 0.011364754 0.004938972 -0.0016322178 0.009196458
0.0012399146 -0.007689329 -0.0013380523 -0.00788199 0.007933268 0.0037633202 0.0094556445 0.0
0.011896763 0.017719144 -0.0060618417 0.0034423394 0.018527681 0.017915133 -0.006350698 0.0062520388
0.0029076838 0.0114901215 0.017499954 -0.011811711 0.005227488 -0.00053876505 0.009557583 0.013461185
0.0065213074 -0.0031880669 0.010645372 -0.004090211 7.358131e-12 -0.00041915197 0.021046452 -0.0040467684
0.003782598 -0.0051569743 0.01607582 0.00803924 0.04483258 0.0022779186 -0.009816523 -6.7482456e-06

features_extractor.vd_extractor.0.weight f4 [128, 1]
00000000: eae6 91ba 651d 0ebb 3134 b7b8 2314 0f3e
00000010: 757f 10bd aa62 053d 5578 d7bc a8b9 d8ba
00000020: 39e4 3fb8 2226 25a7 01f8 26bd 5c76 98bd
00000030: a12e 353e 1b29 613e e8a0 713e 0d94 d9b6
00000040: 69ea 1abb d90e 263e 6504 a73d 111e 0c3d
00000050: 772b f83d d1c7 1a3e 65a4 a93d 7a74 523e
00000060: 3c31 febc fd89 02bd 0ffc 8fbc 74f7 5b3e
00000070: 9332 333e a36c a13b 1796 173e 3cc9 583d
00000080: d99c 3d3e 3093 f5b9 df93 d0bc 45c0 12bd
00000090: c024 89aa 8fd7 51bb a0c0 ecb4 b1f7 173e
000000a0: f9f2 513e a5d1 8abd a84f 993d ffcf f3bc
000000b0: cafd 4a3e ba50 b7bb 954f 803d bfc5 24bd
000000c0: 259f 18bd 27a5 903d 3b45 953e 3a30 823d
000000d0: 8708 51bb 0572 10bd 94bb cbba 7d74 31b8
000000e0: 7fd3 14bb 231b b63e d8f6 b6b9 9dab 663e
000000f0: 6fd9 323e 8876 99b8 8c7b 663e 0743 0d3e
00000100: 1e6f 343d c0cb 66ba 6763 b93d 9251 45a9
00000110: 2774 173d 6b28 393e e1f1 71b8 af70 f73d
00000120: cf6e 65bd 4524 1bbc ae66 c83d 70e0 d33d
00000130: 5603 23ba 7743 743e d68e 6abc 75d9 403e
00000140: 4d49 5abd 40c7 02bd e852 a93b 722a 4c3e
00000150: cef9 193d 1fb1 ea3c c34a c8bc b53f 6a3d
00000160: 532d c3ba d46e 0a3e 9383 78bd 7159 8a9a
00000170: fdb3 d39b f2d5 293e ab4a ec3d 24fc 84bd
00000180: 96de d9b4 828f cfbc b2cf 983c e499 c33d
00000190: ec35 043e 3df4 de3d 65cb 9c9b c2cc 523e
000001a0: 3fbb 75b2 64e9 5d3d b607 833d 13f1 82b8
000001b0: 4ee0 4d3d 0f79 213e c591 82bd 024a 37a8
000001c0: 57ff 67bc 40af 363e ef89 9a3d c753 d4ba
000001d0: 8143 efb4 8357 07bc 4f25 89bd 53bf ed3d
000001e0: d79c f8bd 68eb b7bb f7ad 333d f0b4 2bab
000001f0: 0759 81b9 10ed c4b6 e16a c4ba f589 d7bc
-0.001113144 -0.0021685 -8.7358414e-05 0.13972525 -0.035277802 0.032564797 -0.026302496 -0.0016534822
-4.5750498e-05 -2.2919022e-15 -0.04076386 -0.0744445 0.17693569 0.21988337 0.23596537 -6.4843393e-06
-0.0023638254 0.16216601 0.08155135 0.03420836 0.12117665 0.15115286 0.08283309 0.20552245
-0.031029336 -0.031869877 -0.017576246 0.21481115 0.17499761 0.0049262806 0.14803348 0.052926287
0.18516864 -0.00046839705 -0.025461135 -0.035827894 -2.436159e-13 -0.0032019352 -4.409858e-07 0.1484058
0.20502843 -0.06778268 0.07485896 -0.029762266 0.19823375 -0.00559434 0.06265179 -0.040227648
-0.037261147 0.0706275 0.2915438 0.06356855 -0.0031895952 -0.035264987 -0.0015543574 -4.2308577e-05
-0.002270907 0.3556758 -0.00034897658 0.22526403 0.17465757 -7.317687e-05 0.22508067 0.137951
0.044051282 -0.0008804165 0.090521626 -4.3813538e-14 0.036976006 0.18081824 -5.7684145e-05 0.120820396
-0.05601388 -0.009469097 0.097852096 0.103455424 -0.00062184536 0.23853861 -0.014316281 0.18832953
-0.05329256 -0.0319283 0.005167354 0.19938067 0.037591748 0.028648911 -0.024449712 0.057189662
-0.0014890827 0.1351884 -0.060672354 -5.721996e-23 -3.5023337e-22 0.1658552 0.11537679 -0.064934045
-4.0581352e-07 -0.025336985 0.018653724 0.09550837 0.12911195 0.108864285 -2.5939476e-22 0.20585921
-1.4303452e-08 0.054177657 0.06397955 -6.2437866e-05 0.05026274 0.15768836 -0.063754596 -1.01745886e-14
-0.014159999 0.1784029 0.0754584 -0.0016199284 -4.4566335e-07 -0.0082606105 -0.06696569 0.11608758
-0.1213929 -0.0056127794 0.043867078 -6.1002505e-13 -0.00024671128 -5.868853e-06 -0.0014985466 -0.0263109

features_extractor.vd_extractor.0.bias f4 [128]
00000000: 0000 0000 0000 0000 0000 0000 ebd6 ff3c
00000010: 0000 0000 2a2d a63c 0000 0000 0000 0000
00000020: 0000 0000 0000 0000 0000 0000 0000 0000
00000030: acf4 513c fead df3c 378d cc3c 0000 0000
00000040: 0000 0000 4338 363c 59ce 6f3c 2765 ed3b
00000050: 6165 a63c 567e ca3c 63a9 473c d572 af3c
00000060: 0000 0000 0000 0000 0000 0000 0a38 e83c
00000070: 6cb0 013d 01e1 e0bb 1d4c bb3c 31b3 f33c
00000080: b933 d03b 0000 0000 0000 0000 0000 0000
00000090: 0000 0000 0000 0000 0000 0000 a7a2 ff3c
000000a0: 3ff5 833c 0000 0000 fff3 593c 0000 0000
000000b0: 4926 9f3c 0000 0000 9c04 383b 0000 0000
000000c0: 0000 0000 4503 c83c 9be0 a73c 2439 9d3c
000000d0: 0000 0000 0000 0000 0000 0000 0000 0000
000000e0: 80d3 14bb 32ce ba3c d6f6 b6b9 591b ab3c
000000f0: ed3f dd3c a8b5 1ebb 0720 b73c f43d 243d
00000100: 53bf 3e3c 0000 0000 a763 a13c 0000 0000
00000110: faca b43c 3c71 ca3c 0e85 72b8 da6f 373c
00000120: 0000 0000 0000 0000 7fb0 e63c 50c4 093d
00000130: 0000 0000 41c4 153c 0000 0000 6bef d33c
00000140: 0000 0000 0000 0000 766b fcbb 2fc6 d63c
00000150: 197a f03c bc7a 473c 0000 0000 fc9f 553c
00000160: 0000 0000 4b0b 763b 0000 0000 0000 0000
00000170: 0000 0000 1754 803c 40de beb9 0000 0000
00000180: 0000 0000 0000 0000 96cf 983c 265d 193b
00000190: 2054 ea3c bdd0 f03b 0000 0000 56b6 f83c
000001a0: 0000 0000 a946 eb3c 679d df3c 0000 0000
000001b0: f597 b43c 92e6 ca3c 0000 0000 0000 0000
000001c0: 0000 0000 bf42 ad3c cd3b 073d 0000 0000
000001d0: 0000 0000 0000 0000 0000 0000 34be f63c
000001e0: 0000 0000 0000 0000 2351 3f3c 0000 0000
000001f0: 0000 0000 0000 0000 0000 0000 0000 0000
0.0 0.0 0.0 0.03123041 0.0 0.020285208 0.0 0.0
0.0 0.0 0.0 0.0 0.012814682 0.027304646 0.02496968 0.0
0.0 0.011121812 0.014636599 0.0072447243 0.020312013 0.024718445 0.012186381 0.02141706
0.0 0.0 0.0 0.028347034 0.03166239 -0.00686276 0.022863442 0.029748531
0.006353822 0.0 0.0 0.0 0.0 0.0 0.0 0.031205488
0.016108153 0.0 0.013302802 0.0 0.019427435 0.0 0.002807892 0.0
0.0 0.024415622 0.020492842 0.019192286 0.0 0.0 0.0 0.0
-0.0022709072 0.0228034 -0.00034897652 0.020887064 0.027008021 -0.0024217162 0.022354139 0.040098146
0.011642295 0.0 0.019700838 0.0 0.022069443 0.024712197 -5.7821213e-05 0.011196101
0.0 0.0 0.028160332 0.033634484 0.0 0.009141029 0.0 0.025871
0.0 0.0 -0.00770324 0.026217548 0.029355096 0.012175258 0.0 0.0130386315
0.0 0.0037543352 0.0 0.0 0.0 0.015665097 -0.00036405213 0.0
0.0 0.0 0.018653672 0.0023401468 0.028604567 0.0073491023 0.0 0.030360382
0.0 0.028720217 0.027296735 0.0 0.022045115 0.024768148 0.0 0.0
0.0 0.021149991 0.033016015 0.0 0.0 0.0 0.0 0.030119993
0.0 0.0 0.011677059 0.0 0.0 0.0 0.0 0.0

features_extractor.vd_extractor.2.weight f4 [128, 128]
00000000: 5e70 a13a 0f2d 213c d35c 0500 5c4c 48bd
00000010: d569 0580 ac2c 0600 4724 43bd 668d 2b39
00000020: 5341 903a d22f 0f3c 7d39 8fae 5976 973d
00000030: e092 76bb 4218 97bc 56a7 86bb d967 0580
00000040: 67ac 4a3d f018 b93d 7c6d d4bd 44f4 263a
00000050: ae71 493c 274d c933 aebe 8c3c bcd8 1ebc
00000060: 9ab7 993a 65a1 713d 5068 0580 c01d 7c3c
00000070: 4053 6d3c 1ef5 7eac 86e5 4eab b530 86bd
00000080: fca7 2d3d 0074 0500 613a de37 73db 9a3c
00000090: 5d6c 20bb eb40 8738 9faa cc3b 6846 0e3c
000000a0: 4a32 f9bc 7537 7abc 47de 40bc 5d8a cc3c
000000b0: f6f6 d8bd 72ec e830 eff6 93bd d8c2 543d
000000c0: 4a66 c23c aabb 1aba 5a67 0580 3a8c 563b
000000d0: 1243 aabd 5fa5 c8bd 7d1f ee3b fd67 9e3c
000000e0: 82ee 32b9 5698 163c d93e e5aa bf92 743b
000000f0: af6e be36 08f6 93bb 839a 02bc e721 5c3c
00000100: 5fa7 2e3b 6d61 0500 08a5 4638 5ad8 b33b
00000110: dd94 9f3c c7b4 63bc 3fc3 093d f770 3ab5
00000120: bbc6 b82f 6227 a43d ffe2 c5a9 80f2 07be
00000130: 05b1 d437 bf65 42bc c2e0 463d 8e32 85bc
00000140: 155a 413d ba69 7ab8 6523 dd3b 4d73 a33b
00000150: 6a64 54b9 c3aa 8bbb c4f4 b03c db89 b4bd
00000160: afc5 6bbb 0ec3 7aa7 141a 073c f81f 39bd
00000170: 8a26 273c c535 82bd 7f85 edbc cb5c 0500
00000180: 1cf9 6d3a a6dc 3fbd 2820 b50a 1092 803c
00000190: 470f 723d 78bd 383d fb04 6d3c 6327 0318
000001a0: f074 af39 5413 8d3a 3370 0500 f5d8 b5bc
000001b0: bf3f 8ebd 10b8 eb38 0177 a0bd 396c 0580
000001c0: 4a2f ef39 38fc f23b 9f17 4a0f 9a8d a43d
000001d0: 413b 8cbd d3a6 e938 5e6f e63c 9b7b 31a6
000001e0: d34a 403a 2457 9eb7 ae53 363c 8215 ff35
000001f0: ba63 e8b4 1556 073a f260 0500 7b5d fe38
00000200: fd93 ed3b c2ac 1bbd dd3b 4fbc b006 743d
00000210: d955 a73c 89af 36bd 9d1d 7f3d 1867 958e
00000220: 9703 553e 0919 a238 f8cc 7933 1905 c2b6
00000230: 0bf1 3d3e e25d 8ebe f54d 483e 91e8 b43b
00000240: 15f0 053c 06e3 803d bfa8 193c b969 353c
00000250: 5c13 953d 9f90 d73c fcf9 a43e 4d3e b73d
00000260: c064 4f32 1f8f 963d e5f6 6b3d 6321 0d3d
00000270: 72b9 55bc 2173 87bc f95d 2cbe 756d 74be
00000280: a417 abbd 428c 2022 3464 0580 6c2b 62a6
00000290: b79a 2037 ece9 0e3d bb21 a32d 126d 9dbe
000002a0: 72d1 3cbe 4f0c 99bc 2cf9 c43d 8344 8cbc
000002b0: eeeb 033e da64 9d3d 5c0b e93d 17cb 7139
000002c0: c7bd b6ba 2382 353e 5720 d73d 10ce 8fbd
000002d0: 0d7a 6dbc ad44 8faf 490a 853c e0f6 ccbb
000002e0: b827 e437 f6c2 21bd 7eba ad3b e126 23bd
000002f0: a52f f93c 14ab b93d 453f 96bd 7ec5 96bd
00000300: d6f9 903c 28ae a09f d48e 62be 0d24 2dbd
00000310: 942a b13d 8661 173e 1822 34bd 4d1a 8ebc
00000320: aca8 8f31 46f8 72bc c123 9c3d 48f9 22bd
00000330: f48c 0600 948e f3bd b667 d9bd dc72 273e
00000340: b90f f5bb f600 943d 248c e4bc a248 2e3e
00000350: e077 60be 331d 303d 8c71 0580 57a9 01be
00000360: 373a 88bb 34be 173d a29d dfba 1082 df3c
00000370: 1a0c 5639 6a79 51bd 2f0e eabd 1dba 3f32
00000380: c745 18bb 1374 0500 7eb2 653d 38e4 35be
00000390: c7a1 773d 21f3 0ebd 91e5 cd9e f07d 993e
000003a0: 4de8 1d3c 6807 543e d51b fdbd 9c7a 4a31
000003b0: 1812 f8bd 319e 733e 9a83 022c 67bb 1cbc
000003c0: 9a9c 1dbc 5e48 283d fd59 2ebd 6520 e8b4
000003d0: e562 2702 2bdc 11bb ce60 0500 3368 773c
000003e0: ceff 0ab8 2ac3 73b8 6594 8ebc 5e94 0400
000003f0: 14b6 03bd aa9c acb6 4a41 8b3d a366 a5b7
0.0012316813 0.009837403 4.92477e-40 -0.048900947 -4.97143e-40 5.67038e-40 -0.04764202 0.00016360506
0.0011005796 0.008739429 -6.513099e-11 0.0739562 -0.0037624165 -0.018444184 -0.0041093035 -4.96431e-40
0.049480822 0.090379596 -0.10372445 0.0006368796 0.01229517 9.373826e-08 0.017180767 -0.009695228
0.0011727691 0.05899181 -4.96598e-40 0.015387952 0.01448518 -3.6231638e-12 -7.350443e-13 -0.06552259
0.04239653 5.0079e-40 2.6491647e-05 0.01890347 -0.0024478652 6.4493935e-05 0.0062459256 0.008683778
-0.030419488 -0.015272011 -0.011771745 0.02496832 -0.10593979 1.6947423e-09 -0.07224833 0.05194363
0.023730416 -0.0005902598 -4.96253e-40 0.003273739 -0.08313574 -0.09797167 0.0072669373 0.019336695
-0.00017064254 0.009191593 -4.072218e-13 0.0037318913 5.6753265e-06 -0.004515413 -0.007971409 0.013435817
0.0026650054 4.94127e-40 4.7360576e-05 0.0054884376 0.019480163 -0.013898081 0.033633467 -6.9454785e-07
3.3610612e-10 0.08015324 -8.787935e-14 -0.132761 2.53548e-05 -0.0118650785 0.04855419 -0.016259458
0.04720505 -5.970311e-05 0.006748604 0.00498811 -0.00020255303 -0.0042622997 0.021601088 -0.08815356
-0.0035975983 -3.4800209e-15 0.008245964 -0.045196503 0.0102020595 -0.06357912 -0.02899432 4.92465e-40
0.0009077953 -0.046841286 1.7441762e-32 0.015694648 0.0590966 0.045102566 0.0144665195 1.6951238e-24
0.00033465726 0.0010763207 4.99427e-40 -0.02219818 -0.06945752 0.000112399575 -0.07835198 -4.98e-40
0.00045620865 0.0074153207 9.963918e-30 0.08034821 -0.06847239 0.00011141379 0.028129276 -6.157673e-16
0.00073353684 -1.8875646e-05 0.011128349 1.900524e-06 -4.3285928e-07 0.00051626685 4.93955e-40 0.00012129076
0.0072503076 -0.03800655 -0.01264855 0.05957669 0.020426678 -0.044600997 0.0622841 -3.683061e-30
0.2080215 7.729425e-05 5.816125e-08 -5.782244e-06 0.18548982 -0.27806002 0.19560988 0.005520888
0.008174916 0.06293301 0.009378611 0.0110725695 0.07279083 0.026314078 0.32221973 0.0894743
1.2071894e-08 0.07351517 0.057608504 0.03445567 -0.013044702 -0.01653439 -0.16832723 -0.2386988
-0.083541185 2.1758295e-18 -4.95124e-40 -7.846835e-16 9.5727655e-06 0.034891054 1.8545934e-11 -0.30747277
-0.18439272 -0.018682627 0.09617838 -0.017122513 0.12882969 0.076852515 0.1137912 0.00023059208
-0.0013942056 0.17725424 0.10504215 -0.07021725 -0.014494431 -2.6060346e-10 0.016240256 -0.0062550157
2.7198214e-05 -0.03949257 0.0053017726 -0.039832 0.030418226 0.09065834 -0.073362865 -0.073618874
0.017697256 -6.805075e-20 -0.22124797 -0.04227071 0.08650699 0.14783296 -0.043977827 -0.017346526
4.1810235e-09 -0.014829701 0.07624007 -0.039788514 6.01577e-40 -0.11892429 -0.106154844 0.16352409
-0.007478681 0.07226746 -0.027898856 0.17019895 -0.21920729 0.042996597 -4.9991e-40 -0.12662254
-0.0041573304 0.037046626 -0.0017060528 0.027283698 0.00020413139 -0.05114118 -0.114284866 1.11599805e-08
-0.002323495 5.00817e-40 0.056078427 -0.1776284 0.060457017 -0.034899835 -2.1800166e-20 0.29978895
0.009637904 0.2070595 -0.12358824 2.9464564e-09 -0.12112826 0.23790814 1.8547165e-12 -0.009566165
-0.009619856 0.04108464 -0.04256629 -4.3236938e-07 1.2297604e-37 -0.0022256474 4.93904e-40 0.015100527
-3.314e-05 -5.8117475e-05 -0.017404744 4.20566e-40 -0.032156065 -5.1442375e-06 0.06799562 -1.9717327e-05

features_extractor.vd_extractor.2.bias f4 [128]
00000000: 0000 0000 7a69 443c 0000 0000 0000 0000
00000010: 16ad 94bb 1582 7c3b efa2 06bb 120c 953c
00000020: 8bb4 14ba c20d 42ba 0000 0000 9bcc 0c3d
00000030: 0000 0000 1802 07ba 0000 0000 5fcd 6bba
00000040: 8609 b53c 0000 0000 badf 073d b3f6 963c
00000050: 7351 523c 0000 0000 64b3 1c3c 0000 0000
00000060: af27 dbba 8a00 d03c 0000 0000 187e a1bb
00000070: 3b59 d13c 69ec 093c 0000 0000 0000 0000
00000080: 8a74 923c 2f48 b53c 22d7 14bb 0000 0000
00000090: 155f 733b 0000 0000 0000 0000 0000 0000
000000a0: 0000 0000 28b1 1b3c 0000 0000 5c2d 23bb
000000b0: c1b0 f23c ccc7 52bc 0000 0000 eed2 73bb
000000c0: ac90 cf3c dc97 f43b 94dc 1a3c d2e3 8abb
000000d0: 37ed 0bbb 0000 0000 c8f0 d03c 0000 0000
000000e0: 221f 0b3c ae75 93ba 6638 e9bb b4ec d83c
000000f0: 0000 0000 f805 083c 0000 0000 84e4 323c
00000100: 3010 18bc 0000 0000 0384 a03c 0000 0000
00000110: 0000 0000 0000 0000 0000 0000 6c1c 943c
00000120: a8e6 b93c 0000 0000 1b73 733c e3fa 01bb
00000130: 0000 0000 7345 12bb dcc0 0d3d 484b 163d
00000140: efed 0bbb 06a9 a53c 0000 0000 1161 9a3c
00000150: 00f5 bbba ec85 2fbc 0000 0000 8752 ec3c
00000160: 0000 0000 84c9 9a3b 43a9 f2ba 0000 0000
00000170: 805d b03c 7878 163d 7252 dbbb 762d d13c
00000180: 0000 0000 9118 c03c ffe7 1d3d 0201 003c
00000190: 5cf0 883c 09e4 b03c 6ed3 ec3b 1da5 f53c
000001a0: 0ba1 4b3d cf39 0f3b 8ac6 efbb 0000 0000
000001b0: 0000 0000 4fe3 323c 0000 0000 9c7d 733c
000001c0: 0000 0000 da5f 2bbc 0000 0000 805c 823c
000001d0: 0000 0000 0000 0000 cd8f e43c 76a9 893c
000001e0: 134b ac3c 0000 0000 6a43 c33c 2503 a13c
000001f0: 0a19 363c 8f75 3e3b 850c 87bb 1c05 9db8
0.0 0.011988038 0.0 0.0 -0.004537235 0.0038529683 -0.0020543893 0.018194232
-0.0005672655 -0.0007402563 0.0 0.034374814 0.0 -0.00051501533 0.0 -0.0008995141
0.022099268 0.0 0.033172347 0.018428182 0.012836802 0.0 0.009564254 0.0
-0.0016720201 0.025390882 0.0 -0.0049283616 0.025555244 0.008418181 0.0 0.0
0.017877836 0.022129146 -0.0022711237 0.0 0.003713553 0.0 0.0 0.0
0.0 0.009502687 0.0 -0.0024898862 0.029625298 -0.012865018 0.0 -0.0037204581
0.02533754 0.007464392 0.009452004 -0.004238584 -0.0021351108 0.0 0.025505438 0.0
0.008491309 -0.0011250281 -0.007117319 0.026480056 0.0 0.008302204 0.0 0.01091874
-0.009281203 0.0 0.019594198 0.0 0.0 0.0 0.0 0.018079959
0.022692993 0.0 0.014858986 -0.0019833378 0.0 -0.0022319227 0.034607753 0.036692888
-0.0021351536 0.020222198 0.0 0.018845113 -0.0014339983 -0.010713082 0.0 0.028847946
0.0 0.0047237296 -0.0018513579 0.0 0.02152896 0.03673598 -0.006693178 0.025534373
0.0 0.023449214 0.038551327 0.00781274 0.016716175 0.02159311 0.007227353 0.029985959
0.04971413 0.0021854525 -0.007317369 0.0 0.0 0.010918452 0.0 0.014861491
0.0 -0.0104598645 0.0 0.015913248 0.0 0.0 0.0279006 0.016804438
0.021031892 0.0 0.023835856 0.01965482 0.011114368 0.002906177 -0.0041213655 -7.487295e-05

mlp_extractor.policy_net.0.weight f4 [192, 256]
00000000: bffd 6bb1 a904 9636 940f 57bd 2740 bd3a
00000010: be18 e836 695e 0536 31b9 aeb9 eef9 3a25
00000020: b62c ef32 d006 17b6 94d2 0cbd c762 4d26
00000030: cd19 03b9 d577 2aaa 57dc 9830 d24a 8cbb
00000040: 1dce 31bd 5b65 0500 5f70 1383 d526 a0ae
00000050: e1e1 dfbc 13e9 8e9d cca5 b6b9 1e2c ca1d
00000060: 1e09 3dbd c076 64ab 2fd1 e1bc 1e25 10bd
00000070: 8ba6 553b e138 373c 6013 c33b fa0a 9e90
00000080: c758 963c 8b7f 8137 bddb 1cbb 3ee8 8b37
00000090: c6ab 23bc 8bda e2ba d235 9a3d 2cde 92b1
000000a0: 208d 58bb 2c2a de3b c53b 8ebb 48fb 003c
000000b0: c95d 0580 5ab2 f835 e85d 1ebd 5bec ed81
000000c0: 8c7c eabb 0b5a 0580 0ac6 5b3c 193e 2f32
000000d0: d35c 0500 43db 943c 1146 28bb 1081 ab27
000000e0: 68d2 0280 f415 06ba 6707 1dba e113 a6bd
000000f0: 239a c81c 31f5 3c90 b66f 663b 3f96 4cb7
00000100: 6499 86bc 4065 fa3a 0e84 fcbb cc3c 4ebc
00000110: 562a d9bb 2682 0a36 29f0 eab7 b94d 033c
00000120: 44e0 0fbe 606e 90b8 ed4b 113b abad c008
00000130: 5196 71bc 5d58 483c 9ba2 56af 14b7 6eb4
00000140: 9816 e5bd 4974 a8a8 6481 dabb 4760 0500
00000150: 3f6c 0580 bd6e 0580 51bf 8f36 49ab 7d38
00000160: 2968 c9bc 0b78 7fb8 1419 1fbc 4719 1fbc
00000170: fd02 1ebc 2eef 79b9 675c cebc c473 0580
00000180: 5c2f 183c 1744 6f1a 8864 0500 94ae ae3a
00000190: 0e64 0580 5b3e aab0 5cc7 0fbc 4073 c02d
000001a0: 11d5 92b9 97a4 a7b9 a26e 0580 3227 1a3c
000001b0: d378 aab8 4fd4 81b0 b361 bdb9 ac01 18bb
000001c0: 736f 0580 adbc c2ba 4e6a 0580 3970 0580
000001d0: 58e8 02a4 abf0 673b ef65 0500 08ba a93b
000001e0: 81aa e286 73ed 0300 ede4 91b1 734c ac3b
000001f0: 166a 0500 0123 90bc ef7a cab9 b0a7 653b
00000200: bf37 b6bb 60c6 9fb6 da91 4a34 3633 113c
00000210: 2c21 3fb9 2337 4f3d b2b2 8526 8b60 0500
00000220: b115 b0b9 2040 01bc 624a 87ba 029a 0d36
00000230: 90f3 c4bc 2428 893d 35b2 56bb 8c6a a033
00000240: e83e 8c39 bed2 b730 3de6 ae3b 5b54 030a
00000250: 2797 85bc 157b 7c38 795b 7cbc 86bb 0100
00000260: e8d5 b42f 640f 8eba c959 0580 a46c b9b9
00000270: 285a 0500 eb40 0e3d a1c5 60bc 3565 97b5
00000280: 4260 a8b9 8194 45ba 1b75 4fb8 6d8b f29c
00000290: ec79 1fb8 1576 a9a2 abc7 a039 2508 87b8
000002a0: da92 353c b44f 22bc e74c e3bb 7763 0500
000002b0: f166 3436 f837 953b 5f59 5e2d 3a15 93b4
000002c0: f591 4c27 0e59 0500 e609 34b1 2261 5b3a
000002d0: 1eb9 f13a e64e 853a 3b7b ce36 3565 0500
000002e0: e833 a33c 6abb 64bc fa0f 8739 a40a d0ba
000002f0: 2f79 0223 8a10 deb9 6a6b c13a 2649 c2b9
00000300: 0287 fba3 6637 82ba a1eb be00 303e 243b
00000310: 8f41 0900 b6fe 923c 084a 6e3a 1850 81b5
00000320: 3811 92bd 9865 c8b4 c5e1 493c fb51 b832
00000330: ac06 d3bc 7c1c 573a 3f34 cc3a 7e89 e3ba
00000340: a691 603c c056 5a3d bb18 a13a 3de2 cf3a
00000350: 58bd 1daf 2eb1 2e8d d327 bc3b d620 203a
00000360: 7026 8cba 7c13 883c 57fd 48aa 185a 0500
00000370: 4357 dc39 f651 cc00 1b0f 81b2 04df a633
00000380: 6418 93b9 bf66 99b6 f091 e9b3 c327 c0bb
00000390: b317 8233 95a9 2c39 6dd0 f4b6 7863 0500
000003a0: ae57 0580 db4e 8db5 0efe 84b8 0e3b ee37
000003b0: 160d d035 1b96 fbbb 7466 63bd 41c0 d636
000003c0: 304b 32b8 4cbd 3bb6 07f8 0c3d 850a bd34
000003d0: 91be 71bb 435e 0500 436f bbba 6186 243d
000003e0: 9b88 58ad af43 433b 5918 f2bb ed20 3a3b
000003f0: c64e c419 dab2 32bc 672e 9dbd ed3e 42b4
-3.4341239e-09 4.470891e-06 -0.05250509 0.0014438675 6.917019e-06 1.9873498e-06 -0.00033325845 1.6217608e-16
2.7843594e-08 -2.2504719e-06 -0.03438051 7.125753e-16 -0.00012502745 -1.5140608e-13 1.112208e-09 -0.00428138
-0.043409456 4.95537e-40 -4.3328413e-37 -7.2828556e-11 -0.027329387 -3.782808e-21 -0.00034837273 5.351457e-21
-0.046151273 -8.116667e-13 -0.027565567 -0.035191648 0.0032600488 0.011182995 0.0059532374 -6.2336924e-29
0.01835288 1.543739e-05 -0.0023934685 1.6678237e-05 -0.009989684 -0.0017307563 0.07529797 -4.2744173e-09
-0.0033043101 0.0067799296 -0.004340621 0.00787241 -4.92821e-40 1.8529347e-06 -0.038663775 -8.7399204e-38
-0.0071559604 -4.91479e-40 0.013413915 1.020046e-08 4.92477e-40 0.018170958 -0.0025676528 4.7601964e-15
-2.5915e-40 -0.00051149656 -0.0005990178 -0.0810926 1.3274733e-21 -3.726535e-29 0.00351618 -1.2194329e-05
-0.016430564 0.0019103661 -0.007706172 -0.012587737 -0.0066273613 2.0639359e-06 -2.8006807e-05 0.008014136
-0.14050394 -6.887014e-05 0.00221705 1.1596409e-33 -0.014745311 0.012228099 -1.9520956e-10 -2.223208e-07
-0.1118595 -1.8702177e-14 -0.0066682566 4.93715e-40 -4.98009e-40 -4.98903e-40 4.2840043e-06 6.0479422e-05
-0.0245858 -6.0908536e-05 -0.009710569 -0.009710616 -0.009644267 -0.00023835592 -0.025190545 -5.00706e-40
0.009288635 4.9479044e-23 4.95241e-40 0.0013327175 -4.9507e-40 -1.238685e-09 -0.008775558 2.1879054e-11
-0.00028006037 -0.0003197535 -4.98865e-40 0.009408759 -8.128737e-05 -9.446327e-10 -0.0003612168 -0.0023194356
-4.99158e-40 -0.0014857255 -4.97312e-40 -4.99435e-40 -2.838606e-17 0.0035391252 4.95744e-40 0.0051796474
-8.5262284e-35 3.60687e-40 -4.2460813e-09 0.005258137 4.97234e-40 -0.017594816 -0.00038620035 0.0035042576
-0.0055608447 -4.761663e-06 1.8865776e-07 0.008862307 -0.00018227537 0.05058969 9.277164e-16 4.9381e-40
-0.00033585497 -0.007888824 -0.001032185 2.1100282e-06 -0.02404192 0.06697109 -0.0032760028 7.4699614e-08
0.0002674975 1.3374899e-09 0.005337505 6.323286e-33 -0.016307427 6.019611e-05 -0.015402668 1.59106e-40
3.28938e-10 -0.0010838327 -4.91386e-40 -0.00035366893 4.9152e-40 0.03472988 -0.013718993 -1.1279832e-06
-0.00032115175 -0.00075370824 -4.946171e-05 -1.6050257e-21 -3.8022103e-05 -4.5932566e-18 0.00030666342 -6.438819e-05
0.011082375 -0.009906698 -0.0069366577 4.94859e-40 2.688201e-06 0.004553791 1.2639083e-11 -2.7396328e-07
2.838981e-15 4.91124e-40 -2.6199074e-09 0.0008368661 0.001844201 0.0010170608 6.1536243e-06 4.95484e-40
0.019922212 -0.013960699 0.0002576111 -0.0015872312 7.072976e-18 -0.00042355462 0.0014756743 -0.00037057063
-2.7270653e-17 -0.0009934723 1.7533272e-38 0.002506148 8.50037e-40 0.017943721 0.0009090011 -9.634559e-07
-0.071321905 -3.7326822e-07 0.012321894 2.14577e-08 -0.025760017 0.00082058436 0.0015579535 -0.0017359701
0.0137066 0.053305387 0.0012290695 0.0015860271 -1.4346335e-10 -5.383116e-31 0.005742052 0.00061084086
-0.0010692608 0.016610853 -1.7851463e-13 4.91497e-40 0.00042026685 1.8763843e-38 -1.5024446e-08 7.770544e-08
-0.00028056197 -4.5717165e-06 -1.0876454e-07 -0.005864115 6.0579076e-08 0.00016466372 -7.2960306e-06 4.9486e-40
-4.90631e-40 -1.0528269e-06 -6.341572e-05 2.839931e-05 1.5501016e-06 -0.007677806 -0.05551763 6.4000783e-06
-4.250853e-05 -2.7975357e-06 0.034416225 3.5211647e-07 -0.0036887268 4.92992e-40 -0.0014300126 0.040167216
-1.2308511e-11 0.0029794981 -0.0073881564 0.0028400973 2.0297741e-23 -0.010906899 -0.07674866 -1.809055e-07

mlp_extractor.policy_net.0.bias f4 [192]
00000000: 0000 0000 51af 0d3c 24c2 593c b0f5 2d3c
00000010: 85bd 1f3c 7f2e 44ba 068f 9a3c 7817 6a3a
00000020: 0000 0000 250d dd3b e523 35bc fd78 89bb
00000030: f6eb 163c 0000 0000 2d1d 01bb 0f07 f43c
00000040: b0c2 0b3c f5dc 573c 83ce cf3b e531 c3bb
00000050: 2186 413b 0000 0000 720f d3aa 0000 0000
00000060: 0000 0000 6c4b dbbb 8a8e 823c e995 873c
00000070: e003 e9bb 7025 be3a b31e 1abb cfce a93c
00000080: ecc8 b63c ac5f 0580 ba89 703c f4d1 75bb
00000090: b319 7e3c b565 7e3a 6f08 29bb d22f e33b
000000a0: 095c 253b 1428 1b3c 284e 633c cc68 6dbb
000000b0: 0000 0000 6dac 713c 78ef 29bc e17d 8a3b
000000c0: 5511 5cba 8bb5 a2b9 ee38 2c39 5f57 0500
000000d0: fd54 7839 3112 163b 43f1 69bb 0000 0000
000000e0: f0e3 75ba e329 f8ba 1e63 adbb e975 ad3b
000000f0: 1f4c 83bc 7757 843a 9317 483b e858 3b3c
00000100: 87bb 893c 1ef7 be3c 419c 833b d73d b4bb
00000110: 0e29 533b 9e11 573b faab d7ba d225 6e3b
00000120: 722c 6338 c3a1 23bc e45c ca3b 565a 0580
00000130: 387e 9c87 f5da 32bb 1298 843b 1788 fe3b
00000140: 8986 123c 8b68 b23c 63fa 1822 c068 573b
00000150: b45e 0580 530a 6b3b 1164 1ebc eaa4 59b9
00000160: 9a46 2cbb 6164 083c 1203 f1ba 8787 073d
00000170: dad8 9d3c 6585 bb39 0000 0000 bb70 6abb
00000180: 1081 943b 0000 0000 6795 8dbb cd06 4e3b
00000190: b730 85ba 5c3c 923b acaf ddba b1eb d9bb
000001a0: 2ae6 dc3c 835c 523b de56 8f3c 5ce4 ddbb
000001b0: 9815 9c26 8734 0a3c ae31 18bc dce6 ce3a
000001c0: ef38 843c a59e 8cbc 7489 92ad 6727 1cbc
000001d0: 05ba b43b 0000 0000 fc04 26bb 89c0 e93b
000001e0: 0335 9f3c 2fb1 913c 3c2c b93b 35e2 eb3b
000001f0: 93db 8e3c 33d1 e83b addb 2e3c 1105 2c3c
00000200: 7879 a03c c895 1a3c 9793 ad3c bafd 473b
00000210: 97d0 3bbb 0000 0000 24a5 b59c ea9a b5bb
00000220: 0000 0000 03c0 d73c 1b4f 0fbc 0ae2 933b
00000230: a228 0989 96fb 84bb 9fe0 8aba bdc9 10bb
00000240: 770d c3bb b4e4 4a3c 4b5e 32b9 cfdf 493b
00000250: 010f ca3a 8f16 cb3b 6358 c63c 2c5b 993c
00000260: 061c 05bb aff1 b33a 3104 09bc e81f 483c
00000270: 389f acbb a03a 753c 4ce0 0e35 8f25 baba
00000280: e98f 7e3b 4522 a338 0000 0000 62f2 bf3a
00000290: 0000 0000 00a2 d7bb a7bb 4f3c d468 10bc
000002a0: 5a8f b13b 0d0e c73a 37f1 ad3c dba5 febb
000002b0: 889b 4dbc b24a e7bb 1d92 713b 51f5 213b
000002c0: b84e a2bb 5ed5 363c 4eb3 e7b8 7d27 1b3c
000002d0: ca6e 55ba 9583 7cba 948f 07bc 34ab dd3c
000002e0: 24a5 e9bb 400a 38bc 9df2 43b8 b948 a63a
000002f0: 9778 1c3c ee27 9e3c cd66 463a 6878 13bb
0.0 0.008647756 0.013290916 0.0106176585 0.009749775 -0.0007483735 0.018867027 0.0008929889
0.0 0.0067459517 -0.011055921 -0.004195331 0.009211531 0.0 -0.0019701228 0.029788522
0.008530304 0.013175239 0.006341757 -0.0059568756 0.002952941 0.0 -3.7491847e-13 0.0
0.0 -0.0066923406 0.015937109 0.016550975 -0.0071110576 0.0014507007 -0.0023516833 0.020728497
0.022312604 -4.93498e-40 0.014681274 -0.0037509175 0.015509057 0.00097044866 -0.002579238 0.006933191
0.002523186 0.009470005 0.013873614 -0.0036225794 0.0 0.014750582 -0.010372035 0.0042264317
-0.00083949167 -0.00031034308 0.00016424406 4.9052e-40 0.00023682784 0.0022899027 -0.0035696782 0.0
-0.00093799736 -0.0018933382 -0.0052913567 0.005293597 -0.016027508 0.0010096867 0.003053163 0.011434771
0.016813053 0.023311194 0.0040164297 -0.005500536 0.0032220515 0.0032816897 -0.0016454451 0.003633846
5.416241e-05 -0.0099872975 0.006175624 -4.91584e-40 -2.3546456e-34 -0.0027291153 0.0040464485 0.007767688
0.0089432085 0.021778366 2.0732395e-18 0.0032868832 -4.9315e-40 0.0035864308 -0.009667412 -0.00020756168
-0.00262872 0.008324713 -0.0018387756 0.033088233 0.019268442 0.00035766806 0.0 -0.003577276
0.004531987 0.0 -0.0043207887 0.003143716 -0.0010161613 0.004462762 -0.0016913316 -0.006650411
0.02696522 0.0032098598 0.017497476 -0.0067716073 1.0830527e-15 0.008435375 -0.009289188 0.0015785354
0.01614043 -0.017165491 -1.665932e-11 -0.009530879 0.0055153393 0.0 -0.002533256 0.0071335477
0.019434458 0.017784683 0.005651025 0.007198597 0.017438686 0.0071050166 0.010672492 0.010499255
0.01958917 0.009435125 0.02118854 0.0030516223 -0.0028658265 0.0 -1.2020263e-21 -0.005542149
0.0 0.026336676 -0.008746888 0.00451303 -1.650988e-33 -0.0040583117 -0.0010595507 -0.0022092902
-0.005952533 0.012383629 -0.0001701053 0.0030803566 0.0015415848 0.0061977576 0.024212068 0.018720232
-0.0020310893 0.0013728644 -0.008362816 0.012214638 -0.005268004 0.014967591 5.3225517e-07 -0.0014201867
0.0038843101 7.778829e-05 0.0 0.0014644379 0.0 -0.006580591 0.012679017 -0.0088140555
0.0054187 0.0015186683 0.021233184 -0.0077712364 -0.012549289 -0.007058465 0.0036860772 0.002471287
-0.0049532317 0.011159269 -0.000110483365 0.009469864 -0.0008141814 -0.00096326444 -0.008273978 0.027059175
-0.007130282 -0.011232913 -4.6717574e-05 0.0012686468 0.009550235 0.01930615 0.0007568419 -0.0022502188
